actor_model_1.pth (torch_old, 588392 bytes, 10 tensors)

fc1.weight f4 [512, 24]
000000 c0 d8 e5 3d 59 74 d6 3d a3 5a f4 3b 57 f5 c8 bc
       0.112229824 0.1047141 0.007457094 -0.02453105
000010 c9 15 90 3d f6 28 e3 bd 03 59 d8 bc 53 e1 30 bd
       0.07035405 -0.11091797 -0.026409632 -0.043183636
000020 dd e6 0b 3d 75 a6 ea bb 98 73 26 3c a8 60 d1 bc
       0.034155715 -0.0071609565 0.010159396 -0.025558785
000030 e4 93 40 3d 58 83 5d bc 3d 65 43 3c 22 b6 2a 3c
       0.04701604 -0.013520084 0.011925993 0.0104194
000040 d0 0c 2e 3d c5 bc 3a bd f8 22 b1 3c 3e 58 0e be
       0.042492688 -0.04559018 0.02162312 -0.13900849
000050 54 bc 6e bd 61 f4 e0 3d a7 31 1a bb 74 38 25 be
       -0.058285072 0.109841116 -0.002352813 -0.16134816
000060 df 68 b7 3b 7c fb 07 bd 73 77 ed 39 f2 fe 00 bb
       0.0055972184 -0.03319882 0.0004529316 -0.001968321
000070 35 23 d4 bc 80 d7 2d be 7a af a1 ba 7f 68 b8 bb
       -0.025895694 -0.16976738 -0.0012335621 -0.0056276913
000080 a4 0d 02 bd 9a 68 57 3d 22 87 a8 3c 8d 48 93 3c
       -0.03175129 0.05258999 0.020572249 0.01797893
000090 71 3e 60 bb 0f 29 ac be a2 59 8d bc cb 1f 84 3b
       -0.0034216905 -0.33625075 -0.017254654 0.0040321103
0000a0 82 7f 9b 3d d6 b5 91 3d b8 bb 01 3c fb 7a 0f ba
       0.075926796 0.071147606 0.007918291 -0.00054733426
0000b0 37 24 b6 3d 0b 4f 7e be 80 0b 07 bc 9f d5 ba bc
       0.08893626 -0.2483484 -0.008242488 -0.02280694
0000c0 1e 3d b7 bc ea 81 1b be 96 7c b4 3b cf 21 56 3d
       -0.02236801 -0.15186277 0.005508016 0.052278336
0000d0 7d 91 03 3d 13 b7 28 3e 88 16 3f 3c 23 48 c9 3c
       0.03212117 0.16476087 0.011663087 0.02457053
0000e0 e5 ce 92 bc 80 d0 e4 bd 17 14 56 bd 3f 2f 39 bd
       -0.01792092 -0.11172581 -0.052265253 -0.045211073
0000f0 8a 43 ae 3d d0 86 bc 3c ec 5f 05 bd 74 42 ee 3c
       0.08508976 0.023013502 -0.03256218 0.029084422
000100 11 b1 86 3c 2c 6f c0 bd f8 b8 1e 3c 9a e8 49 bc
       0.016441854 -0.09396204 0.009687655 -0.012323523
000110 7d 56 b2 3d c3 f7 35 3e 0d 83 e6 bb 09 fb 3e 3c
       0.087079026 0.17770295 -0.0070346654 0.011656531
000120 0d b1 47 bc c5 48 a8 bc 84 d2 4f bd 27 23 d8 bc
       -0.012188208 -0.020542512 -0.050737873 -0.02638395
000130 9c b2 a7 bd be a0 0c 3e c8 78 93 3c 44 23 39 bc
       -0.08188364 0.13733193 0.018001929 -0.011299912
000140 67 4f 66 3d ab 3c 4a 3d 62 b2 0d bd ea 3e 38 3c
       0.056228068 0.049374264 -0.034593947 0.011245469
000150 b3 83 c3 bd f0 4c bc 3c b8 6e b1 3b 0b fa 20 3c
       -0.09546604 0.022985905 0.00541481 0.00982524
000160 a9 0f b1 3d 85 f4 a7 3d f9 d7 08 bc 9a cb 17 3d
       0.08645565 0.08200935 -0.008352273 0.037059404
000170 82 2a a3 be 96 e9 89 3c a6 83 0f 3b 46 19 fd bc
       -0.31868368 0.016835015 0.0021898537 -0.03089584
000180 3d c5 98 3d 75 a9 b7 bd 7f 77 76 bc b5 ad b2 bd
       0.07459495 -0.08967868 -0.0150431385 -0.08724538
000190 a7 2e 86 bc 12 c4 0c 3d 7f 4c 06 3d f3 7b a2 bc
       -0.016379667 0.034366675 0.032787796 -0.019834494
0001a0 c8 13 c4 3d 1a 1e bd bd 34 12 2e 3d a4 0b 33 3c
       0.095740855 -0.09234257 0.04249783 0.010928068
0001b0 c6 25 63 3d 09 86 fd 3c aa c0 91 3c 71 8a 37 3c
       0.055455945 0.030947702 0.017792065 0.011202441
0001c0 c5 49 50 3d a6 99 d6 bd 6d d8 bd bb b5 f2 23 bd
       0.050851602 -0.10478525 -0.005793622 -0.040026385
0001d0 a1 7f 15 3e a5 f3 94 3d 5d f1 36 3c 28 8a 83 bd
       0.14599468 0.07273034 0.011165944 -0.064228356
0001e0 34 b3 b2 3d ed 7c 13 3e 50 e7 64 bd 5f 0b a5 3d
       0.087255865 0.14403124 -0.05588466 0.080588095
0001f0 12 bf 37 3c 1b 49 40 bc d1 38 11 bd 8d 34 da 3d
       0.011214988 -0.01173618 -0.035454575 0.106545545
000200 52 a4 8d 3d 96 21 09 3e a6 40 06 bc 82 20 8b bb
       0.06916107 0.13391718 -0.008194124 -0.0042458186
000210 d5 de ee 3c 4b 28 0d 3c 35 18 15 bd cf ef 71 bd
       0.029158989 0.008615564 -0.03640004 -0.05906659
000220 4e a8 4e bc 09 15 05 3e 68 84 bf 3c db c3 d2 bd
       -0.012613369 0.12996306 0.023378566 -0.10291263
000230 9c 07 a1 3d 9f 92 84 3d 7e 91 42 bb 6b 03 b4 bc
       0.078627795 0.06473278 -0.002968877 -0.021974286
000240 b1 48 45 bd 7d f1 b0 3d 11 c8 8a 3d f1 dc 74 3b
       -0.048165027 0.0863981 0.06776441 0.0037363137
000250 ca f3 83 3b 72 09 0b 3d ab 82 80 ba 5d b9 8e 3c
       0.0040268647 0.033944555 -0.0009804567 0.017422372
000260 48 3b bf ba 3a 3b dc 3d b7 54 ac 3c 80 4f 0e 3b
       -0.0014589811 0.10753484 0.021036489 0.0021714866
000270 d0 6d 25 3c 50 96 23 bd da 02 0e bd cb 5f ef bc
       0.010096982 -0.03993827 -0.03467069 -0.029220482
000280 33 e3 f5 bd 18 23 a7 3d 00 53 df bd 61 b3 9e 3c
       -0.120062254 0.081609905 -0.10904503 0.019372644
000290 9b e0 d1 3d 9f 66 20 be be 85 2c bd 29 5a 65 3d
       0.10247918 -0.15664147 -0.042119734 0.055994187
0002a0 59 e9 c7 bd 8c b2 d9 bd 63 60 98 bc 4b 97 5c bd
       -0.097613044 -0.10629758 -0.018600648 -0.05385522
0002b0 dc 67 14 bd d5 20 ba bd b8 e6 de 3c a9 0c 8e bd
       -0.03623186 -0.090882935 0.027209625 -0.069360085
0002c0 40 61 e4 3c 6c 65 aa bd 7e 4b 12 3c 59 5f 35 3b
       0.027878404 -0.08320126 0.008929132 0.002767524
0002d0 6b 58 c0 bb d7 14 ce bc f8 5b 3c bb 18 b2 b3 3c
       -0.0058699152 -0.025156422 -0.002874134 0.021935508
0002e0 84 07 89 3d 11 a7 53 bd 5f 48 70 3b d5 e1 9d 3d
       0.066908866 -0.051673 0.003666423 0.0770909
0002f0 19 7f f8 3d 52 ee 57 3e c0 9c db bb 35 d0 02 3e
       0.12133617 0.21087006 -0.0067020357 0.12774737
000300 e6 c9 9f bd 3f b9 ea bc 51 7b ad bc 77 62 80 bc
       -0.07802181 -0.028652785 -0.021176966 -0.015671952
000310 5e b2 a9 3d 2d 1a 3a be 3a 14 bb 3c 6d cd 05 3d
       0.08285974 -0.18174048 0.022836793 0.032666612
000320 de 19 20 b7 ac b7 7d bd 8a 8c 1a 3c 7a 23 06 bd
       -9.542766e-06 -0.06194274 0.009432921 -0.032748677
000330 6f bd 55 bc 14 3b e6 3d 89 63 29 bc 35 88 1e bc
       -0.013045653 0.11241737 -0.010338672 -0.009676029
000340 44 ce a9 bc 89 5f 45 bd de 6c 61 bc 60 96 8b bd
       -0.020728238 -0.048186813 -0.013758866 -0.06815791
000350 b7 18 26 3d 4a 34 84 3e d9 0c 59 3c 87 39 88 bd
       0.040550914 0.25821143 0.013247692 -0.066515975
000360 4e 99 4f bd be 7f 5a 3a ab ea 12 bd b7 7c b7 3d
       -0.050683312 0.0008335075 -0.035868328 0.08959334
000370 17 08 74 3d dc 52 89 3e c7 4a fe 3c 4a 41 bd 3d
       0.059578028 0.2682103 0.031041516 0.092409685
000380 61 c5 01 bc c8 52 9d bc f5 d3 2e 3b 36 e7 d2 3d
       -0.007920594 -0.019204512 0.002667663 0.10298006
000390 f2 15 33 bc 23 40 cc 3d 5a bf 28 bc 14 9b bd 3d
       -0.010930525 0.099731706 -0.010299528 0.092580944
0003a0 99 20 2b 3d f2 e0 35 3d 1c 0e 3d 3d cb f1 ae 3d
       0.041779134 0.044403978 0.046156034 0.08542212
0003b0 1c 21 b6 3c ca b2 13 bd 60 62 37 3c eb 98 39 3d
       0.022232585 -0.03605918 0.011192888 0.04531185
0003c0 c9 5e 9b bc 3c bf d1 3d c4 7e f0 3c 84 76 2e bd
       -0.018966096 0.10241553 0.029357322 -0.042593494
0003d0 f5 fc 03 3d 1d 9d 50 3e 25 95 01 bd 9a 08 c2 bb
       0.03222366 0.20372434 -0.031636376 -0.0059214355
0003e0 97 cb e3 3c 54 ef 2b 3e 9e f9 34 bb 8b 17 45 3d
       0.02780704 0.16790515 -0.0027614604 0.048118155
0003f0 71 61 f2 3c 27 4d 42 3e 20 22 81 3b 6b 75 5b 3d
       0.02958748 0.18974744 0.0039408356 0.053578775

fc1.bias f4 [512]
000000 a6 8b 62 3d b4 29 3f bd cd 59 d3 3d 00 2e 14 3e
       0.05530896 -0.04667063 0.103198625 0.14470673
000010 f2 c1 4c 3d 24 99 44 3d ef b1 32 3e c7 08 fe 3c
       0.04998965 0.04799761 0.17450689 0.031010045
000020 31 cb 36 bd 6c 87 11 3e 1f c9 14 3e 51 6c 0e 3e
       -0.044627372 0.14211816 0.14529847 0.13908507
000030 e4 24 40 be 9e 5c 2c bd 2a 76 0d 3e cc 60 4d 3e
       -0.18764073 -0.042080514 0.13814607 0.20056456
000040 f6 08 2a 3e a7 09 0d 3d 7b f9 18 3e 6f 3c 6f 3d
       0.16604981 0.034433033 0.14938919 0.058407243
000050 97 b8 43 3e fb 95 11 3e 29 fb 4f bc ed 9d 57 bd
       0.19113384 0.1421737 -0.012694159 -0.052640844
000060 36 ab 0c be a9 25 ed bd 7b 75 22 be 88 86 e3 3d
       -0.13737187 -0.11579449 -0.15865128 0.11109644
000070 d1 64 81 bd a6 92 5d be c1 55 50 be 43 a8 4d bc
       -0.06318057 -0.21637973 -0.20345213 -0.012552324
000080 83 91 3b 3a 10 39 cc bd 0b 7e 43 3d 20 fa 26 be
       0.0007155167 -0.09971821 0.047727626 -0.16306353
000090 1a 5f ac 3d 2f ff db bc 9b 5a fb 3d dc a0 9f 3c
       0.08416577 -0.02685508 0.12273141 0.019485883
0000a0 5e 10 23 be b1 f1 42 bd 93 53 77 bd ea 17 43 3d
       -0.15924212 -0.047593776 -0.060382437 0.047630228
0000b0 02 0f 0c 3e 4b db 03 be 87 e5 44 be 53 db 10 be
       0.136776 -0.12876622 -0.19228183 -0.14146166
0000c0 bb 8f e5 3d 5d 63 8b 3d 04 17 c3 3d 04 a1 d8 3d
       0.11209055 0.068060614 0.09525874 0.10577586
0000d0 7b 5a e1 3c 12 95 3d 3e 46 ec 94 3d 62 80 81 bd
       0.027508965 0.18513897 0.07271628 -0.06323315
0000e0 1d 26 26 3e df 87 07 be 8d 3e c4 3c 45 c6 1f 3e
       0.16225477 -0.13235424 0.023955608 0.15602978
0000f0 73 bb fc 3c b5 67 11 be 6c 37 2b 3e 2e aa 90 3c
       0.030851102 -0.14199717 0.1672036 0.017659273
000100 67 39 b4 3c c2 7d 4c bd ac 47 f3 bd cc ef 0d 3c
       0.022000028 -0.04992462 -0.11878905 0.008663129
000110 67 aa 6c bc 7e 89 fe 3c fd ab dc bd da 75 88 3b
       -0.014444924 0.03107142 -0.10774992 0.0041644396
000120 14 a9 3a be 66 8f 4b 3e 44 31 1a 3d eb ea b8 3c
       -0.1822856 0.19878921 0.03764464 0.022572955
000130 44 f6 18 3e 47 4b 38 bb 0a c9 6a 3d 42 f0 c1 3d
       0.14937693 -0.002812104 0.057320632 0.09469654
000140 31 db af bd 9e 64 61 bd ed 97 93 bd ed 88 a2 bd
       -0.08586729 -0.055027597 -0.07206712 -0.07936273
000150 f4 dd 18 3e 73 a4 0c 3e 34 4b b9 3c 60 50 25 be
       0.14928418 0.13734607 0.022618867 -0.16143942
000160 5b 00 7b 3d 89 20 22 3d 64 ac 2b be e8 4d 70 3a
       0.061279636 0.03958181 -0.1676498 0.00091668824
000170 7c 50 b8 bd 6a a5 3c 3d f8 b7 ca 3d 05 77 d8 bc
       -0.08999726 0.04605619 0.098983705 -0.02642394
000180 51 88 52 be 68 15 09 3e 09 72 f8 bc ae 77 36 3e
       -0.20559813 0.13387072 -0.030327814 0.17819092
000190 3c 07 f1 bc da c7 1b 3d 69 e8 23 be 61 40 2d be
       -0.029422395 0.03803239 -0.16006626 -0.1691909
0001a0 37 e1 48 3c 0a cc 73 bd b7 6a 88 3d 88 ac 2d bc
       0.012260727 -0.05952076 0.06660979 -0.010600217
0001b0 06 f4 fc bd c0 4e 3d bd b1 b5 82 bd 3f 79 a3 3d
       -0.12351231 -0.04621768 -0.06382311 0.0798211
0001c0 64 cf a0 3d 21 29 32 bd 07 a1 01 3e 53 f1 76 bc
       0.078520566 -0.043496255 0.12659083 -0.015072185
0001d0 37 43 50 3e 0e 2d 07 3e 1c ab 52 3d 89 20 cf 3d
       0.2033814 0.13200781 0.051432714 0.101136275
0001e0 4a 40 cf 3d d5 84 45 be 08 04 41 3e aa 37 04 3e
       0.10119684 -0.19288953 0.18849194 0.12911859
0001f0 86 1c 75 3c 5e 98 29 3d a9 c0 f0 bc 45 d9 3b 3c
       0.014960414 0.041405074 -0.029388743 0.011465375
000200 db 33 15 bd fc 7e a7 bd e0 ed e3 bb 5b 68 f6 3d
       -0.036426406 -0.08178517 -0.006955847 0.12031623
000210 86 c5 2d be 98 5f 33 3e 35 f9 29 be c7 ea 18 3e
       -0.1696988 0.17516935 -0.16598971 0.1493331
000220 29 02 92 bd 38 51 1d 3d 4f aa d5 3d 65 23 79 3e
       -0.07129318 0.038407534 0.104328744 0.24329908
000230 bf a9 31 3d 8f 5b 08 be 3a 35 93 bd ee 9c 72 3d
       0.043374773 -0.13316177 -0.071878865 0.05923169
000240 1a 15 62 3d fa 98 4b be 64 6b 0e 3e ec ab dc 3d
       0.055195905 -0.19882575 0.13908154 0.10774979
000250 a0 88 8b 3a d6 6d 08 be 91 2a 31 be ea a2 12 bd
       0.0010645576 -0.13323149 -0.17301394 -0.0357999
000260 1e 66 4d 3e 10 ac 31 3e 05 cc 44 bd de 2b 2f bd
       0.20058486 0.17350793 -0.04804613 -0.042766444
000270 29 4e 05 be 7c 89 09 3e 83 65 1f be 84 5c fd 3c
       -0.13018097 0.13431352 -0.15566067 0.030927904
000280 69 53 60 3e ff d0 16 3e 9c b1 d9 bd 62 3a e5 bc
       0.21906818 0.14728163 -0.106295794 -0.02798194
000290 c0 03 ba bd e9 9c 20 3e d8 d5 38 3e 1d b5 5d bd
       -0.090827465 0.15684856 0.18050325 -0.0541278
0002a0 8d 1b 1e 3e 19 ca cc 3d cb be 37 3e d5 9a 69 3c
       0.15440197 0.099994846 0.17943875 0.014258106
0002b0 0a 24 0c 3e 63 b4 1a be b5 0d 88 bd 3e f2 f9 bd
       0.13685623 -0.15107875 -0.066432394 -0.12204407
0002c0 26 a5 60 be 8b 40 0b 3e 62 a8 2c 3e 19 ee d1 bd
       -0.21937999 0.1359884 0.16861108 -0.10250492
0002d0 73 e2 53 3e 67 0b e1 bd 98 c2 ee 3d 89 30 24 3e
       0.20691852 -0.10988503 0.116582096 0.1603414
0002e0 f8 cb f7 3d d4 51 9b 3c 62 b3 3e 3e 6c ac f1 3d
       0.12099451 0.018959917 0.18623117 0.11800465
0002f0 0a 45 30 bc e1 3a 10 3e 99 1c 13 3e ec 9a 10 be
       -0.010758648 0.1408496 0.14366378 -0.14121598
000300 7a 03 86 bd 88 d2 24 bc 8b a8 88 bd 38 a8 a5 bc
       -0.06543632 -0.01005996 -0.06672772 -0.020221815
000310 d6 3b ec 3d 85 0b 25 be 00 1f fc bd 1a 16 c4 3c
       0.1153485 -0.16117676 -0.123106 0.02393632
000320 df 1a 16 be 1c 79 33 3e c8 1f c5 bd 03 87 5a 3e
       -0.14658688 0.17526668 -0.096252024 0.21340565
000330 00 06 a2 bb 4e 45 5f 3e d9 f0 70 bc 16 44 d9 bd
       -0.004944563 0.21803781 -0.01470586 -0.106086895
000340 99 34 f1 3d 20 25 19 3e 48 90 20 be 56 ee 93 3b
       0.1177761 0.14955568 -0.15680039 0.004514496
000350 7a 68 39 3d f5 61 ed bd fe 5e 32 3e a0 e2 a8 3d
       0.045265652 -0.115909494 0.17419049 0.0824635
000360 29 5d 8d bd 25 b1 3b bd de b2 a4 bb fa a3 30 be
       -0.069025345 -0.045823235 -0.0050262054 -0.17250052
000370 1d 3c 57 3d d6 8a 33 3e 68 9c 09 3e c3 d0 e2 3d
       0.052547563 0.1753343 0.1343857 0.110749744
000380 68 c2 98 bd 67 e9 9b bb 73 7e e2 3c 0d 6b f6 bd
       -0.07458955 -0.0047580483 0.027648186 -0.12032137
000390 34 57 78 3d 8e c4 5f bd b3 f2 25 bd 94 78 12 3e
       0.06063004 -0.05463081 -0.04051466 0.1430381
0003a0 02 a6 31 3e c2 68 67 3d 12 e3 1a 3d 00 fb 99 3d
       0.17348483 0.05649639 0.037814207 0.075185776
0003b0 01 0c f9 3d 14 24 2a 3e ed 4e 0e 3e 8d 8d 02 be
       0.12160493 0.16615325 0.13897295 -0.1274931
0003c0 43 bf 22 3e b8 7d 83 3d 74 fd 65 3d a2 13 b7 3d
       0.15893273 0.06420463 0.056149915 0.089392915
0003d0 71 cf 1a 3e 5a 47 ac 3d 25 98 27 3e ca 4f a5 bd
       0.15118195 0.08412047 0.16366632 -0.08071859
0003e0 e7 73 15 3e 65 a8 e4 bc 8c 7f ba 3d 05 9e 4e bd
       0.14594994 -0.027912328 0.09106359 -0.050443668
0003f0 f7 56 98 bd 07 fb 3d 3e f2 21 d2 bd 44 61 28 be
       -0.07438462 0.1855279 -0.10260381 -0.16443354

bn1.weight f4 [512]
000000 5b 11 ff 3e 55 5a 62 3f d2 53 bd 3e 94 be 05 3e
       0.4981793 0.88419086 0.36978012 0.13060981
000010 cb 3e 12 3f 49 fc ce 3e 95 a8 c1 ba fe 8d ef 3e
       0.57127064 0.40426853 -0.0014774973 0.4678802
000020 db 4e 83 3e 20 29 44 3f c7 35 2c 3f ec 18 55 3f
       0.256461 0.7662525 0.6726956 0.8324115
000030 c7 11 37 3f f9 71 76 3f df 23 57 3f 95 80 1a 3f
       0.715115 0.9626766 0.8403911 0.6035245
000040 10 71 6d 3f e4 a0 b7 3d 15 69 43 3f 3a 5f 2e 3f
       0.92750645 0.08966234 0.7633222 0.68114054
000050 e0 76 83 3f 07 5f 13 3f 2f f2 7d 3e 47 81 d8 3e
       1.0270653 0.57566875 0.24799417 0.4228613
000060 44 ec 49 3f 13 53 b5 3e 3d cc 58 3f 52 fd 25 3f
       0.7887614 0.35414943 0.8468664 0.6483966
000070 e8 77 4a 3f dc 28 79 3f e5 35 38 3f 53 72 c6 3e
       0.7908921 0.9732797 0.71957237 0.38759097
000080 f7 dc 6b 3f 0f 8b 17 3f 80 5f e8 3e d8 3c 02 3f
       0.9213404 0.5919656 0.4538536 0.5087409
000090 1a d6 24 3e 5e 0f 6e 3f 1d 62 44 3f b3 30 75 3d
       0.16097298 0.929922 0.7671221 0.059860896
0000a0 a6 d8 52 3f c4 c0 15 3f ec 03 e2 3e f3 86 c6 3e
       0.8236183 0.5849726 0.44143617 0.38774833
0000b0 21 51 c9 3b 07 86 41 3f b8 1d 83 3f 47 b9 f1 3e
       0.0061437045 0.75595134 1.0243444 0.47211668
0000c0 63 60 79 3e 55 55 23 3e 2e e9 66 3f 9d d5 e6 3e
       0.24353175 0.1595052 0.90199554 0.4508485
0000d0 24 e5 72 3f 5b 55 79 3f b0 50 21 3e be 6e 15 3f
       0.9488089 0.9739587 0.15753436 0.58372104
0000e0 62 e7 2f 3f b0 31 41 3f 58 99 5e 3f e6 9e 52 3f
       0.6871244 0.7546644 0.86952734 0.8227371
0000f0 ff 70 48 3f 4e 12 27 3f ed f2 fd 3e 85 a7 f3 3e
       0.7829742 0.65262306 0.495994 0.47588745
000100 d9 b5 87 3f 4d 3d 59 3f 5c 64 ab 3e a3 d2 f3 3e
       1.060237 0.8485916 0.33475006 0.4762164
000110 f2 39 7c ba af 08 73 3f 14 5d a4 3e 29 fb 1f 3f
       -0.00096216716 0.94935125 0.32102263 0.62492615
000120 98 5a b9 3e 04 5d 68 3f 8b e3 a9 3e 39 1d 82 3f
       0.3620193 0.9076693 0.33181414 1.0165168
000130 3d 39 60 3f f2 f5 53 3f 74 44 a7 3d 74 60 47 3f
       0.8758734 0.8279716 0.08167353 0.7788155
000140 22 69 e6 3e 3a bf cd 3e d8 2b 76 3e 37 63 4f 3f
       0.45002085 0.40184957 0.24040163 0.81010765
000150 53 cb 3a 3f 51 d8 1e 3f 69 12 82 3f d4 ae 91 3e
       0.729665 0.6204882 1.0161868 0.28453696
000160 63 01 03 3f 86 b5 3b 3f 71 09 35 3f 1c 79 3d 3f
       0.5117399 0.7332386 0.7071753 0.74012923
000170 28 c4 54 3b 4b 05 2e 3f e4 04 11 3f d3 12 4e 3f
       0.003246555 0.67976826 0.5664809 0.80497473
000180 97 a5 16 3f d8 1e 70 3f 18 48 0a 3f d8 4b 1d 3f
       0.5884642 0.93797064 0.54016256 0.61443853
000190 2b e9 fc 3e 33 ef 6c 3f 54 ca 82 3e 08 f0 46 3f
       0.49396643 0.9255249 0.2554499 0.7771001
0001a0 8d 50 04 3f 8c 4f 65 3f af b5 46 3e cb c7 61 3f
       0.5168541 0.89574504 0.19405244 0.88195485
0001b0 f9 55 9b 3e c6 a8 1e 3f 5c 9a a8 3e 9f 16 7b 3f
       0.3033903 0.6197628 0.32930267 0.9808139
0001c0 90 54 6e 3f db 1a 07 3e e7 77 0c 3e 40 4c 97 3e
       0.9309778 0.13193838 0.13717614 0.29550362
0001d0 65 e6 80 3e 27 bc 28 3e e1 f9 13 3f 29 85 f9 3e
       0.25175777 0.16478024 0.5780316 0.48734406
0001e0 d7 19 0f 3f 8b 17 b5 3e b9 c5 0c 3f c2 e7 6c 3f
       0.55898803 0.35369524 0.549892 0.92541134
0001f0 79 c6 62 3f c0 e3 5b 3f 47 31 40 3f 0b cc 8e 3e
       0.88584095 0.85894394 0.7507519 0.27890047
000200 7d f9 77 3f 1e 3b 2d 3f d9 dc 89 3a 8b b0 5d 3f
       0.96865064 0.6766833 0.0010518088 0.8659751
000210 81 d8 e7 3e 93 4e f4 3d 24 3f 42 3e dc b3 22 3f
       0.45282367 0.11929049 0.18969399 0.63555694
000220 50 ba 1e 3f c9 54 55 3e 17 73 bf 3e c9 f9 3b 3f
       0.6200304 0.20833124 0.37392494 0.73428017
000230 cf 79 df 3e f4 18 88 3f 99 c2 3b 3f e2 c1 f7 3e
       0.4364762 1.0632615 0.7334381 0.48390108
000240 2a 44 7b 3f d5 9d 89 3f e2 d9 21 3f ac 49 c6 3e
       0.98150885 1.0751292 0.6322309 0.38728082
000250 1b 85 76 3f 66 c2 09 3f 42 ee 04 3f ab 81 67 3e
       0.9629685 0.53812253 0.5192605 0.22608058
000260 26 17 a7 3e 23 b2 5f 3e 4f d1 5d 3f f8 72 22 3e
       0.32634848 0.21845298 0.86647505 0.1586417
000270 64 1f 5b 3e 04 8a 66 3f 89 2a 79 3f 32 8a de 3e
       0.21398693 0.90054345 0.9733053 0.4346481
000280 7d a9 ec 3e e0 f5 43 3f e4 2f 8d ba 6f 92 47 3f
       0.4622306 0.7654705 -0.0010771719 0.77957815
000290 fc 80 99 3e 61 21 48 3f f7 46 87 3e e4 77 39 3f
       0.2998122 0.7817593 0.2642133 0.72448564
0002a0 31 6a e2 3e 51 1e be 3e 5d 6b 60 3e 22 04 55 3f
       0.44221643 0.37132505 0.21915956 0.8320943
0002b0 58 9a 85 3e 8d aa 64 3e 8b a3 cf 3e f9 82 20 3f
       0.26094317 0.22330685 0.4055446 0.6269985
0002c0 24 b1 55 3f 96 58 55 3f f2 83 31 3e 64 b6 3a 3f
       0.8347342 0.83338296 0.1733549 0.72934556
0002d0 dd 71 03 3f 07 d5 87 3e 0a 27 aa 3d e4 1a 0b 3e
       0.51345617 0.26529714 0.08308227 0.13584477
0002e0 0a 76 35 3f b8 e1 85 3d 4a 20 3f 3f 53 1c 87 3e
       0.7088324 0.06537193 0.74658644 0.26388797
0002f0 63 16 98 3f 54 21 fb 3d ac 66 16 3f a7 a2 12 3e
       1.1881832 0.12262216 0.58750415 0.1431986
000300 14 84 17 3e 12 d6 d9 3e a5 74 8c 3d 33 a9 75 3f
       0.14796478 0.42546135 0.06858186 0.959613
000310 59 c6 d4 3e 7c 20 51 3e e2 d8 70 3f 99 f5 23 3f
       0.41557577 0.20422548 0.94080937 0.6404663
000320 85 f4 e5 3e df a0 9f 3e 2a b3 04 3f cb 85 76 3e
       0.44913116 0.31177422 0.5183588 0.24074475
000330 6b b3 76 3b f3 ce 79 3f 92 77 41 3f 31 b6 fa 3e
       0.0037643563 0.97581404 0.75573075 0.48967126
000340 60 c8 83 3f 9b e3 e9 3e 9f 7c 9c 3e 08 ad 3f 3f
       1.0295525 0.45681462 0.30563828 0.748734
000350 d8 14 f6 3e 3a 27 05 3f b8 1e 63 3f 65 17 22 3b
       0.48062778 0.5201298 0.8871875 0.0024733183
000360 9d 05 20 3f ab 3a 6e 3f 59 88 1c 3f 56 5b d0 3e
       0.62508565 0.9305827 0.6114555 0.40694684
000370 47 a3 ce 3e d9 9e 5f 3f c7 23 27 3f e5 09 80 3f
       0.40358946 0.8735176 0.65288967 1.000302
000380 7a 1a 5b 3f e1 27 86 3e 58 5a f9 3e d8 0a 22 3f
       0.85587275 0.262023 0.4870174 0.63297796
000390 7f db 65 3f 5c 7a 16 3f fe 0e 7e 3f 6d e4 cf 3e
       0.8978805 0.58780456 0.99241626 0.40603963
0003a0 b1 83 b2 3e f2 20 58 3f 1f 35 4b 3f 37 07 8c 3f
       0.34866098 0.8442527 0.7937793 1.0939702
0003b0 fb af 35 3e 99 ed 0d 3f 70 83 4a 3e 8c 6c 3a 3f
       0.17742912 0.5544067 0.19776702 0.7282188
0003c0 db 26 89 3e 77 2e 19 3f e7 5f d8 3e 6b b5 80 3e
       0.26787457 0.59836525 0.42260668 0.2513841
0003d0 a4 2c db 3e f1 cb 2f 3f 23 09 22 3f 7c 17 64 3f
       0.42807496 0.68670565 0.6329519 0.89098334
0003e0 48 ba 54 3e 9b a0 16 3f 16 7d d6 3e 24 c4 06 3f
       0.20774186 0.58838814 0.41892308 0.52643037
0003f0 21 2d 43 3f f7 f8 50 3e 29 72 76 3f 81 f6 6e 3f
       0.76240736 0.20407473 0.96267945 0.93344885

bn1.bias f4 [512]
000000 30 45 3b bd d4 44 a9 bd 55 9a de bd c1 0f b1 bd
       -0.04572028 -0.08265081 -0.1086928 -0.08645583
000010 30 e3 08 be 0c 3a cc bd 01 ea f9 3d 3f cb f5 bc
       -0.13367915 -0.09972009 0.12202836 -0.030004142
000020 83 e8 c1 b9 3b c4 d4 bd 8c 4d 14 be 42 aa b6 bd
       -0.00036985063 -0.103889905 -0.14482707 -0.08919193
000030 ba 13 c8 bd 22 29 ec 3c 9f 39 14 bd 2c 79 8e bc
       -0.097693875 0.028828207 -0.036187764 -0.017391764
000040 04 cb 7d bd 6f 41 88 bd 20 a5 75 bc 6e ad 2d bc
       -0.06196119 -0.066531055 -0.014992982 -0.010600431
000050 9b 03 0e be f0 9c 94 bd 83 28 ba 3d 10 14 f1 bd
       -0.13868563 -0.07256496 0.09089758 -0.11771405
000060 7a 52 dd bd f4 2b 01 be a5 81 a3 bd e8 8f dc ba
       -0.10806747 -0.12614423 -0.07983712 -0.0016827555
000070 ab 2b 2c bd 9c e7 99 bd 8d b3 9c bd 07 ba 81 3d
       -0.042033833 -0.07514879 -0.07651434 0.0633431
000080 db 30 2c 3e ee 63 44 be 3f 56 85 bd 49 bd b5 bd
       0.16815512 -0.19178745 -0.06510591 -0.08873994
000090 ea 97 09 be c7 97 b9 bd da e4 46 3d d5 02 fb 3d
       -0.13436857 -0.09062152 0.048558094 0.122563995
0000a0 58 39 58 bd cc c9 fb 3d 3f 3c 51 bd 1f 92 e8 bd
       -0.052789062 0.12294349 -0.051082846 -0.113559954
0000b0 c5 a3 c0 bc c0 f7 62 bd 5f 9a 15 3c ac 2d 80 bd
       -0.023515591 -0.055412054 0.009131043 -0.06258711
0000c0 dd b1 23 bd 46 47 ef bd d9 57 a0 3d c9 14 dd bc
       -0.039964546 -0.11683516 0.078292556 -0.02698745
0000d0 00 1c 61 3a f3 a6 e0 bd 05 01 3c be 3f d1 33 bc
       0.0008587241 -0.10969343 -0.18359764 -0.010975181
0000e0 df d7 d5 bd a2 f4 46 3b b9 fe b4 bb ae 2c ba 3c
       -0.10441565 0.0030358215 -0.0055235294 0.022726383
0000f0 36 1d 27 be 11 ef 0a be 91 ca 9a bd e2 fc 8f 3d
       -0.16319737 -0.13567759 -0.07558168 0.070306554
000100 9f 15 90 3c 81 b7 e6 bc 30 3c 2e be 9e 99 89 3c
       0.017588435 -0.028163673 -0.17015147 0.016796883
000110 f8 21 04 3e 66 08 29 bd 6e bf d9 39 2d 02 d7 bd
       0.12903583 -0.041267775 0.00041532092 -0.10498462
000120 0c 7d 57 3d f7 d4 8e 3c 4b 11 d6 bd c0 c6 51 bd
       0.05260949 0.017435534 -0.10452517 -0.051214933
000130 24 57 b4 3d 71 e0 55 bd 5d 5f a1 bd c1 91 25 be
       0.08805683 -0.052215997 -0.07879517 -0.16168882
000140 d3 0e bd bd 3e cd 00 bc 18 15 8c bd 06 a4 c3 bd
       -0.09231343 -0.007861434 -0.06839961 -0.09552769
000150 85 a3 c3 3c 9e 02 b2 be 2c b4 c5 bc 01 36 32 be
       0.023881683 -0.34767622 -0.024133764 -0.17403413
000160 28 03 48 bd 2f 67 b7 bc 86 38 d7 bc d8 e2 97 bd
       -0.048831135 -0.022388069 -0.02627207 -0.07416314
000170 a5 17 49 bc ed d3 5e bd 53 4a dd 3d de c5 5b be
       -0.012273704 -0.054401327 0.10805192 -0.21462199
000180 fb 17 5b bd e5 9d a6 bd 59 bf 1d be 32 f6 1e 3e
       -0.053489666 -0.08135585 -0.15405025 0.15523604
000190 fc 94 d1 bd 88 22 51 be 3a 72 0b be ea 5e 91 bd
       -0.10233495 -0.20423329 -0.13617793 -0.070981815
0001a0 fb 40 08 be 0f 60 72 bd 27 52 23 be 94 f1 60 be
       -0.13306038 -0.05917364 -0.15949307 -0.21967155
0001b0 4e 64 b9 bd 26 ca bd 3d b7 2b 93 bd a6 f9 ab bd
       -0.09052335 0.092670724 -0.07186072 -0.08397226
0001c0 71 20 a6 3d 37 33 98 bd 82 a3 07 be 53 70 58 bd
       0.081116565 -0.074316435 -0.13245967 -0.052841496
0001d0 71 1a 30 bd 16 1a e7 bd 4a db d3 3d 97 e3 a1 bc
       -0.042993966 -0.112842724 0.103445604 -0.019761844
0001e0 fc 31 17 3d e8 fd e5 bd 0e dd 22 be 4c 62 aa bd
       0.036912903 -0.112300694 -0.15904638 -0.0831953
0001f0 ea ee a5 3d 62 9c e1 bc 53 50 c0 3c 42 ef 57 3c
       0.0810221 -0.02754039 0.023475802 0.013179602
000200 6b dd ed 3d 5e ab 31 3d 95 07 99 bc 60 a0 69 be
       0.11614498 0.04337632 -0.018680373 -0.22815084
000210 ee 6e 9c 3c 62 74 68 bd 34 b9 e9 bd 62 2b 83 bb
       0.019095864 -0.056751616 -0.11412278 -0.0040029744
000220 33 67 13 bd a7 52 26 be 4b 03 ea bd 0a 99 c9 bd
       -0.03598709 -0.16242467 -0.11426409 -0.09843643
000230 8c 2a 20 3d eb a6 60 3c 3b 2c 7e bd a7 99 17 bc
       0.039103076 0.013711671 -0.0620539 -0.009252942
000240 2e 38 e7 3d 2e 6d c8 bc c2 6c 26 be 90 87 03 be
       0.11290012 -0.024466123 -0.16252425 -0.12844682
000250 0c b1 39 be 2a 00 3c be 34 0d 65 be 37 b2 aa 3d
       -0.18133944 -0.18359438 -0.22368318 0.08334773
000260 48 c4 ea bd 15 b6 b2 3d a7 8e 81 be c8 33 3d 3b
       -0.11463219 0.08726136 -0.25304148 0.0028869975
000270 ed ed 16 be 10 6a 55 be f4 f0 5f bc 1a f5 20 be
       -0.14739199 -0.20841241 -0.013668288 -0.15718499
000280 65 42 45 3d 99 c1 4b bd 63 c7 0b 3e b6 3c a5 bd
       0.048159022 -0.049745176 0.13650279 -0.0806822
000290 13 98 b6 bd 42 0a 1e bd 24 ad bd 3d 45 72 fe bd
       -0.089157246 -0.038584 0.092615396 -0.12424139
0002a0 ce fb 03 be 19 64 d2 bd 71 ee 0a be 1a f9 35 be
       -0.12889025 -0.10272998 -0.1356752 -0.17770806
0002b0 8e 82 31 be f1 00 57 3d fd 5f a7 bd 61 ae 3c be
       -0.17334959 0.052491132 -0.08172605 -0.18425895
0002c0 8b 89 af bd 9d 78 c8 bd 7f 0c af bd 50 a9 93 bd
       -0.08571156 -0.0978863 -0.08547305 -0.07210028
0002d0 57 b8 5c 3c b9 38 b3 bd 12 56 ad bd 69 f0 c2 bd
       0.013471684 -0.08751053 -0.08463682 -0.09518511
0002e0 5b eb fb bd 5a 4f b7 3d 9c a3 fd bd ac f6 d8 bd
       -0.1230075 0.08950682 -0.12384722 -0.10593924
0002f0 bc 5e 02 3e 8f 15 57 bd 0f d4 23 be b3 ba 93 bd
       0.12731451 -0.052510794 -0.15998863 -0.072133444
000300 0e 59 0e 3e 6a bc 0d be 87 db c2 3d b7 c0 6d bc
       0.13901159 -0.13841406 0.09514528 -0.014511279
000310 67 64 e3 bd 3d d2 56 be 89 07 25 bd 86 39 ca 3c
       -0.111031346 -0.20978637 -0.04029039 0.024685632
000320 19 8e ad bd 52 35 8a bd 3c 64 32 bc 86 09 94 bd
       -0.084743686 -0.06748451 -0.010888156 -0.07228379
000330 22 43 60 bc 01 6d 19 be 32 6b 5f bd 7a 03 a8 3c
       -0.013687881 -0.14982988 -0.05454559 0.02050947
000340 39 b9 d1 bd ba 0f c3 bd 07 0e df bd 2a 43 14 be
       -0.102404065 -0.09524484 -0.108913474 -0.14478746
000350 1e 27 3e 3e 58 85 ca bd d1 96 92 bd 45 48 27 bc
       0.1856961 -0.098887146 -0.07157672 -0.0102101015
000360 9a 15 72 3d 11 92 1c be 1a 28 22 3d de b4 a5 3c
       0.059102632 -0.15290095 0.039589025 0.020227846
000370 e0 63 fd bd a9 37 34 be 9a 00 39 be 51 5b 31 be
       -0.12372565 -0.17599358 -0.18066636 -0.1731999
000380 f8 d9 59 bd 93 ed a3 bd 83 4a 2d be f8 b4 e9 bd
       -0.053186387 -0.08004298 -0.16922955 -0.1141147
000390 f5 97 00 be de 22 93 bd 45 f4 e7 bd d6 fc bd bc
       -0.12557967 -0.07184385 -0.113258876 -0.02319185
0003a0 59 fa 39 be 4f 25 51 3c e3 a8 9d 3d e9 e9 29 3e
       -0.18161906 0.012765243 0.07698228 0.16593136
0003b0 ab b6 21 3d e1 65 39 be ac 47 65 bd 95 fb e9 3c
       0.039480846 -0.1810527 -0.055976555 0.028562346
0003c0 6a 59 48 be 72 be a9 3a 36 81 03 be f9 ef 22 3d
       -0.19565359 0.0012950434 -0.12842259 0.039779637
0003d0 b6 df 2f be e0 69 dd bd 7b c5 43 bd 9b dc 8d bd
       -0.17175183 -0.1081121 -0.047795754 -0.06926843
0003e0 8c 00 38 be 45 10 15 3e 4c 11 93 bd c2 f2 7a 3d
       -0.17968959 0.14556988 -0.071810335 0.06126667
0003f0 27 80 f4 bd 62 b8 2f be 33 17 dc 3d e8 08 ff 3d
       -0.119385056 -0.1716018 0.107466124 0.124528706

bn1.running_mean f4 [512]
000000 93 c4 af bf 60 d3 5b c0 eb 97 ed 3f 65 33 6b be
       -1.3731865 -3.4347763 1.8561987 -0.22968824
000010 be d1 50 bf e2 bb 8a bf 9c 90 05 3f 45 75 07 3f
       -0.8157004 -1.0838587 0.5217378 0.52913314
000020 0a ff bf 3f dd 14 cd 3f b0 61 95 3f 70 75 88 3e
       1.4999707 1.6021992 1.1670437 0.26652098
000030 d8 7a 6b bf 12 b6 a8 3d 08 49 e8 3e 8d e6 a1 bf
       -0.9198432 0.08237852 0.45368218 -1.2648484
000040 15 43 34 3f 30 ec 83 3f 45 1e 3a 40 48 16 3f 40
       0.7041486 1.0306454 2.9080975 2.985735
000050 f4 c9 73 3f 5e ba 51 3f 10 ba c1 3e 69 ab 50 be
       0.9523003 0.81925 0.37837267 -0.20377888
000060 ed 19 38 c0 10 be 14 3e 24 be 09 40 ed af 97 3d
       -2.8765824 0.14525628 2.1522303 0.07406602
000070 7a c2 79 3f 65 e3 c2 3f 36 54 02 be 05 11 3d be
       0.9756237 1.5225645 -0.12727436 -0.18463524
000080 9d 0a 47 3e 00 1b 80 bf 47 7f 4a 3f 6c d7 3a bf
       0.19437642 -1.000824 0.7910046 -0.7298496
000090 99 24 1a 3f 2e eb 17 bf 3d 46 da 3f dc 5f 85 3c
       0.60212094 -0.5934323 1.7052685 0.01628106
0000a0 cb 13 da 3f a3 13 85 3f a3 46 a4 bf c4 e9 e9 3d
       1.703729 1.0396618 -1.2834057 0.114215404
0000b0 ac 27 7a 3f db 56 c5 3f 54 41 4b 3e 6d 2a e8 be
       0.97716784 1.5417131 0.1984914 -0.45344868
0000c0 9a 35 05 3f a6 56 85 3f 1b 85 44 40 1c 6e b2 3f
       0.52034914 1.0417068 3.070624 1.3939853
0000d0 df e3 ae be cd c6 51 3f 7e e6 d8 3c 4d 10 97 3f
       -0.34158227 0.8194397 0.026477095 1.180185
0000e0 82 67 de 3e 70 f7 07 40 85 e3 57 bd 8e c2 e4 3e
       0.43438345 2.1244774 -0.052707214 0.44679683
0000f0 6d 96 f8 bf 2d ce 62 be 65 94 92 3f 06 0f d3 bf
       -1.9420906 -0.22148962 1.1451536 -1.648896
000100 cd ca 02 c0 e1 0c 2d 3f 79 5a d4 3d 37 53 da 3e
       -2.043628 0.67597777 0.10368819 0.42641613
000110 a4 a1 17 3f a0 b6 4d bf 34 40 93 3e c7 c1 cf bc
       0.5923102 -0.8035679 0.2875992 -0.025360955
000120 fb 71 9b 3f 2f 8c 48 40 5b 69 12 c0 1b 1a 2b bf
       1.2144159 3.1335561 -2.2876804 -0.6683671
000130 4e b6 18 40 29 54 4d 3f 10 e3 ba 3f 38 d3 0b c0
       2.386127 0.80206543 1.4600544 -2.1847668
000140 3d ce 88 c0 6e 75 ea 3d f1 ae 91 bf a8 80 31 bf
       -4.2751756 0.11448179 -1.1381513 -0.6933694
000150 3b fb f8 3f 81 a3 07 bd 6a c8 d3 3f ad 62 16 c0
       1.945167 -0.033114914 1.6545537 -2.3497727
000160 1e c4 ba 3f 46 91 0b bf 9d 83 ec 3e c3 62 93 bf
       1.45911 -0.54518545 0.46194163 -1.1514515
000170 1c b9 ab 3e 1a 62 92 3e 02 0f e6 bf d4 8e e0 3f
       0.33539665 0.2859047 -1.797333 1.7543588
000180 95 66 ae 3e dc ee 12 c0 15 c4 da bf 1f fb 50 40
       0.3406264 -2.2958288 -1.709109 3.2653272
000190 b7 be cc 3e c0 ab 17 c0 3a b6 ff bf 85 0b cd 3e
       0.39989254 -2.3698578 -1.9977486 0.4004785
0001a0 7e a7 5f 3e 23 6d 84 bf 08 76 0f 3f 2d 73 b0 bf
       0.21841237 -1.0345806 0.56039476 -1.3785149
0001b0 c4 58 a7 3f e1 03 84 bf 3a f0 9a 3f 8d eb 17 40
       1.3073964 -1.0313684 1.2104561 2.3737519
0001c0 6d cb 34 40 61 ee a6 3e 0c eb 00 40 17 21 03 c0
       2.8249161 0.32603744 2.0143461 -2.0488946
0001d0 46 c4 b5 3f c8 cd 11 c0 8c bc c0 3e 24 21 2a 40
       1.4200523 -2.278185 0.3764385 2.6582727
0001e0 d3 ec 22 40 47 f1 89 c0 fc cd 75 bf df 3c e9 3d
       2.5457046 -4.310703 -0.9601743 0.11388563
0001f0 56 e2 3d 3d 96 fd c9 3f 94 8b a8 bf d3 cd e8 3e
       0.04635843 1.5780513 -1.3167596 0.4546953
000200 6e 0f 22 3f 7e 12 d3 3f 72 e4 e6 3d ad 92 0f c0
       0.63304794 1.6490018 0.11274041 -2.2433274
000210 e0 96 0c 40 45 0c 1d bf 28 ce 19 3f 8d f1 9f 3e
       2.1967087 -0.61346847 0.60080194 0.31238976
000220 0d 42 29 bf 6a 75 28 40 47 5a 31 c0 44 eb 2e 3f
       -0.6611641 2.6321664 -2.771135 0.68327737
000230 5e c4 89 bf aa a0 a5 3f 87 27 87 3f fa 12 07 40
       -1.0763052 1.2939656 1.0558938 2.1105332
000240 8e 4a 98 bd f3 ef dd 3e e7 29 2a 40 1f 1d 58 be
       -0.07436095 0.4334713 2.6588075 -0.21104859
000250 43 a0 00 c0 1f 63 36 bf 2b 95 67 c0 3a 03 d1 3f
       -2.0097816 -0.71244997 -3.6184795 1.632911
000260 98 78 0d 3f 80 8a 64 40 0a d8 5d c0 a7 d7 90 3f
       0.55262136 3.5709534 -3.466311 1.1315812
000270 7c 92 21 c0 fa 5a 6e be b1 75 e6 3f 4b a7 1d c0
       -2.5245657 -0.23276892 1.8004667 -2.4633358
000280 be b5 44 40 6c 87 aa 3e 45 a0 91 3f 43 fe 6f 3c
       3.0735927 0.33306444 1.1377035 0.014648023
000290 1f 9b d2 3f 0d f3 32 be 7f 57 27 40 39 1b 52 c0
       1.6453589 -0.17475529 2.6147153 -3.2829115
0002a0 29 0c 69 3e e2 91 40 3f 93 70 05 bf 71 ef c9 bf
       0.22758545 0.752226 -0.521249 -1.5776197
0002b0 e0 4c 7f bf cd a0 21 40 6c 28 70 bf 7c c2 ac bf
       -0.99726677 2.5254395 -0.9381168 -1.3496852
0002c0 30 0d 3c 40 3c ee 01 40 9e 45 8d 3e 05 94 04 c0
       2.938305 2.0301657 0.27592176 -2.0715344
0002d0 b2 f6 57 3d ed 99 b1 3e 8e 75 a7 3f 6e c5 40 40
       0.0527255 0.3468775 1.308275 3.0120502
0002e0 60 ac 01 3f a1 6a 31 40 ba 58 32 c0 b5 7b a1 bf
       0.5065365 2.772133 -2.7866654 -1.2615877
0002f0 04 3f 49 3f 8c cc 95 3e 7d ee 1c c0 03 da 19 40
       0.7861178 0.2925762 -2.4520562 2.4039314
000300 03 eb b1 3f b2 85 1b bf 76 fd e2 bf b5 38 fb bd
       1.3899845 -0.6075088 -1.77336 -0.122666754
000310 87 d4 1c 3f d5 37 8e bf 16 b1 83 bf 8a d6 36 3f
       0.6126179 -1.1110789 -1.0288417 0.7142111
000320 a8 25 26 40 8d 42 47 3f f1 86 4d 40 a2 36 eb 3f
       2.5960484 0.77835923 3.2113612 1.8376048
000330 9c 6e 70 be e1 a0 9a 3f 1c 52 70 3f 6d 4f 17 bf
       -0.23479694 1.2080346 0.9387529 -0.5910557
000340 5b 56 9f 3f 7b a9 e3 3e 0e 88 d4 3f f3 07 aa bf
       1.2448229 0.4446524 1.660402 -1.3283676
000350 2e 32 58 bf 3c 2c 91 bf 05 91 be 3f 94 a4 18 bf
       -0.8445157 -1.1341624 1.4888006 -0.59626126
000360 6a 61 96 bf 9c 9a cf 3f f8 25 a7 3e 9d d3 fd bf
       -1.1748478 1.6219058 0.32646155 -1.9830204
000370 d3 01 0d 40 08 d6 96 bf e1 00 21 bf cb 5b 2e c0
       2.2032363 -1.1784067 -0.62891966 -2.7243526
000380 bf 62 63 bf 05 37 96 3f 47 7a 47 bf e2 19 72 3e
       -0.8882255 1.1735541 -0.77920955 0.23642686
000390 fe 41 f4 3f 44 1e 29 40 9c 8e 55 c0 fc 85 64 3f
       1.9082639 2.6424723 -3.3368292 0.89266944
0003a0 c9 b1 82 c0 b9 89 23 40 ea 0c 46 3d 0f af 4d 3f
       -4.0842023 2.555281 0.04835216 0.80345243
0003b0 fb 4d 41 c0 60 91 d3 bf 6a 0a b3 be 25 ab e3 3f
       -3.0203846 -1.652874 -0.34968883 1.7786604
0003c0 02 d7 8d 3d d8 50 db 3f 70 c7 9c be 81 c9 ee 3e
       0.06925775 1.7134047 -0.3062091 0.4663811
0003d0 aa 32 aa 3e 95 d1 fe 3f 7e a2 e0 3e 5c 4a bd be
       0.3324178 1.9907709 0.43873972 -0.36970794
0003e0 70 f3 1a 40 90 ed 36 40 0e 33 54 3d e9 96 d9 3f
       2.4211082 2.8582497 0.051806502 1.6999179
0003f0 59 d0 c5 be 37 59 86 bd 5c 35 30 40 2a 25 81 bf
       -0.3863552 -0.06559985 2.7532568 -1.0089467

bn1.running_var f4 [512]
000000 39 5d 2f 40 bb e6 b4 3f 9f 2e 6a 40 47 0c 04 41
       2.7400649 1.4132913 3.6590955 8.252997
000010 fc 95 4c 40 82 f7 66 40 0f e2 c7 40 80 47 a6 3f
       3.1966543 3.6088567 6.246345 1.299057
000020 1a fc 52 3f 54 78 8a 40 ad ce 90 3f fe 34 ee 3f
       0.82415926 4.3271885 1.1313072 1.8609922
000030 a4 1d 3c 40 4a 77 14 40 05 e3 b4 3f 60 26 6d 3f
       2.9393091 2.3197808 1.4131781 0.9263668
000040 46 60 a4 3e 83 2e 65 40 2f 5d 33 40 ec 4b a6 40
       0.321047 3.5809639 2.8025625 5.196768
000050 ec 06 fc 3f aa 1d fa 3f 2c 2b 73 41 e7 b3 9c 3e
       1.9689612 1.9540303 15.19804 0.30606005
000060 4a f0 07 40 2e df 0d 40 6a 62 6e 40 ff c5 c1 3f
       2.124041 2.2167468 3.7247567 1.5138549
000070 11 6f 52 3f 57 b0 4d 40 00 2d 27 3e 75 67 eb 40
       0.82200724 3.213888 0.1632576 7.356379
000080 a7 53 2f 40 2f 41 54 40 a7 ac d8 3f d8 5d 0c 41
       2.7394807 3.3164785 1.6927689 8.772911
000090 b5 32 87 40 8a 63 3e 40 81 6e db 3f 6b 5d 0d 41
       4.22494 2.9748254 1.7143098 8.835307
0000a0 ca 01 92 3f fa 5a bb 40 23 28 fc 3f 9c d0 85 3e
       1.1406796 5.8548555 1.9699749 0.2613572
0000b0 2b e6 0a 3f b0 01 d0 3f bb 19 e5 3f 1f 6b 2a 40
       0.5425746 1.6250515 1.7898477 2.6627882
0000c0 b1 f0 b6 3f 08 06 7d 40 99 a4 a6 3f c3 89 d5 3f
       1.4292203 3.953493 1.3018981 1.6682667
0000d0 83 7a 43 40 39 d4 09 40 e9 e2 f0 40 30 c2 15 40
       3.0543525 2.153578 7.527699 2.3399773
0000e0 16 0c 8c 40 c9 59 8d 3f 30 2c 47 3f 7f ad 59 40
       4.3764753 1.1043025 0.778018 3.4012144
0000f0 42 0b 46 40 0b de 28 40 68 65 ad 3e e0 28 f8 40
       3.0944371 2.6385524 0.3386643 7.7549896
000100 bf f0 64 40 2f 8c 6c 40 70 46 69 40 af a0 ea 3f
       3.577194 3.6960561 3.6449242 1.8330287
000110 9a 82 db 40 d4 4c 55 3f 4a 07 f9 3e 05 c1 fa 3f
       6.8596926 0.83320355 0.48638374 1.9590155
000120 c1 48 b7 3f 52 dc a9 3f 18 58 ca 3f ee 44 23 40
       1.4319078 1.3270361 1.5808134 2.5510821
000130 7d 30 e6 40 ea 51 65 3f fc 58 1b 40 ac b4 83 40
       7.193419 0.89578116 2.4273062 4.1158047
000140 ca c5 0a 40 e3 7d f8 3f 38 17 fe 3f 6f a6 d2 40
       2.168322 1.9413418 1.9850836 6.5828166
000150 a8 0c e6 3f 42 c4 89 40 e4 fe 6e 3f 83 e4 11 40
       1.7972612 4.3052073 0.9335768 2.2795722
000160 36 0f f1 3f d5 09 f6 3f 60 15 da 40 d4 34 4b 3f
       1.8832767 1.922175 6.8151093 0.79377484
000170 cb 7c b9 3f ee e0 14 40 aa 04 82 40 33 a2 09 40
       1.4491209 2.3262286 4.0630693 2.1505249
000180 4e fe ea 40 56 c5 ca 3f f7 91 f3 3f c5 41 36 3f
       7.343543 1.5841472 1.902892 0.71194106
000190 12 ea 56 40 11 50 59 40 9b 4f 31 40 5e 22 7c 40
       3.3580365 3.3955119 2.7704837 3.9395976
0001a0 1e be 26 40 d9 12 3b 40 c8 a9 8a 40 2f 6f 44 40
       2.6053538 2.9230254 4.3332253 3.069286
0001b0 fd f0 4b 40 22 42 f4 40 80 bb c7 3f ca b0 0b 40
       3.1865838 7.633073 1.5604095 2.1826653
0001c0 06 ba 99 3f 03 19 e4 40 c6 57 43 40 1e d1 b6 40
       1.2009895 7.128053 3.0522323 5.713027
0001d0 3d f3 29 40 27 9d 14 40 a1 10 d2 40 27 16 2a 40
       2.655471 2.3220918 6.56453 2.657602
0001e0 2b 19 6e 3f d4 fb fc 3f 1e a0 a9 40 1f 5a 3a 40
       0.93007153 1.9764352 5.3007956 2.9117506
0001f0 7e 83 c3 40 ec 61 22 40 17 c4 30 40 cc 86 ff 3f
       6.1098013 2.5372267 2.7619684 1.9963012
000200 bd 05 b8 3f 1e 2e 20 41 44 e2 ac 3f 1b d0 a1 3f
       1.4376751 10.011259 1.3506551 1.2641634
000210 70 bd 04 40 1c da 31 40 1e 4c 45 40 49 35 a9 40
       2.0740623 2.7789373 3.0827708 5.2877545
000220 db 95 34 40 3f 40 5a 40 be b4 44 40 37 b1 b1 40
       2.8216465 3.4101713 3.0735316 5.5528827
000230 09 d0 22 40 84 7d 09 40 3c c5 9a 3f ae fc 4e 40
       2.5439475 2.1482859 1.2091441 3.2341723
000240 77 0d 64 3e c8 8a 02 3e 2b 9c 3e 3f 21 e6 0a 40
       0.22270761 0.12748253 0.74457043 2.170296
000250 77 60 1e 40 4c 26 5e 41 02 ff aa 3f 29 4f fe 3f
       2.4746377 13.88435 1.3359072 1.9867908
000260 89 75 3f 40 b3 92 ab 3f 47 74 fe 40 ac c4 e1 3f
       2.9915488 1.3404144 7.951694 1.7638144
000270 84 7c 1e 40 38 64 e0 3f 7c 22 3e 40 f4 56 dc 3f
       2.4763498 1.7530584 2.9708548 1.7214036
000280 e1 f3 4b 3f 55 d2 db 3f df 4a bd 40 c5 26 33 40
       0.79669005 1.7173563 5.9153895 2.7992413
000290 a1 45 88 3f 36 b7 1a 40 39 57 92 3f 3e 0e e9 3f
       1.0646249 2.4174323 1.1432868 1.8207471
0002a0 18 f5 34 40 1d 72 98 3f 44 9f 68 41 e8 4b cf 3f
       2.8274593 1.1909825 14.538883 1.619504
0002b0 b1 52 81 40 27 65 4f 40 48 0b ca 3f 8e e8 94 40
       4.041344 3.2405488 1.5784693 4.653388
0002c0 5f 3f d4 3f f4 26 eb 3f 7a 4d 6a 3e b5 c7 4e 40
       1.6581839 1.8371263 0.22881117 3.2309391
0002d0 ae 82 00 3f 09 73 ef 3f 6d 13 b0 40 eb ad 1f 40
       0.501994 1.8706981 5.5023713 2.49499
0002e0 8a af 86 40 4e 6b 1d 41 8e 66 2c 40 05 92 b9 40
       4.208928 9.838697 2.6937594 5.7990746
0002f0 38 56 48 3f 9f bf 26 40 08 db 2c 40 19 c3 ae 40
       0.7825656 2.6054456 2.7008686 5.4613156
000300 4f 2b 96 3f 90 b8 a6 3f 37 ff 36 41 0e 1c a2 3f
       1.1731967 1.3025074 11.437308 1.2664812
000310 91 6f 7f 40 a9 89 f1 3f 0c 22 22 40 9d 49 8c 40
       3.9911845 1.8870136 2.533328 4.383986
000320 ae 0a 02 40 34 98 e1 3f b1 02 82 3f b0 e9 eb 3f
       2.0319018 1.7624574 1.0157071 1.8430691
000330 e7 2b 4e 40 b8 7b 6a 40 cf 0f 9c 41 c2 7c 95 40
       3.2214296 3.6638012 19.507719 4.671479
000340 75 f2 56 40 a3 54 29 3f 18 d1 41 40 fa bc 4a 40
       3.3585484 0.6614477 3.028387 3.1677842
000350 83 6c 00 3f 4c 07 7a 40 d4 55 f1 3f 9e 5e ba 3f
       0.50165576 3.9066954 1.8854318 1.4560125
000360 16 e7 a8 3f 11 96 15 40 af 79 fb 3f 56 0f cf 3f
       1.3195522 2.3372843 1.964651 1.6176555
000370 be 4a 8e 3f 3e 04 c1 40 85 f6 bd 3f 74 d0 49 40
       1.111656 6.031768 1.4840857 3.153348
000380 46 9e 41 40 36 6d b2 3f a7 3f 44 40 cd 71 c3 3f
       3.0252852 1.3939579 3.066385 1.5269104
000390 11 5b e2 3f d4 d4 2b 40 1f de f3 3f 2c 84 28 40
       1.7684041 2.684865 1.9052161 2.6330671
0003a0 07 d9 a9 40 24 b1 65 40 af 68 d8 3f 37 30 d2 3f
       5.3077426 3.5889368 1.6906947 1.6420964
0003b0 5d 6d 31 40 6c d9 13 40 55 15 04 3f 39 dd 13 40
       2.7723 2.3101454 0.5159505 2.3103774
0003c0 21 34 1c 40 14 06 ce 3f cb f1 53 41 52 cc e3 3f
       2.4406817 1.6095605 13.2465315 1.7796729
0003d0 6c be 8c 3f da ec ae 40 fd b5 db 40 ed 3e 06 41
       1.0995612 5.4664125 6.8659654 8.390363
0003e0 9a a0 8f 3f 5d bc 78 3f c0 72 90 40 e3 1a d4 3f
       1.1220887 0.9716242 4.5140076 1.6570705
0003f0 73 c8 d6 3f 62 51 69 40 9e dc 85 3f 5f 24 84 3e
       1.6779922 3.6455922 1.0457952 0.25809

fc2.weight f4 [256, 512]
000000 7c e7 a7 3c 89 a7 77 bd a3 41 92 bb 10 2e 5e be
       0.020496123 -0.06046251 -0.004463391 -0.21697259
000010 05 2b 2c bb 5b 2f bd 3c 89 51 88 bd e9 f7 0b 3e
       -0.0026270759 0.02309387 -0.066561766 0.13668789
000020 fc dc f3 3d 62 bd f1 bb 01 0a 18 3d ee ca a8 bd
       0.11907384 -0.0073773125 0.037118915 -0.08241831
000030 0d f2 a3 3d 10 a3 1c bb 35 4a 13 3d 2f 3b 22 be
       0.08005152 -0.0023900904 0.03595944 -0.15842889
000040 82 d0 96 3d 44 63 2b 3d ca 39 45 bd b4 0e e3 3d
       0.073639885 0.041842714 -0.048150815 0.11086789
000050 b9 98 05 3e 9d b6 83 bd 4f 07 88 3d 58 42 25 bd
       0.1304654 -0.06431315 0.06642019 -0.040346473
000060 56 fd 76 bb 25 04 29 bd b5 9c a5 3d 04 26 4a 3c
       -0.003768762 -0.04126372 0.0808653 0.012338165
000070 f4 47 0e be 71 44 75 bc a7 70 77 3e 87 52 e2 3d
       -0.13894635 -0.014969931 0.24164067 0.11050897
000080 e1 e8 72 bd 08 f2 02 3d e1 10 2a 3e 97 be 23 3c
       -0.059304122 0.0319691 0.16608001 0.009994171
000090 b6 6c 2c be 91 f4 90 bd 35 8d ec ba 93 3a cb 3d
       -0.16838345 -0.07077897 -0.0018047454 0.099232815
0000a0 8c cf d5 3d 87 80 fa bd 29 06 13 3d 2b 1c 9d 3d
       0.10439977 -0.12231546 0.035894547 0.07671388
0000b0 18 0c c8 3c 87 2c 70 3d b6 9d 9a 3d 3e 78 f5 3c
       0.02441983 0.058636215 0.07549612 0.029964563
0000c0 b7 93 98 3d 23 d4 ef 3c bb 7a e9 bb 99 6c 6e bd
       0.07450049 0.02927596 -0.0071252263 -0.058209036
0000d0 a2 72 c6 bc 29 25 27 3c 76 f8 9a bd fe 87 de ba
       -0.024224583 0.010201731 -0.075669214 -0.0016977785
0000e0 71 de f7 3b 81 7c b3 3d af ba cc 3d 28 dc c1 bd
       0.007564359 0.087639816 0.099965446 -0.094658196
0000f0 63 a5 6c 3c 27 64 b5 3d 20 60 08 3e a9 92 76 bd
       0.014443728 0.08856993 0.13317919 -0.06019846
000100 18 5b b3 bd 91 bf 60 3d f5 4a a5 3d 90 e1 16 bd
       -0.08757609 0.054870192 0.080709375 -0.036836207
000110 94 33 89 bd f8 51 a6 bd e5 df 0a bd 89 28 a2 bc
       -0.06699291 -0.08121103 -0.03390493 -0.01979472
000120 7c 85 dd bc 98 67 bc 3d 57 2b 59 be e8 8a 03 3d
       -0.02704119 0.091994464 -0.21207939 0.032114893
000130 95 a8 05 3a e3 e6 07 3e 8f f4 39 bd a5 39 e3 3c
       0.0005098668 0.1327167 -0.045399245 0.027737448
000140 b9 67 05 be 4c 6f 1c 3e 5a 05 04 bd 4c fa 92 3d
       -0.13027848 0.15276831 -0.032231666 0.071766466
000150 5b ff 87 bd 45 0d 01 3d 3d 98 7d 3c 0d 7f 1f 3d
       -0.06640502 0.031506795 0.015478191 0.038939524
000160 cf 12 b6 3c 64 2d 15 3e 24 0f f9 3c 65 1b d2 3d
       0.022225766 0.14568096 0.030402727 0.10259131
000170 a4 7b 6b bd 75 07 df 3c da 2c b9 bd ec 97 cc 3d
       -0.05749096 0.027225235 -0.09041758 0.09989914
000180 49 cd a7 bd 02 65 f4 bd c1 19 95 bd 36 e9 03 3e
       -0.08193452 -0.11933328 -0.07280303 0.12881932
000190 5b 6f 36 3d c5 86 13 3c da 43 7f bd 14 8e 8e 3d
       0.04453979 0.0090042995 -0.062320568 0.06960693
0001a0 27 a0 70 3d d9 d1 88 3d c1 d3 36 bd a0 8d 33 bd
       0.058746483 0.0668065 -0.044635538 -0.043836236
0001b0 61 04 59 3c 6a ac 45 bd ea fb dd 3d 44 51 5d bc
       0.013245673 -0.04826013 0.108390644 -0.013508145
0001c0 1b 76 a8 3d a5 74 42 be 2b 97 09 be 00 68 e0 bc
       0.08225652 -0.18989809 -0.13436572 -0.027393341
0001d0 35 2d b7 bd 8c b5 d4 bd 1d e0 d7 bd 32 31 67 bc
       -0.089441694 -0.1038619 -0.10540793 -0.01411085
0001e0 b8 dd b3 3d 35 c5 71 bd 58 63 7c bd f4 45 3a 3d
       0.08782524 -0.059025962 -0.06161818 0.04547687
0001f0 a4 58 b0 3c 57 47 29 3e 2e a2 82 bc dd 9e 80 3d
       0.021526642 0.1653112 -0.015946474 0.06280301
000200 4f 45 31 bd 78 1e 01 3e 9b e2 ab 3c bb 77 92 bd
       -0.04327899 0.12609279 0.020982077 -0.07151743
000210 0f 24 23 bd 87 c1 6b be eb 50 46 3d 96 e0 aa 3d
       -0.03982931 -0.23023044 0.048417013 0.083436176
000220 e3 f8 f4 bd 41 20 9b 3d 97 de e9 3c 0b 77 e1 3c
       -0.11961534 0.07574511 0.028548522 0.027522584
000230 11 19 11 be 1e 09 0e 3e fc 93 fa 3c 23 e7 e7 bd
       -0.14169718 0.13870665 0.030588143 -0.11323383
000240 58 7e 4e 3c 9a d7 12 bd f8 74 07 3e 0d 69 5a bd
       0.012603365 -0.035850145 0.13228214 -0.05332284
000250 9c b6 34 3b 87 6e 12 bc 42 06 3d 3c cb d5 01 bd
       0.0027574664 -0.008937485 0.0115371365 -0.03169803
000260 b2 12 e2 bd bb fd c8 3a 0a e9 b2 3d 08 5b c4 3d
       -0.11038722 0.0015334407 0.08735855 0.09587675
000270 ca 3c 99 3d 6e 51 56 bd 14 04 4a 3c d3 59 1b 3d
       0.07482298 -0.05232375 0.012330074 0.03792746
000280 27 b9 2d 3e e9 14 81 3d 04 84 dd bc 41 96 22 bd
       0.16965161 0.063028164 -0.027040489 -0.039694075
000290 b0 49 0d 3b f3 1f d1 bb 45 2d 76 bc 59 f4 98 bd
       0.0021558814 -0.0063819825 -0.015025442 -0.074684806
0002a0 e4 98 bf 3d 01 5a ae 3a ca 05 04 bb 12 f5 e1 bd
       0.093553334 0.001330197 -0.0020145052 -0.110330716
0002b0 d0 0d 0b 3e b4 4e 85 bc b7 62 6b 3d dc 64 26 3d
       0.13579488 -0.01627288 0.05746719 0.04062353
0002c0 32 54 9f 3d 68 c0 07 3d a5 37 93 3d 74 97 cd 3c
       0.07779731 0.033142477 0.07188348 0.025096633
0002d0 42 1b 37 bd c4 96 80 3d 80 d3 e1 3b b3 15 e3 bd
       -0.04470373 0.06278756 0.006891668 -0.11088123
0002e0 3b d0 15 3d d8 37 43 bc a6 17 1e bd 78 3c 29 bd
       0.036575537 -0.01191517 -0.03859677 -0.041317433
0002f0 d0 1c 3e 3d b1 c8 bc 3d d1 79 f0 3c 43 73 9c bd
       0.046414196 0.09217966 0.029354962 -0.07639172
000300 fe 3c 3f 3d 9d 1a e6 bb f0 75 a1 bd 01 4b 10 3d
       0.046689026 -0.0070222155 -0.07883823 0.03522778
000310 ce e1 1a 3c 50 db 57 be 5a 04 66 bd c8 c7 a3 3d
       0.00945325 -0.21079755 -0.056156494 0.079970896
000320 a8 90 6d 3d 91 b5 99 bd 74 61 10 3e c5 fc 84 3d
       0.057999283 -0.07505334 0.14099675 0.064935245
000330 2b b5 51 3d 2d 7b 23 3d 08 d9 b4 ba c4 94 22 bd
       0.051198166 0.03991239 -0.001379759 -0.039692655
000340 60 34 61 3d 97 d1 06 3e e8 4f 6b 3c 38 4d 55 bd
       0.05498159 0.1316589 0.014362313 -0.052075595
000350 1f 78 28 be 1d bf 7a bc 77 93 58 3d 8f 14 64 bd
       -0.16452073 -0.015304354 0.05287501 -0.05568367
000360 64 3c c6 bc 37 5d 23 3d f3 35 3a 3c 55 c2 1c bc
       -0.024198718 0.03988382 0.011365402 -0.009567817
000370 c2 4d d7 3c 6b a1 a3 3c 82 c5 02 3d 9f 14 07 be
       0.026282195 0.019974431 0.03192664 -0.1319146
000380 8d 58 2a 3d 41 3e ba 3d fb 83 88 3b 1c d7 9a 3d
       0.041588355 0.09093905 0.004166124 0.0756056
000390 fb 3f eb 3d 26 76 81 3d 6f a1 bf bc 5c cc 04 bd
       0.11486813 0.06321363 -0.023392407 -0.032421455
0003a0 17 e0 96 3d 98 5d a7 3d 0a b9 a0 bd 0c 3f 1d be
       0.073669605 0.081721485 -0.078477934 -0.15356082
0003b0 f0 71 35 bd 74 0a 83 bd 7a fd 0d 3d f9 95 88 3b
       -0.044298112 -0.06398478 0.034665562 0.0041682688
0003c0 7a 62 e1 bd 2e ac 11 3d a8 2d 55 3d 6c 32 cf 3c
       -0.11005111 0.035564594 0.052045494 0.025292598
0003d0 fd 01 85 3d fe 6a 2c 3d 3a 3c eb 3d da f2 92 3d
       0.0649452 0.042094223 0.11486097 0.071752265
0003e0 d8 c0 b9 bd 2c d4 75 3c 60 ea 24 3c bc c2 85 bc
       -0.09069985 0.015004199 0.010065645 -0.016328208
0003f0 c8 3c 74 3d 15 f2 b2 3d a0 40 1c 3e a4 c0 a2 bd
       0.059628278 0.0873758 0.15259027 -0.079468995
