actor_model_2.pth (torch_old, 588392 bytes, 10 tensors)

fc1.weight f4 [512, 24]
000000 77 71 2d 3e 37 c7 45 3d 8f dd 8b 3b 5d 2a 8e bd
       0.16937815 0.04828569 0.004268355 -0.06941674
000010 c9 36 c7 3d 8a f6 ba 3c 9e 79 f2 bc 5d 5d b4 bd
       0.09727246 0.022822637 -0.029599007 -0.0880687
000020 57 f1 56 3d b0 3f 83 bd ed 0a 8a bc 63 0d bd bc
       0.052476253 -0.06408632 -0.016850913 -0.023077672
000030 e3 2d c5 3d 1e 1f dc 3d 28 24 77 bc 04 59 53 3c
       0.09627893 0.10748123 -0.015084304 0.012899641
000040 0d 98 38 3d 96 02 b1 bd fe e9 03 3c d2 61 a2 bc
       0.045066882 -0.08643071 0.008051394 -0.019822035
000050 c6 4b a0 bb 13 7a 25 3e 23 74 82 bc 38 b2 2c bd
       -0.0048918454 0.16159849 -0.015924519 -0.04216215
000060 5b 34 2e 3d 20 e7 cc 3d 48 0c 11 bb e2 bd a3 bc
       0.0425304 0.10005021 -0.0022132564 -0.019988004
000070 18 24 ac bc 1f a6 16 3e 81 92 7f bb 96 b7 c1 bc
       -0.021013305 0.14711808 -0.0038997235 -0.02364711
000080 3b a2 2a 3c c3 3f 3e 3e a0 e2 53 3c 30 f6 b2 3a
       0.010414655 0.1857901 0.01293245 0.0013653692
000090 3b 68 08 3c ba 61 ac 3d f2 ee cb bc 0b 26 4e bc
       0.008325632 0.08417077 -0.024894211 -0.012582312
0000a0 78 8d 29 3d 54 44 3f 3e c9 ff da 3b d4 01 b3 3d
       0.04139468 0.18678409 0.006683324 0.08740583
0000b0 32 53 da 3d df 12 d7 3c 88 47 1b bc 78 6b 85 3d
       0.106603995 0.026254116 -0.009477504 0.06514639
0000c0 c9 18 3f bd 5f 9c 3e be 0d 04 d0 bc 26 0d 28 3d
       -0.046654496 -0.18614338 -0.025392557 0.041028164
0000d0 8a ce 68 bc ef a6 a4 3d 17 98 9d bc d5 3d 5a 3c
       -0.014209399 0.080396526 -0.019237561 0.013320406
0000e0 ab 0b be bc 1f 92 e1 bd 95 3b 2c bd 01 6f 16 3d
       -0.023198923 -0.110141985 -0.04204901 0.036726955
0000f0 3e bb 46 3d 46 e3 f7 bd 0d 0d b7 bc a0 5f e3 3d
       0.04851841 -0.12103896 -0.02234509 0.111022234
000100 09 2a 8d bc f4 bd 87 bd 82 5e a1 bc 8d 6f b2 3d
       -0.017231958 -0.066280276 -0.019698385 0.08712683
000110 db 65 53 3d 58 5a 9e 3d 6a 2d 15 bd db 8b e3 3d
       0.05161081 0.077320755 -0.036420263 0.1111066
000120 ef 26 c0 3d 98 39 bb bd 6a 31 dc 3b 61 9d e3 3c
       0.09382426 -0.091418445 0.006719758 0.027785005
000130 bc b6 ca 3b 4c 24 42 3d 1b 8a 9a 3d 0f 98 2f 3d
       0.0061863344 0.047397897 0.07545873 0.042869624
000140 e9 5c db 3d 93 d1 36 bd 47 5d 0d bd d3 2e 84 3d
       0.107110806 -0.04463346 -0.034512784 0.064542435
000150 1d dd 11 3d 56 c4 e6 bc f5 19 b4 3b 31 46 81 3d
       0.03561126 -0.028169792 0.0054962584 0.06312216
000160 73 34 69 3d b5 2e c7 bc 00 53 60 3d c3 08 ad 3d
       0.056934785 -0.024314264 0.054766655 0.08448937
000170 08 16 9c 3d df 85 bd bd 76 c0 85 3d e3 6e 87 3c
       0.076213896 -0.092540495 0.0653085 0.016532367
000180 84 b0 8d bc d1 90 1d be 98 d3 6e bc fa eb 0b bd
       -0.017296083 -0.15387274 -0.014576815 -0.03416059
000190 d7 3d 5e bd 47 07 61 bd e6 34 08 3d bd 31 08 3d
       -0.054258194 -0.05493858 0.033253573 0.03325056
0001a0 e1 36 cc 3c 5f f8 c6 bd f1 b0 ad 3c ef 2e 59 3d
       0.024928512 -0.09715342 0.021202536 0.053023275
0001b0 5d 3c ea bc d3 62 33 3d 35 9c 65 bb b6 4e 5a 3d
       -0.028593237 0.043795418 -0.0035035734 0.05329772
0001c0 88 9e f6 3c af 14 f0 bd c2 22 de 39 6a 10 c7 bd
       0.03010489 -0.11722695 0.00042369036 -0.097199276
0001d0 e4 f6 cd 3d 23 8e 43 3e 39 67 8e 3c 8b a0 f8 bd
       0.10056856 0.1909719 0.017383205 -0.12139996
0001e0 4b 44 77 3d 0b 54 a5 3d 32 0b 0f bc 81 b2 f4 3c
       0.060367864 0.080726705 -0.0087306965 0.029870274
0001f0 55 fc 2d bc b8 aa 32 3d 79 ac 3f 3c 7e ab 64 3d
       -0.010619243 0.04361984 0.0116988355 0.05582761
000200 06 8d b3 3d 40 b7 cf 3d 58 e9 5c 3c 0a 8c 99 3d
       0.087671325 0.10142374 0.013483368 0.074974135
000210 e7 3c 15 b9 aa 8c 20 3e d3 37 71 bc 2c 18 a5 3c
       -0.00014232435 0.15678659 -0.014722782 0.020153128
000220 42 93 6a bc 0a 9b 05 3e 5e aa a0 3c b9 63 ef bc
       -0.014317336 0.13047424 0.019612487 -0.029222356
000230 0e c1 db 3c 31 68 9c 3e f6 ad dc bb 36 d4 53 3d
       0.026825454 0.30548242 -0.006734605 0.051716052
000240 6e b4 26 3d 60 7a a4 3e 67 00 4b 3c a5 fd 3b 3c
       0.040699415 0.32124615 0.012390233 0.011474048
000250 2b c5 fc 3c e3 a8 b7 bd cd d3 66 bd 60 1c ce 3c
       0.030855736 -0.089677595 -0.056354333 0.025160015
000260 51 80 79 3d 37 35 ad 3e 8d 05 aa 3c b4 0c 8e bc
       0.060913388 0.33829662 0.0207546 -0.017340042
000270 e2 e7 6f 3b 73 bc 4c bc 0b 2a 0f bd d1 9b 47 bd
       0.0036606719 -0.012496102 -0.034952205 -0.048732582
000280 a5 a1 5a bd 5b 5e 72 3e 84 3c e4 bc fb fe 38 bd
       -0.053376812 0.23668806 -0.027860887 -0.045165043
000290 d5 cd db 3c 06 98 23 3d 0f 02 20 3d b0 f9 0b bc
       0.026831547 0.039939903 0.039064463 -0.008543417
0002a0 cc 58 d9 bd 35 14 58 be ff d2 c8 bb 15 e7 53 bd
       -0.1061264 -0.21101458 -0.0061286683 -0.05173405
0002b0 21 37 f7 bc b4 63 8d bd 60 89 22 3d 28 b4 89 bd
       -0.030177655 -0.069037825 0.039681792 -0.06723815
0002c0 29 0d 1f 3c 57 d5 3b be de df a0 3c fb ef 87 3b
       0.0097077275 -0.18343101 0.019637998 0.004148481
0002d0 6f 66 f1 bc 8e 38 0f 39 1b 5d 00 3c 76 00 bf 3c
       -0.02946779 0.00013658611 0.007834698 0.02331565
0002e0 7a 2a cc 3c b1 32 2f be 0f ce 08 3c 38 c3 86 3d
       0.024922598 -0.17109181 0.008349909 0.06580204
0002f0 c9 bd 97 3d 06 58 63 3e c5 46 04 bb 6f 82 ee 3d
       0.074092455 0.22201547 -0.0020183783 0.11645972
000300 d8 e6 ae bd 34 41 17 be 7e ba fb bb a3 7a ce bc
       -0.08540124 -0.14770967 -0.0076821437 -0.025204962
000310 f0 56 d0 3c 46 77 b3 bd 65 d0 14 3d c2 83 bd 3c
       0.02543208 -0.08762984 0.036331553 0.023134116
000320 76 63 7b bc b5 74 35 be 1b 33 92 3c 5c 03 58 bd
       -0.015343538 -0.17720301 0.017846635 -0.05273758
000330 c7 3b 52 bd 14 86 e3 3d df 52 fc ba 2d 06 f3 bc
       -0.05132654 0.11109558 -0.0019250772 -0.02966603
000340 54 8a fe bc 22 c7 04 be c5 41 25 bc f3 37 99 3c
       -0.03107182 -0.12966588 -0.010086481 0.018703436
000350 9a d1 69 3b 55 56 96 3e c4 9b 8a 3c 88 aa a6 3c
       0.003567791 0.2936274 0.016919978 0.020344988
000360 03 7d 81 bd 8b 6b 73 3c ea e8 5a bd 61 90 a3 3d
       -0.06322672 0.014857183 -0.05344478 0.079865225
000370 cf 14 5f 3d 9e 92 03 3e e2 9b 5c 3c 01 55 a9 3d
       0.054463204 0.12848899 0.0134649 0.08268166
000380 39 81 94 3b 43 0f 11 bc 63 87 6c 3d b5 21 ff 3d
       0.004532006 -0.008853736 0.057746302 0.12457601
000390 ac a5 79 bc 82 6a b9 3c 5e 6a 37 3d eb d4 e9 3d
       -0.015237253 0.022633795 0.044779174 0.11417564
0003a0 20 da 0c 3d 4b 19 7a 3d f2 14 a4 3c a1 2f e5 3d
       0.034387708 0.061059278 0.020029519 0.11190725
0003b0 68 08 1e 3b 89 f7 be bc 96 ad 74 bc 2e 0a 93 3d
       0.0024113897 -0.023311393 -0.014933964 0.07179676
0003c0 3e 1a 93 bd f5 72 bd bd 8c 1a 07 3d f5 fe 98 bd
       -0.0718274 -0.09250442 0.0329843 -0.07470504
0003d0 f8 e3 21 3d 7a a8 2b be a6 74 e5 bc 24 c8 1b bd
       0.03952405 -0.16763487 -0.028009724 -0.038032666
0003e0 26 d6 4c bd ab 72 a6 bd a0 6c ad 3c c6 6a d2 bd
       -0.050008915 -0.0812734 0.02116996 -0.10274272
0003f0 a9 8d 5b 3d f8 41 3d 3c 7a 53 e4 3c bc 3b c7 bd
       0.053601895 0.011551373 0.027871836 -0.0972819

fc1.bias f4 [512]
000000 ae 8a e3 bb 4d b5 79 bc 4f 3c 8d 3d 72 77 07 3e
       -0.006944022 -0.015240979 0.068962686 0.13229159
000010 f3 71 48 3d 3c 2d 75 3d 45 d4 19 3e 2d 49 a4 3b
       0.048936795 0.059857592 0.1502238 0.005013606
000020 2a 27 8a bd 69 7c 68 3e ea 2c 0e 3e b8 e4 d3 3d
       -0.06745751 0.22703709 0.13884321 0.10346359
000030 68 27 e6 bd 9e 50 e7 bc 6b cd 0e 3e b1 0b 31 3e
       -0.11237985 -0.028236683 0.13945548 0.17289616
000040 aa 00 0e 3e a9 a6 83 3d f9 87 21 3e 7e 02 23 3d
       0.13867441 0.06428272 0.15774526 0.0397973
000050 ef c2 33 3e bb 9a 17 3e eb a0 2e bd c4 27 9d bd
       0.1755483 0.14805119 -0.042633932 -0.076736
000060 3a 0e 0c be 86 5a e1 bd 2f 37 13 be 02 06 b3 3d
       -0.13677302 -0.11003594 -0.1437652 0.0874138
000070 50 2f a6 bd 4a d6 1d be 2f a8 fc bd 2f cc 85 bc
       -0.08114493 -0.15413776 -0.12336766 -0.016332714
000080 93 12 9f bc 5b f6 e2 bd d2 0e b6 3d 68 1b 40 be
       -0.019418037 -0.11082145 0.088895455 -0.18760455
000090 a1 8f c3 3d df e1 f8 bc ae 29 f9 3d 6b ca d3 3c
       0.095488794 -0.030381141 0.12166153 0.025853356
0000a0 96 07 f4 bd 64 07 39 bd 56 81 3b bd 30 40 06 3d
       -0.119155094 -0.045173064 -0.04577764 0.032776058
0000b0 02 0f 0c 3e d2 7f 0e be b9 df 33 be f6 84 4e be
       0.136776 -0.13915947 -0.17565812 -0.20167908
0000c0 6c 6e 1a 3e ec 45 ab 3d 5e 2f be 3c 21 ff cb 3d
       0.15081185 0.08362946 0.023215946 0.09960771
0000d0 c5 c6 b4 bb fa 25 16 3e 66 ef a6 3d 93 cf 2a bc
       -0.0055168592 0.14662924 0.081511304 -0.010425466
0000e0 5c 26 22 3e a9 13 5f be 6c 07 22 3d 92 25 14 3e
       0.15834945 -0.21784844 0.03955786 0.14467457
0000f0 06 4f cf 3c 90 c3 05 be 29 ca 6a 3e 37 fd bd 3c
       0.025306236 -0.13062882 0.2292868 0.023192031
000100 04 b2 bb bc ce 41 84 bd d6 46 30 be b4 af d0 bc
       -0.022912033 -0.06457864 -0.17214522 -0.025474407
000110 0f be cc 3c ef 7a 8e 3c 7d 55 0b be 39 12 a2 3b
       0.02499297 0.017392604 -0.1360683 0.00494602
000120 5c 98 5d be f5 c1 2d 3e c4 08 63 3d 62 b9 c3 3d
       -0.21640152 0.1696852 0.05542828 0.09556843
000130 28 fe 11 3e 30 58 92 bd 65 31 a0 3d d7 ce 17 3e
       0.14257109 -0.07145727 0.07821921 0.14824997
000140 41 d4 e4 bd 87 3f 24 bd 02 74 c0 bd 2a e0 cc bd
       -0.11173297 -0.040099647 -0.09397127 -0.100036934
000150 22 b9 28 3e c7 3a 25 3e d8 24 70 bd 30 e2 14 be
       0.16476873 0.16135703 -0.058628887 -0.14539409
000160 2d 07 8a 3d 96 53 2e bd 9e 36 23 be 61 f1 ed bc
       0.0673965 -0.042560183 -0.15938804 -0.029045762
000170 a9 40 f9 bd 1e 1b 42 3d 48 ab f9 3d 74 07 03 bb
       -0.12170536 0.047389142 0.121908724 -0.0019993456
000180 c2 5d 54 be d8 4e f0 3d 97 e2 6c bd 16 86 0e 3e
       -0.20738891 0.11733788 -0.05783328 0.13918337
000190 a3 82 44 ba 5e 03 5e 3d 05 84 1c be 9a 51 67 be
       -0.0007496273 0.05420243 -0.15284736 -0.22589722
0001a0 9d 0e b6 bb f4 9b ae bd 11 4a 26 3d a2 6e 06 bd
       -0.0055559413 -0.085258394 0.04059798 -0.03282035
0001b0 24 b3 2d be e3 5f 1e bc ca d9 b0 bd 26 1e 88 3d
       -0.16962868 -0.009666416 -0.0863529 0.06646375
0001c0 27 5a bd 3d 87 92 cd bb 34 da ed 3d 9c 22 aa 3b
       0.09245711 -0.006273571 0.116138846 0.005192114
0001d0 d2 92 50 3e 42 67 cb 3d ce f3 7a 3d 8f 6c 93 3d
       0.20368508 0.09931804 0.061267667 0.0719844
0001e0 f8 f3 5c 3d 8b 58 27 be f6 eb 2e 3e 24 7b 01 3e
       0.053943604 -0.1634237 0.170822 0.1264463
0001f0 9a 36 46 bc cf b2 63 3d e9 47 de bc 27 2c 10 bd
       -0.012097979 0.055590447 -0.027133899 -0.035198357
000200 ea 67 68 bc 46 1b 99 bd e0 ed e3 bb 66 3d 12 3e
       -0.014184931 -0.07475905 -0.006955847 0.14281234
000210 56 8d 10 be b4 4e 29 3e 69 3c 5a be ce 45 2e 3e
       -0.14116415 0.16533929 -0.21312107 0.17018816
000220 3f bc 4f bd 51 c9 4e 3d a3 dc 17 3e ab f3 5f 3e
       -0.050716635 0.05048496 0.1483026 0.21870296
000230 c5 4e 62 3d cf e0 fc bd 1b 6c 5f bd f4 d9 33 3c
       0.0552509 -0.12347566 -0.054546457 0.010977257
000240 04 f1 84 3d 6a df 1b be 94 16 d1 3d 8d db ae 3d
       0.064912826 -0.15221944 0.102093846 0.0853797
000250 47 65 dc bc 05 71 15 be e3 cc 71 be 78 d4 8e bd
       -0.026903762 -0.14593895 -0.23613314 -0.06974119
000260 fa b1 25 3e 43 33 3e 3e d4 dd 4a bd 2e 23 cd bc
       0.16181174 0.18574242 -0.049527958 -0.025041189
000270 e2 c6 21 be b3 0f 13 3e 3c c5 1b be c0 a8 18 3c
       -0.15798524 0.14361458 -0.15211958 0.009317577
000280 18 61 61 3e a3 fe 0c 3e 7a 6c e4 bd 8c ed 04 bd
       0.22009695 0.13769011 -0.11153503 -0.032453105
000290 3d 80 c5 bd 47 44 2e 3e aa e5 2c 3e d5 dd d2 bd
       -0.096436 0.17018233 0.16884485 -0.10296217
0002a0 ea 27 38 3e 23 2c d7 3d 9c c1 34 3e 39 02 8b 3d
       0.17983976 0.10506465 0.17651981 0.06787533
0002b0 ee 7c 2c 3e 0c ae 12 be a2 0b 8b bd 4c 25 d9 bd
       0.16844532 -0.14324206 -0.06789328 -0.10602817
0002c0 6d 98 32 be c4 4f 11 3e 8c 01 1b 3e 7b 0f 04 be
       -0.17440958 0.14190584 0.15137309 -0.1289653
0002d0 33 0a 40 3e e0 4d 1c be 18 15 e8 3d bc 53 1e 3e
       0.1875389 -0.15264082 0.11332148 0.1546163
0002e0 8f bc 0c 3e 1e 81 19 3d 91 13 3d 3e 2b 06 d6 3d
       0.13743804 0.03747665 0.18464495 0.10450395
0002f0 46 8e 1d bd d9 b2 2d 3e 06 c7 d2 3d 34 af 33 be
       -0.03846576 0.16962756 0.10291867 -0.17547303
000300 60 81 0b bd 69 e9 36 3b c9 4f 65 bd b2 06 a8 bb
       -0.03405893 0.002791012 -0.055984292 -0.0051277513
000310 44 71 0f 3e 85 41 d2 bd 43 7a d2 bd 95 85 07 3d
       0.14008051 -0.10266403 -0.10277226 0.033086378
000320 50 85 0e be a6 8c 20 3e 23 bf 0f be 47 85 59 3e
       -0.13918042 0.15678653 -0.14037757 0.21242248
000330 e7 c7 3c bc 88 34 4a 3e cd 55 2e bd 8b 6c c2 bd
       -0.01152227 0.19746602 -0.042562295 -0.09493359
000340 1f 66 e9 3d 85 9a 30 3e d2 35 37 be 79 3d 54 bd
       0.11396431 0.17246445 -0.17891625 -0.051816437
000350 21 6f 1f 3c e3 92 0c be f1 be 1f 3e a0 e2 a8 3d
       0.009731085 -0.13727908 0.15600182 0.0824635
000360 1f 33 92 bd 75 7f b2 3b c7 d2 22 3d 8c 08 4f be
       -0.07138657 0.005447323 0.039751794 -0.20218104
000370 42 50 1b 3d e3 7e 3f 3e f7 0f f0 3d ea c6 21 3e
       0.037918337 0.18700747 0.11721795 0.15798536
000380 b5 bb 9a bd d4 1d 48 3d 91 a5 38 3d 28 db 11 be
       -0.075553335 0.04885657 0.04507977 -0.14243758
000390 ec 9e f8 3d a4 5e 43 bd 39 f5 95 bd bb f9 49 3e
       0.12139687 -0.04769768 -0.07322163 0.19724171
0003a0 d5 e2 62 3e a5 af 62 3d cd 72 07 3d 46 1b ce 3d
       0.22156842 0.05534329 0.033068467 0.10063796
0003b0 cb dc 97 3d d2 b0 c8 3d 25 df a2 3d 65 2b 60 bd
       0.0741516 0.09799351 0.07952718 -0.054728884
0003c0 69 13 45 3e 03 8d 73 3d ed 0a 2d 3d 5e 07 bd 3d
       0.19245686 0.05946065 0.042246748 0.09229921
0003d0 a5 74 01 3e e4 54 b2 3d ab 5c 16 3e dd 1b 48 bd
       0.12642153 0.08707598 0.14683788 -0.048854697
0003e0 4a f6 ea 3d 87 59 22 bd a8 2a d4 3d b5 68 8e bd
       0.11472757 -0.03963616 0.103596985 -0.06953565
0003f0 67 d4 f1 bc 50 ef 2f 3e f8 b3 f8 bd 30 f0 28 be
       -0.029520227 0.17181134 -0.12143701 -0.16497874

bn1.weight f4 [512]
000000 1a a3 02 3f 01 08 45 3f c7 f8 cb 3e 92 72 5d 3c
       0.51030123 0.7696534 0.3983824 0.013516085
000010 30 02 21 3f bb 66 f3 3e e6 03 ec 3d 3a d3 d9 3e
       0.6289396 0.47539315 0.11524181 0.42543966
000020 52 f5 9c 3e 0e 6d 44 3f 80 6f 1d 3f 77 b3 4a 3f
       0.30655915 0.76728904 0.6149826 0.7918009
000030 60 44 2b 3f 3d 8d 62 3f 5e 82 4a 3f c5 f3 0c 3f
       0.66901207 0.8849676 0.79105175 0.5505946
000040 21 4c 7a 3f 67 1f 4d 3e 1e d4 33 3f a0 3b 2f 3f
       0.97772413 0.2003151 0.7024554 0.68450356
000050 70 ec 88 3f 0f d2 13 3f 85 6a 53 3e 62 28 de 3e
       1.0697155 0.577424 0.20646103 0.43390185
000060 86 4b 50 3f 29 c7 c0 3e 6b c5 5a 3f d1 08 0f 3f
       0.8136524 0.37651947 0.85457486 0.5587283
000070 6d 12 4c 3f 98 cf 83 3f 55 f2 f0 3e d9 d6 c4 3e
       0.79715616 1.0297728 0.47059885 0.38445166
000080 12 f9 6c 3f c8 2c 17 3f 2a 4b ff 3e c1 e8 0a 3f
       0.9256755 0.59052706 0.49862033 0.54261404
000090 1a 8f 1d 3e 60 35 89 3f 20 27 33 3f dc 33 b6 3c
       0.1538662 1.0719414 0.69981575 0.022241525
0000a0 c9 52 50 3f 3c bd 26 3f 9d 60 de 3e 27 3c b0 3e
       0.8137632 0.651325 0.43433085 0.34420893
0000b0 9b cf ed 39 18 e5 51 3f 0e 87 6e 3f e5 39 d8 3e
       0.0004535884 0.81990194 0.9317483 0.4223167
0000c0 73 42 80 3e b9 98 3d 3e 61 75 6e 3f 34 c4 fe 3e
       0.25050697 0.1851529 0.93147856 0.49759066
0000d0 b9 18 7b 3f 5c 68 6c 3f 07 38 48 3e f7 24 17 3f
       0.980846 0.9234674 0.19552623 0.5904078
0000e0 4d 7b 34 3f d8 33 6b 3f 5f ee 52 3f 0e 06 4c 3f
       0.7050064 0.9187598 0.82394975 0.7969674
0000f0 ae d7 47 3f 69 92 31 3f 2e e8 c4 3e e8 3f eb 3e
       0.78063476 0.6936403 0.3845839 0.45947194
000100 17 a4 7d 3f d7 34 51 3f 2b a7 e3 3e 8e 6a 00 3f
       0.99078506 0.8172125 0.44463477 0.5016259
000110 2d fa 15 3f 87 0b 69 3f f4 60 98 3e e6 c3 0b 3f
       0.5858486 0.91033214 0.2976147 0.5459579
000120 e3 c5 9e 3e 9a a3 59 3f ab ea 99 3e bc 7d 7c 3f
       0.3101035 0.8501526 0.3006185 0.98629355
000130 cc a5 65 3f 0a 96 47 3f 66 27 b6 3d 84 09 56 3f
       0.8970611 0.77963316 0.088942334 0.8360827
000140 5f 0e e8 3e 74 8b c8 3e 59 7c a4 3e 54 fe 5c 3f
       0.45323464 0.39168894 0.3212612 0.86325574
000150 6e 5b 4e 3f 07 8e 25 3f 04 39 63 3f ef 3a 7d 3e
       0.8060826 0.6466984 0.88758874 0.24729513
000160 df 0a 0e 3f ab 8c 47 3f e2 e5 41 3f 11 36 33 3f
       0.5548534 0.7794902 0.757414 0.70004374
000170 6e ec 9e 3d 88 45 23 3f bc 8f fe 3e f4 d9 5c 3f
       0.07759939 0.6377797 0.49719036 0.8627007
000180 36 a1 25 3f 0f 2c 76 3f dc b9 02 3f 73 77 1c 3f
       0.64699113 0.9616098 0.5106485 0.61119765
000190 8c 3d ef 3e 21 b8 73 3f 87 33 95 3e 4c f5 50 3f
       0.46726644 0.95202833 0.29140875 0.81624293
0001a0 f9 4e 29 3f 67 ab 64 3f 11 8f 42 3e 48 75 58 3f
       0.6613613 0.8932404 0.18999888 0.84553957
0001b0 8d 9c 93 3e 88 9b 18 3f ab 94 8b 3e a4 6a 7d 3f
       0.28830376 0.5961232 0.27261862 0.98990846
0001c0 41 a9 61 3f 13 62 11 3e 39 45 1b 3e f6 04 c2 3e
       0.88148886 0.14197569 0.15163125 0.3789441
0001d0 c6 47 84 3e ab 4f 34 3e 8e e7 1c 3f 9f fe f2 3e
       0.2583601 0.17608516 0.61290824 0.47459885
0001e0 e2 20 1b 3f 56 ce 87 3e 0d b5 10 3f 44 b2 76 3f
       0.6059705 0.2652461 0.5652626 0.9636576
0001f0 80 94 64 3f ec b1 66 3f 9a d4 3f 3f c8 50 c3 3e
       0.89289093 0.9011524 0.7493378 0.3814757
000200 3a 18 54 3f 2d 62 41 3f ec d5 b9 3a d6 1c 4f 3f
       0.82849467 0.7554043 0.0014178134 0.80903375
000210 8d ed cc 3e a1 72 e0 3d b1 1f 1b 3e f7 37 40 3f
       0.40024987 0.10959364 0.15148808 0.75085396
000220 84 6c 21 3f 96 f9 61 3e ff 71 cb 3e 62 32 3e 3f
       0.63056207 0.22067866 0.3973541 0.7429563
000230 ca 83 c6 3e 10 fd 84 3f 60 b2 30 3f f5 f6 0a 3f
       0.38772422 1.0389729 0.6902218 0.54283077
000240 2b 7e 3c 3f ff ca 7f 3f c4 53 1c 3f 35 e4 e4 3e
       0.7363002 0.9991912 0.61065316 0.44705358
000250 2e 29 74 3f b3 a2 06 3f 0b 52 04 3f fe bb 95 3e
       0.95375335 0.5259201 0.5168769 0.2924499
000260 84 5d be 3e 17 ea 00 3e e5 8f 65 3f c9 f5 27 3e
       0.37180722 0.12589298 0.8967269 0.16402353
000270 dc 2f 2a 3e 7f 7d 6b 3f 87 3d 72 3f 05 bf e8 3e
       0.1661982 0.91988367 0.94625133 0.45458236
000280 da ef cf 3e ce e0 4e 3f ac 97 85 3b 24 75 58 3f
       0.4061268 0.80811775 0.0040769186 0.8455374
000290 22 ff 8e 3e 2b 89 4c 3f 57 e2 1f 3e e6 35 3e 3f
       0.27929026 0.798968 0.15613686 0.7430099
0002a0 5b 32 dc 3e 36 b9 a7 3e 0c c4 45 3e 7d 2e 5f 3f
       0.43007168 0.32758492 0.19313067 0.8718031
0002b0 ef b8 91 3e 26 b9 87 3e 82 89 f2 3e a6 a4 20 3f
       0.28461406 0.26508445 0.47370535 0.62751234
0002c0 77 eb 67 3f 78 f2 55 3f 17 31 58 3e b5 da 37 3f
       0.90593666 0.835731 0.21112476 0.71818095
0002d0 5d 4e 0e 3f c9 f3 97 3e af 53 9d 3d f1 e7 db 3a
       0.5558832 0.2967818 0.07681977 0.0016777498
0002e0 ff 60 35 3f f7 5e 83 3d 62 17 54 3f 61 54 95 3e
       0.7085113 0.064145975 0.8284818 0.29165938
0002f0 8a 6e 85 3f ec 8e bd 3d 0b c0 19 3f 8a fb 56 3e
       1.0424359 0.09255776 0.6005866 0.20994392
000300 33 d1 55 3e 7e f9 dc 3e 77 39 ca 3d d4 b4 55 3f
       0.20880584 0.43159097 0.09874242 0.83479047
000310 10 39 f5 3e 0c d2 20 3e 76 6b 7c 3f 4b 26 1f 3f
       0.47895098 0.15705127 0.9860147 0.62167805
000320 44 2c e2 3e 92 16 92 3e 66 5e 09 3f 66 b7 81 3e
       0.44174397 0.28532845 0.53659666 0.25335234
000330 91 5e 5c 3d e9 b9 80 3f f0 46 74 3f 27 6b 0d 3f
       0.053801123 1.0056735 0.9542074 0.55241627
000340 3a 17 81 3f 5c 48 e5 3e 0b 92 b1 3e 56 2a 4a 3f
       1.0085213 0.44781768 0.34681734 0.7897085
000350 13 39 8c 3e 1d 0b 0a 3f 09 b5 80 3f 38 fe 25 3b
       0.27387294 0.5392321 1.0055248 0.0025328528
000360 50 70 1b 3f b1 1e 77 3f 44 56 1f 3f 87 e0 ee 3e
       0.6071825 0.96531206 0.62241006 0.46655676
000370 eb 5c 98 3e e9 33 7e 3f 04 d2 2c 3f 02 26 81 3f
       0.2975839 0.9929796 0.6750796 1.0089724
000380 02 76 34 3f 54 ab 7e 3e 6b 24 fe 3e 3d 3d 26 3f
       0.70492566 0.24870044 0.4963716 0.6493719
000390 37 7c 71 3f 27 51 16 3f 10 b1 79 3f ae 41 bf 3e
       0.9433016 0.5871758 0.975358 0.37354797
0003a0 81 c3 db 3e c1 12 57 3f 36 31 4b 3f c4 75 8f 3f
       0.42922595 0.8401299 0.79371965 1.1207814
0003b0 1b f0 6d 3e 40 c1 40 3f 9e 56 66 3e 56 b5 40 3f
       0.23236124 0.75294876 0.2249398 0.75276697
0003c0 7b 73 87 3e 9a b1 1d 3f 5a f9 ff 3e a2 75 b9 3e
       0.26455292 0.61599123 0.49994928 0.3622256
0003d0 df 63 13 3f ce 34 36 3f bc eb 35 3f e2 bb 7d 3f
       0.57574266 0.71174324 0.7106283 0.9911481
0003e0 ab 84 0f 3e 7d e8 d9 3e c6 cf 19 3f 14 e2 f9 3e
       0.14015453 0.42560187 0.6008266 0.48805296
0003f0 4b aa 30 3f 4f 10 89 3e ef cb 4b 3f 48 6f 90 3f
       0.69009846 0.26770255 0.7960805 1.128396

bn1.bias f4 [512]
000000 95 16 99 bc c0 3a 73 bc 8b 14 6d bd 85 5b 23 3e
       -0.018687526 -0.01484555 -0.05788092 0.1595288
000010 e3 9f 5a bd 0e 31 65 bd 86 bf fb bb 1c 50 f6 3c
       -0.053375136 -0.055954985 -0.0076827435 0.030067496
000020 20 b2 2a 3a f6 8c f7 bc 36 25 8f bd dd e1 85 3d
       0.0006511528 -0.030218583 -0.06989519 0.065372206
000030 67 bc 54 be 1d 8e 78 bd 95 08 1e bd e3 e2 f3 bd
       -0.20774995 -0.060682405 -0.038582403 -0.119085096
000040 d1 23 77 bd d5 a6 c4 bd d3 75 21 be 78 4c 87 bd
       -0.06033689 -0.09602133 -0.15767603 -0.06606382
000050 26 4e 79 bd 0a 0a f0 bd 1d 32 d7 3d e2 73 be bd
       -0.060865544 -0.11720665 0.10507605 -0.09299447
000060 a7 93 9a bd 06 51 d4 bd e2 c0 e4 bd eb ca a6 bc
       -0.07547694 -0.103670165 -0.11169602 -0.02036043
000070 d9 ac 0f be de 0f c9 3c 45 a7 4e bd 8d 12 fd bd
       -0.1403078 0.024543699 -0.05045249 -0.12357054
000080 da 17 69 3d af e5 5e be 22 f5 d8 bd d5 3d a5 bd
       0.056907512 -0.21767305 -0.105936304 -0.08068434
000090 c1 02 14 be 7f ae 56 bd 99 82 e3 bd fd c2 0d 3e
       -0.14454176 -0.052412506 -0.11108894 0.13843913
0000a0 bc 98 a2 bc 3f db b8 3c c4 ba 83 3c a7 8e 16 bd
       -0.01984822 0.022565482 0.016080268 -0.036757138
0000b0 de 6f 3d bc 8e 15 14 3e 50 32 55 be 57 12 fe bd
       -0.011562316 0.14461347 -0.20819974 -0.12405842
0000c0 da 18 7b bd da 81 8a bd a4 46 be bc ef e7 f3 bd
       -0.061302997 -0.067630485 -0.023227043 -0.11909472
0000d0 a8 dc bc 3c a7 70 35 be 96 ca 1b be 96 6a 74 bd
       0.023054436 -0.17718755 -0.15213999 -0.05967196
0000e0 cc 36 93 bc 98 64 f2 bc 65 51 83 3d 76 0e 9b bc
       -0.017970465 -0.029588982 0.06412009 -0.018927794
0000f0 a1 03 dd bd dc 28 90 bd c2 f1 7f bd c9 7d c7 bd
       -0.10791708 -0.07039043 -0.062486418 -0.097407885
000100 8a c9 ab 3d 97 8c c1 bd 79 31 cb bd e5 3e 84 bd
       0.0838805 -0.094506435 -0.099215455 -0.06457309
000110 22 2a 7b 3c 59 33 a8 bc de f3 8f bd d7 64 11 be
       0.015329869 -0.020532297 -0.07028936 -0.14198624
000120 fb 42 ed bd 4c df 10 bd 66 98 78 be 14 fb 05 be
       -0.11585041 -0.035369202 -0.24276885 -0.1308406
000130 e3 d3 98 3d af 61 30 be f4 62 ae bd 4f 60 47 bd
       0.07462289 -0.17224763 -0.085149676 -0.04867583
000140 43 ab a0 bd a0 da 0b bd 02 9c 98 be 10 d3 42 be
       -0.078451656 -0.034144044 -0.29806525 -0.19025826
000150 ac 4b bc 3d c8 35 ee bd 5f 07 a7 bd f4 7b 08 be
       0.09194121 -0.11631352 -0.08155703 -0.13328534
000160 39 26 90 bc 43 e4 ec 3b 57 e8 c5 bd a7 73 ea bd
       -0.017596351 0.0072293594 -0.09663456 -0.1144784
000170 58 33 0f bc b1 73 37 be 18 e2 ad bc 97 34 f6 bd
       -0.008740269 -0.17915227 -0.021225974 -0.120217495
000180 dd 83 ed bd 4a 9d 60 be ea d2 15 be 70 b0 5a 3e
       -0.115974165 -0.21935001 -0.14631239 0.21356368
000190 9c f0 13 bc 02 85 4d 3e a7 02 8e 3d 48 39 9c bd
       -0.009029534 0.2007027 0.069341 -0.07628113
0001a0 ed e0 c4 bd 65 b3 83 bc b1 06 01 be 33 9b 5d be
       -0.09613214 -0.016076753 -0.12600209 -0.21641235
0001b0 49 13 fd bd be 1b a8 bc 1a 0f 01 be cb 20 1d bd
       -0.12357194 -0.020521041 -0.12603417 -0.038361352
0001c0 6f eb d1 bd 15 77 e7 bd c2 21 d1 bd 32 1a dc bd
       -0.102499835 -0.1130201 -0.10211517 -0.10747184
0001d0 d7 14 9b bd 5d 5b 4c be ad d9 96 3d 0a c6 dc bd
       -0.07572334 -0.19956727 0.07365737 -0.107799605
0001e0 c0 d7 c1 3c c8 39 ae bd 4b ad 38 be cd 88 63 bd
       0.023662448 -0.08507115 -0.18034856 -0.055550385
0001f0 d1 be 11 3c 1e 26 05 3c 7f e4 23 3e ee 23 ca 3d
       0.008895592 0.008126764 0.16005133 0.09870134
000200 c0 74 1c be 56 41 85 bc e8 cd 97 bc 8f f5 19 be
       -0.15278912 -0.016266506 -0.018530801 -0.1503508
000210 22 27 e5 bd 4d eb 26 be 24 b8 84 bd d8 f5 de 3d
       -0.111891046 -0.16300698 -0.064804345 0.10886735
000220 7a 87 42 bd 09 75 d6 bd 6a 6c 8a 3d 85 84 58 bc
       -0.04749248 -0.104715414 0.067589596 -0.013215189
000230 87 c3 14 3d 77 0b f3 3c d6 3e a4 bd f7 87 f3 3b
       0.036319282 0.029668553 -0.080197975 0.0074319798
000240 d9 b6 f4 bd d6 ee 26 bd 14 4d 4c 3d d5 bf 05 be
       -0.11948938 -0.040755115 0.049878195 -0.1306146
000250 f9 c8 28 be 11 35 39 be 58 ba 1a be 6a 61 14 be
       -0.16482915 -0.1808665 -0.15110147 -0.14490286
000260 e8 a4 1d 3e f0 ef e3 3d 2e 8f 40 be cf ad f8 bd
       0.15394938 0.11129749 -0.18804619 -0.12142526
000270 9d 44 2f 3e 49 f9 ac bd ee 9d 9a bd a4 94 1c be
       0.17116018 -0.08445985 -0.07549654 -0.15291077
000280 9a a8 be bd 43 98 8f 3b 02 5b 16 3e 6a 8c a8 bd
       -0.09309502 0.0043821647 0.14683154 -0.08229907
000290 ee 74 af bd 5a 17 db bd 8c aa dc bd 6a 61 3b be
       -0.085672244 -0.10697813 -0.10774717 -0.1829888
0002a0 46 21 e5 bd 33 5d 15 be a4 db ae 3d fd 78 ec 3d
       -0.11187987 -0.14586334 0.08537987 0.11546514
0002b0 02 04 f3 bd c6 a6 f9 3d e0 90 f9 bd f2 7f 61 be
       -0.11865999 0.12190013 -0.12185836 -0.22021464
0002c0 23 43 ee 3d c5 bd 5b bd 5f d0 2e be 10 6b 41 be
       0.11633899 -0.053647775 -0.17071675 -0.18888497
0002d0 b3 65 b9 3d 79 5b 2e 3d 60 59 c1 3d fe 39 0b bc
       0.09052601 0.042567704 0.09440875 -0.008497713
0002e0 b4 ae 7b bd b0 41 26 3e 6a bf 35 3e f8 47 f5 3c
       -0.061445907 0.16235995 0.177488 0.029941544
0002f0 bf db fc 3c 2a 7a cb 3d 63 41 49 be 19 b3 b2 bd
       0.030866502 0.0993541 -0.1965385 -0.087255664
000300 f6 d7 ae 3d d8 61 0a be 72 bb aa 3d 70 4c bc bd
       0.08537285 -0.13513887 0.083365336 -0.09194267
000310 52 1a 0a be c3 f6 b5 bd 5a 23 4e be e8 59 8c be
       -0.13486603 -0.08884957 -0.20130673 -0.27412343
000320 d5 c0 d1 bd 3c 8f e2 3d 12 a8 8c 3c 31 f1 8c bd
       -0.10241858 0.11062476 0.017169986 -0.06881941
000330 18 ba 9f bd bb a2 83 bd ff ed af 3d 02 fa 01 be
       -0.077991664 -0.06427523 0.08590316 -0.12693027
000340 d4 e4 30 be 03 e4 b4 bd 21 3b e7 bd 82 eb 19 3e
       -0.17274791 -0.08832552 -0.11290575 0.15031245
000350 9c 36 30 be f3 a8 55 bd 62 dd 23 bd 41 a4 29 bc
       -0.17208332 -0.052163076 -0.04000605 -0.010354103
000360 6e c6 9c bd 73 9d bd bd 6d a2 86 bd 10 36 a0 bd
       -0.07655035 -0.09258547 -0.06573949 -0.078228116
000370 df da eb bd 3a d1 7c be 6b 3a 74 be ff 0a 04 be
       -0.11516356 -0.24689189 -0.2385041 -0.1289482
000380 d2 7c f3 3d f5 99 cd bc 54 42 2a be 98 5b 9e bd
       0.11889042 -0.025097826 -0.16626865 -0.07732314
000390 31 ee 48 be 39 08 13 bd 62 a7 69 be c4 90 2f be
       -0.19622113 -0.035896514 -0.22817758 -0.17145067
0003a0 a5 18 a6 bd 8a b6 ba 3a 33 bb cf 3d 31 84 2e 3e
       -0.08110169 0.0014245075 0.10143127 0.17042615
0003b0 dd 99 fa bd 1b 76 f1 bd b3 7b de bd fe fb cc bd
       -0.12236378 -0.11790105 -0.108634375 -0.10009001
0003c0 c1 1f 27 be 43 d9 23 bd 87 ca 1c 3d d3 d2 a8 3d
       -0.16320707 -0.04000212 0.038279083 0.082433365
0003d0 7d 6f 79 3d c8 bd 29 be ca 72 9f 3c da 66 1c be
       0.06089734 -0.16576302 0.019463915 -0.1527361
0003e0 4c 35 b7 bd 9f 9f 8f 3d 71 0c 88 3b e5 67 9d bc
       -0.089457124 0.07012867 0.0041518738 -0.01921458
0003f0 b4 ea 00 be 2e 6b 6b 3c 1a f6 ad 3d e3 8d 18 3e
       -0.12589532 0.014368815 0.08494206 0.14897875

bn1.running_mean f4 [512]
000000 bd fa 5c bf 6d e7 1d bc a9 3a 62 3f 81 61 ed bf
       -0.86320096 -0.009637696 0.8837076 -1.8545381
000010 5c a2 3a 3f 7e 57 64 3f 35 94 7e bf 4b c8 be 3f
       0.7290399 0.89196 -0.99444896 1.4904875
000020 14 79 1d 40 d3 f4 63 3f c6 73 81 3f 82 ee e7 be
       2.460515 0.8904545 1.0113456 -0.45299155
000030 4e 22 18 c0 67 0d 46 bf 77 4b 23 3f f0 e3 f0 be
       -2.3770938 -0.773642 0.63787025 -0.47048903
000040 a4 03 2e 3f 8b 0b 49 3f 9f c7 9c 3f 6d ab 56 3f
       0.67974305 0.7853324 1.224842 0.83855325
000050 5b c0 17 40 50 44 89 bf 56 0a 33 40 37 a3 ad 3e
       2.3711154 -1.0723972 2.7975059 0.33913586
000060 aa fd d8 bf 13 4e 20 40 d0 f1 9b bf 3d 4f 68 bf
       -1.6952412 2.5047653 -1.218317 -0.9074591
000070 73 ba 05 3f 49 3c 3d 3e 12 6f b7 bd bc 08 94 bf
       0.52237624 0.18480028 -0.08956732 -1.1565166
000080 ab 1b db 3e 4c ad 63 bf d5 24 2d 40 71 7c 75 3f
       0.42794546 -0.88936305 2.705373 0.9589301
000090 e6 c9 ee 3f 77 54 67 c0 27 02 07 3f 1a fa da be
       1.8655365 -3.6145303 0.5273766 -0.42768937
0000a0 86 37 96 3f a2 55 25 3d e3 a9 8e 3f 2e 84 07 be
       1.1735694 0.04036487 1.1145595 -0.13234016
0000b0 51 55 16 3e dc db 1e 40 b3 9c 10 3e 58 8e 85 c0
       0.14680983 2.4821692 0.14122276 -4.173626
0000c0 3f f3 7a be 64 cc 52 bf 41 64 0c 40 68 50 b8 bf
       -0.24506854 -0.82343125 2.193619 -1.4399538
0000d0 e6 e1 b5 3f ae f1 62 bf 2f 1e 4a 3f b5 f9 c4 3f
       1.4209564 -0.88650024 0.78952307 1.5388705
0000e0 aa df a0 3e a5 71 d7 3f cd 57 2d 40 d6 4b 74 3f
       0.31420642 1.6831557 2.708484 0.95428216
0000f0 20 7c 45 3f 50 0c 82 3f e8 07 16 40 9b 30 9d bf
       0.77142525 1.0160007 2.3442326 -1.2280458
000100 6f 82 89 bf cf e9 82 be f6 eb 8a 3f 70 6f c1 bf
       -1.074293 -0.25569007 1.085326 -1.5112133
000110 26 4a 41 3e 5c 00 0a 40 c4 5c 1c 40 2d f7 d2 3d
       0.18875942 2.156272 2.443162 0.10301051
000120 18 f3 f5 bf ab b1 29 3f 14 75 06 c0 91 cc 3d bf
       -1.9214811 0.66286725 -2.100896 -0.7414027
000130 06 28 3f 40 ef e8 9a 3e cc 1b 66 40 c8 b6 ff 3f
       2.9868178 0.3025584 3.5954466 1.9977655
000140 ed d0 6d c0 6a 95 9c be 7a df 84 3d 72 f5 af 3e
       -3.7158768 -0.30582744 0.06487937 0.34366947
000150 ac a4 c3 3f 47 d1 98 3f 49 fd 0f 40 31 b5 3c c0
       1.5284629 1.1938866 2.2498343 -2.948559
000160 9c c5 bb 3e 80 40 d7 be 97 1c a1 bf fa a7 63 bf
       0.366742 -0.42041397 -1.258685 -0.88928187
000170 cd d2 fc 3f c1 42 39 3f 69 22 d6 bf 26 c0 bc 3e
       1.9751831 0.72367483 -1.6729251 0.36865348
000180 e0 65 35 bf ff 9a 01 c0 11 49 d9 bf c3 82 60 40
       -0.70858574 -2.0250852 -1.6975423 3.507981
000190 25 d2 6a be 3b 34 9c 3d ab cd 49 3d ca f8 18 40
       -0.22931726 0.0762715 0.049268406 2.3901849
0001a0 8a 27 d9 be d7 b2 cd be 2d 8c 46 3f 07 c4 b8 bf
       -0.42412978 -0.40175506 0.7755764 -1.4434823
0001b0 7e 45 cd 3f 19 13 00 c0 e6 5b 3a 3f d9 d4 db bd
       1.6036832 -2.0011656 0.72796476 -0.10733957
0001c0 a8 99 98 3f b4 d4 9f 3f 30 16 25 40 a7 14 43 c0
       1.1921892 1.2486787 2.5794792 -3.0481355
0001d0 7d ef 98 3f 05 56 1d 3f 56 68 a6 3f 72 21 1c bf
       1.1948086 0.6145938 1.3000591 -0.60988533
0001e0 2e 57 f0 3f 93 29 14 be e3 20 06 3e be ef db 3f
       1.8776605 -0.14468984 0.13098483 1.7182539
0001f0 10 6d fc 3f 62 36 7e bd 61 ea 0f c0 b9 2a 9c bf
       1.9720783 -0.062063582 -2.2486804 -1.2200538
000200 57 dc 35 c0 73 3a 4f 3f 25 d5 ab 3d e9 33 e9 be
       -2.8415735 0.8094856 0.083902635 -0.45547417
000210 59 e3 24 40 d1 86 81 3f 4e 23 17 c0 fb 1a e1 3f
       2.5763762 1.0119268 -2.3615298 1.7586359
000220 d5 f2 2f bf 06 3e 1c 3f 42 48 10 40 dd 4c d6 3e
       -0.6872991 0.6103214 2.2544103 0.41855517
000230 20 3f f9 be 91 bc 21 3f 09 2f f5 3f ca 18 a2 3f
       -0.48680973 0.63178355 1.9154979 1.2663815
000240 4f 65 52 c0 33 93 83 bf 3d f3 53 3f 47 9a 17 3f
       -3.2874334 -1.0279297 0.8279303 0.59219784
000250 28 86 72 bf 40 f5 bc 3f b3 45 fd be 89 8a c0 be
       -0.94735956 1.4762344 -0.4946724 -0.37605694
000260 53 ef 10 40 44 f8 fb 3e c3 18 b1 bf db 9c 11 40
       2.2646072 0.4921285 -1.3835682 2.2751987
000270 c2 30 8e 3e d7 5f 37 3f 70 80 05 3f 57 37 f8 3f
       0.27771574 0.71630615 0.52149105 1.9391888
000280 66 00 e2 bf f6 63 d5 3e 41 e8 b5 3e 5f 08 9e be
       -1.7656372 0.41677827 0.35528758 -0.30865762
000290 2e e6 6d 3f f7 69 1a 40 e3 96 55 bf 11 1b 29 c0
       0.9292935 2.4127176 -0.8343336 -2.642277
0002a0 8f a6 38 be f7 2d 38 c0 45 62 e8 be d2 6f 43 be
       -0.18032287 -2.8778055 -0.45387474 -0.19085625
0002b0 18 20 37 c0 1a 3e ab 3e ee 0e 5e c0 cf 05 3f bf
       -2.8613338 0.33445817 -3.4696612 -0.7461824
0002c0 4b 70 32 40 74 fc a3 3f 2c 08 85 bf 98 ac 2a c0
       2.7881038 1.2811418 -1.0393119 -2.6667843
0002d0 2b 76 36 40 fa 7c 4d 3f c4 01 cb 3f 46 ee 9f 3e
       2.8509624 0.80268824 1.5859914 0.31236476
0002e0 f8 37 14 3f 95 94 45 3f 60 5c 8d 3f dd 73 89 3f
       0.578979 0.77179843 1.1043816 1.0738484
0002f0 b7 46 99 bf e5 a0 d5 3f 4d 8a 0d c0 5d ce fb 3e
       -1.1974705 1.6689726 -2.2115662 0.4918088
000300 c7 47 3e 40 6d 58 1d c0 1d 48 85 bf b6 8a f0 3e
       2.973131 -2.458522 -1.0412632 0.46980828
000310 47 0a 86 3f 88 f4 38 bf 57 d8 3e 3f c5 64 b0 3e
       1.0471886 -0.72248125 0.7454886 0.3445188
000320 1b ca 8b 3f fc da f0 bc cf 37 8d 3f e1 b5 00 be
       1.0921053 -0.029401295 1.1032656 -0.12569381
000330 4b 61 8e 3f 8a 8a 51 c0 08 05 2f 40 b3 17 29 c0
       1.1123441 -3.2740808 2.734682 -2.6420715
000340 cb 6d 1c 3f 27 47 6d 3f 08 fb 0e 3f ec ae 9d be
       0.6110503 0.92686695 0.55851793 -0.30797517
000350 8d 2b 3e be 97 e2 45 bf a6 94 81 3e 18 a3 1e bf
       -0.18571301 -0.77298874 0.25308722 -0.6196761
000360 f2 c1 c4 3f 3b 4c c6 bf 5e d9 b6 bd ae c5 66 bf
       1.5371687 -1.5492014 -0.08928178 -0.90145385
000370 81 eb a3 3f 4b e6 2a c0 58 1b 16 c0 a1 32 27 c0
       1.2806245 -2.670306 -2.345419 -2.6124651
000380 62 87 90 3f 3c 11 55 bd e9 d6 1d bf 99 35 ad 3f
       1.1291316 -0.05201839 -0.6165605 1.3531982
000390 59 8b de 3e 1c fa 1a 3f 98 4d 95 c0 7f 87 2a c0
       0.4346569 0.60537887 -4.665722 -2.66452
0003a0 64 d9 0e c0 36 36 42 40 53 c8 a5 3f 9a 60 cb 3e
       -2.2320185 3.0345588 1.2951759 0.3972214
0003b0 a0 a0 0b bf 33 18 e3 bd 04 0b 1b bf bd 8c 5b be
       -0.5454197 -0.110886 -0.60563684 -0.21440406
0003c0 b6 87 97 3e c7 74 c3 3f 70 20 ca 3e 7e 55 bc 3f
       0.29595727 1.5270013 0.39477873 1.471359
0003d0 a5 77 9c 3f de 17 ef 3f 4b 63 cb 3f 95 a3 7d 3f
       1.2224013 1.8679159 1.5889677 0.9907773
0003e0 9f 00 11 40 99 86 09 c0 12 20 a5 3f 9a cd 2e 40
       2.265663 -2.1488402 1.2900412 2.731299
0003f0 2a 97 d8 bf 59 21 25 40 83 2d 93 bf 29 f9 7f 3e
       -1.6921132 2.5801604 -1.1498264 0.24997391

bn1.running_var f4 [512]
000000 7f 7f 52 40 f3 ff 57 3f 31 1c ef 40 93 b1 d0 40
       3.2890317 0.8437492 7.4721913 6.5216765
000010 d3 12 6c 3f ca c8 b2 3f 4b 3c a9 3f b9 90 d8 3f
       0.92216223 1.3967526 1.3221525 1.6919166
000020 ef 2f 3a 3f d5 f9 d3 40 4d 20 4a 40 16 71 3f 40
       0.7272939 6.624247 3.1582215 2.9912772
000030 b0 d2 3a 40 5a aa 10 40 8d 17 c6 3f aa b5 c8 40
       2.9191093 2.2603974 1.5475937 6.272176
000040 cc bc 62 3e ac bc d7 3f 6c 35 93 40 8f 6b e7 3f
       0.22142333 1.6854453 4.600271 1.8079699
000050 74 ef 98 3f cd b1 d8 3f bc aa 00 41 1b 94 8b 3e
       1.1948075 1.692926 8.041683 0.27261433
000060 bb a5 7f 3f e9 a4 68 3f 9a c1 94 40 e2 32 83 40
       0.9986226 0.9087663 4.648633 4.0999613
000070 d7 80 c6 3e 31 4d 85 3f 0f cb 88 40 6a 67 71 40
       0.38770172 1.0414182 4.2747874 3.771937
000080 b0 f0 3f 40 bb 5f 73 40 4e 4e cf 3f f8 ea 86 3f
       2.9990654 3.802718 1.6195772 1.0540457
000090 6d 2e 50 3f 7e 03 e1 3f 4f ac 97 40 3a 88 d5 40
       0.8132084 1.7579191 4.739784 6.672879
0000a0 0d a4 59 3f 01 c7 e8 3f f4 26 14 40 50 d8 10 3f
       0.85015947 1.8185731 2.3148775 0.56580067
0000b0 d8 d9 cd 3f ca b7 5b 3f 56 c7 ba 3f b7 b3 37 40
       1.6082106 0.85827315 1.4592083 2.870344
0000c0 49 95 26 40 59 6b 2f 40 b9 1d 87 3f 0d e2 03 40
       2.6028616 2.740927 1.0555946 2.060672
0000d0 04 c7 94 40 21 33 2e 40 79 5d ba 40 05 1b 41 40
       4.649294 2.7218707 5.82391 3.0172741
0000e0 a0 8e 9a 40 4c 09 84 3f a9 5c fa 3f 4c 83 84 40
       4.8299103 1.0315337 1.9559528 4.1410275
0000f0 53 67 fa 3f 90 7e e9 3f 48 f2 56 3f 12 79 41 40
       1.9562782 1.8241749 0.8396344 3.0230145
000100 a9 08 34 40 b1 6e d1 3f 44 8b e1 3f e8 b8 07 40
       2.8130286 1.6361905 1.7620625 2.1206608
000110 75 bc 0a 3e 0a 24 89 3f fa 89 bb 3f 87 45 8c 40
       0.13548453 1.0714123 1.4651482 4.383487
000120 ee d2 28 40 8c 94 8c 40 49 c6 7f 40 75 9f 10 40
       2.6378741 4.393133 3.9964774 2.2597325
000130 7e d7 c1 40 e6 75 9f 3f 62 52 a0 3f c4 a9 85 3f
       6.057555 1.2457855 1.2525141 1.0442433
000140 46 6c e1 3f 38 11 09 40 c2 ac b6 3e 0f 6d d5 3f
       1.7611167 2.141676 0.3567868 1.6673907
000150 07 61 32 3f 25 39 72 40 d5 59 a6 40 c0 85 df 3f
       0.696793 3.7847378 5.198466 1.7462692
000160 0e 44 85 3f 10 a3 8f 3f a5 f6 63 40 14 85 da 3f
       1.0411394 1.1221638 3.561929 1.7071862
000170 64 98 cd 3f e1 72 9c 40 4a 69 d3 3f 77 03 ca 40
       1.6062131 4.8890233 1.6516507 6.312923
000180 ec 2f fa 40 0b 77 48 40 7e 64 45 40 7b ca 84 3f
       7.81835 3.1322658 3.0842586 1.0374292
000190 5e 4c b7 40 f7 b0 68 40 cb da 8e 3f 95 e1 83 40
       5.728072 3.635801 1.116052 4.121287
0001a0 4a 19 e6 3f 98 ec 07 40 89 e2 ac 40 0e 01 53 40
       1.7976468 2.1238155 5.402653 3.2969394
0001b0 a5 45 41 40 43 9e c0 40 ac db 24 40 6d a5 8f 40
       3.0198758 6.019319 2.5759077 4.4889436
0001c0 9d d1 da 40 54 27 95 40 7f 18 06 40 28 2c 30 40
       6.8380876 4.661051 2.0952451 2.752695
0001d0 e3 6e 84 40 15 59 8b 40 30 fe 87 40 54 fe 75 40
       4.138536 4.3546243 4.2497787 3.843648
0001e0 7c 7f c9 3e 89 16 19 40 39 f3 b7 40 69 ea 37 40
       0.39355075 2.3920004 5.7484403 2.8736823
0001f0 81 7f b1 40 fc 20 bd 3f 95 52 43 40 dc 23 a9 3f
       5.5468144 1.4775691 3.0519154 1.3214068
000200 6e c4 3f 40 4d 23 89 40 f2 90 b0 3f 2e b3 0b 41
       2.996364 4.285559 1.3794234 8.731245
000210 a4 ea 32 40 a2 13 8b 40 a1 5d 1d 40 ab 95 a0 3f
       2.7955713 4.3461466 2.4588397 1.2545675
000220 19 a3 22 40 6b b1 9e 40 c9 e2 9c 40 27 a2 9f 40
       2.5412047 4.9591575 4.9026837 4.988544
000230 10 15 76 40 ed b0 41 40 69 0c 43 40 ed a6 42 40
       3.8450356 3.0264237 3.0476325 3.0414383
000240 dc da a5 3f 47 c3 09 40 80 f8 a7 40 e5 8d 6d 3f
       1.2957416 2.1525438 5.2490845 0.9279464
000250 16 7c 09 40 57 9d 0d 40 ad 52 49 40 c2 44 7e 3f
       2.1481986 2.2127283 3.1456711 0.99323666
000260 f0 ff 5d 3f 0c 8d 8a 40 a4 0e 6f 41 54 df d1 3f
       0.86718655 4.3297176 14.941074 1.6396279
000270 d5 95 bf 40 b9 a2 61 40 f7 ad 0f 40 36 51 83 3f
       5.98704 3.5255568 2.244993 1.0259159
000280 f3 d3 e8 3f e3 47 87 3f f4 12 85 41 72 9b 4f 40
       1.8189682 1.0568813 16.634254 3.2438626
000290 bf d8 01 40 f5 04 7c 3f d8 b7 8b 40 c3 ed a6 3f
       2.0288541 0.98445064 4.366192 1.3041309
0002a0 07 3c 17 40 aa a4 b5 3f 91 5b 53 40 51 c7 d7 3e
       2.3630388 1.4190876 3.3024638 0.42144254
0002b0 f9 bc f1 3f f9 62 b6 40 69 0f da 3f 2c d6 45 40
       1.8885795 5.6995816 1.7035953 3.091197
0002c0 58 5c 81 3f 66 54 9e 3f 15 fb 24 40 d9 2a 81 40
       1.0106306 1.2369506 2.5778248 4.0364804
0002d0 51 d5 d6 3f fa c0 34 40 5c b2 3f 40 76 d0 06 3f
       1.6783849 2.8242784 2.9952612 0.52661836
0002e0 58 e4 04 40 a1 75 5f 41 6a b8 8a 3e 7a e0 88 40
       2.076437 13.966218 0.27093822 4.277402
0002f0 50 f2 8d 3f 67 3b fd 3f 9d 17 34 40 4b b4 90 40
       1.1089573 1.9783753 2.8139412 4.5220084
000300 a7 ff b9 3f b6 91 fa 3f 62 17 51 40 88 65 fb 40
       1.4531144 1.9575717 3.2670522 7.856144
000310 ba 22 d6 3f 27 17 bd 3f b9 33 fc 3f 3a f1 a0 40
       1.6729348 1.477269 1.9703285 5.0294466
000320 63 b2 01 40 2b 14 e5 3f 24 7b cc 3f 91 aa d9 3f
       2.0265129 1.789678 1.597508 1.7005178
000330 01 09 42 40 fd e0 e9 3f e4 b7 c5 3f 86 5b 03 40
       3.0317996 1.8271786 1.5446744 2.0524611
000340 02 ad 06 41 a7 42 98 3f d6 50 d2 3f 24 84 89 40
       8.417238 1.1895341 1.6430919 4.2973804
000350 1c 50 f2 40 ef db b4 40 8a a2 62 3e b4 c0 c6 3f
       7.572279 5.6518474 0.22132316 1.5527558
000360 96 f2 98 40 11 00 76 40 8c e7 af 40 3d 53 bd 3e
       4.7796125 3.843754 5.497015 0.36977568
000370 c8 0b 48 40 6e 1a 6d 3f 27 be 30 40 16 9d 1c 40
       3.125719 0.92618454 2.761606 2.4470878
000380 f2 a9 ea 40 1c 86 15 40 55 36 34 40 cf e0 6b 40
       7.3332453 2.3363104 2.8158162 3.6855962
000390 94 a8 d4 3f b7 4d 13 40 e7 1a 5f 40 0e e6 92 40
       1.6613946 2.3016183 3.486017 4.590583
0003a0 28 ae 4d 3f 8b 61 96 40 c7 94 2a 40 89 4c 3f 3e
       0.80343866 4.699407 2.6653306 0.1868154
0003b0 23 da c4 3f 28 41 89 3e 6a 97 c5 3e cf a8 f3 3f
       1.537907 0.26807523 0.38592082 1.9035891
0003c0 70 99 e0 3f 14 0c b9 3f 00 38 4e 3f 9d 69 2d 3f
       1.7546825 1.4456811 0.805542 0.6773928
0003d0 7f 61 45 3f 14 18 7e 40 67 b3 6e 3f 95 e9 c2 3f
       0.7710189 3.9702196 0.93242496 1.5227534
0003e0 f0 b4 be 3f e0 37 a7 40 23 69 98 3f 30 b9 4e 40
       1.4898968 5.2255707 1.1907085 3.230053
0003f0 4a 8e 3d 40 05 5c 28 40 1b 29 bd 3f 6f 2a 36 3e
       2.9618096 2.6306164 1.4778169 0.17789625

fc2.weight f4 [256, 512]
000000 4f 48 ed bc 8f bc ae 3d b9 44 46 3d c8 27 f0 3d
       -0.028965143 0.085320584 0.048405383 0.11726338
000010 58 5b 79 3d 1a d2 a6 3d 8c fe 8d bd e9 5c d6 3d
       0.060878128 0.081455424 -0.069333166 0.1046694
000020 f5 7d 17 3e 54 32 4c bd b3 38 93 3d 56 d9 59 bd
       0.14794143 -0.049852684 0.07188549 -0.053185783
000030 99 39 21 3d 13 64 cf ba 5b 66 56 3d 55 93 f8 bd
       0.03936157 -0.0015822671 0.052343708 -0.12137476
000040 85 cd 89 3d e5 ce a7 3d 97 dd 8c bc 96 34 c0 3d
       0.06728653 0.08193759 -0.017195506 0.0938503
000050 ef 9b 86 3d 79 1a 1c ba eb 04 08 3b fe 0d 9f bd
       0.06572711 -0.00059548725 0.0020754884 -0.07766341
000060 45 7b 6e 3d 7f 78 90 bb d7 3a b0 3d a3 58 16 bd
       0.058223028 -0.0044088955 0.08604973 -0.036705624
000070 07 4b 83 bc d2 d5 24 3d 95 29 7f 3d d3 8a 39 bb
       -0.016026987 0.040242977 0.062295515 -0.0028311505
000080 00 3e 9a bd d7 b3 e2 3c 3c 26 28 3e b0 da a5 bc
       -0.07531357 0.027673645 0.16420835 -0.02024588
000090 34 8b a3 be a2 ff b9 bd 5b f6 fd 3b f8 51 20 3e
       -0.3194214 -0.09081961 0.007750315 0.15656269
0000a0 65 8e d8 3d d7 26 d7 bd e8 f4 15 bd 9d ea 07 3c
       0.105740346 -0.10505455 -0.036610514 0.008295682
0000b0 26 81 91 3c 57 60 1f 3e 1a c3 78 3d 7c ef 88 3d
       0.017761778 0.15564094 0.06073294 0.06686303
0000c0 3e 2a ea 3d 9d a9 eb bc 12 84 7f 3d de a2 8b 3d
       0.11433838 -0.028767401 0.06238181 0.06818174
0000d0 15 a2 73 3d a9 0a 84 3c 2b e2 49 be 1c c0 e1 bc
       0.059480745 0.016118364 -0.19715182 -0.027557425
0000e0 64 c3 c2 bd a9 4e ea 3d 0c ce 13 3e 24 56 e3 bd
       -0.09509924 0.114407845 0.1443407 -0.111004144
0000f0 0b 26 a2 3d 24 33 0c 3e 5f 05 39 3d d0 24 7d bd
       0.07917412 0.13691384 0.045171138 -0.061802685
000100 94 7d 1e bd fd 57 97 3d 92 fa a1 3d 64 a6 40 bc
       -0.03869398 0.07389829 0.079091206 -0.011758421
000110 cd bb 63 3b 8b 6a 0e be 31 88 26 be e2 68 81 3b
       0.003474939 -0.1390783 -0.1626289 0.0039492706
000120 61 fa 45 3d bc 0d 73 3d 55 46 63 be ef f7 91 3d
       0.048334483 0.05933927 -0.22194798 0.07127368
000130 c7 23 d6 bc c8 90 77 3d 43 ce 12 be 79 ce b6 3d
       -0.026140107 0.06044081 -0.14336495 0.089261
000140 cc 13 eb bd f9 3a 9c 3d d5 3d 1a be 64 79 a7 3d
       -0.11478385 0.07628436 -0.1506265 0.0817745
000150 36 90 33 bd e3 c9 1d be 40 86 9a bb 6d 19 d0 3d
       -0.043838702 -0.15409045 -0.004715711 0.101610996
000160 fa cd e8 3d dc ab 94 bc e7 67 f4 bc 28 b0 dd 3c
       0.11367412 -0.018148355 -0.0298347 0.027061537
000170 c0 00 fe bd d9 df c3 3c af e6 d6 bc 6e fc d4 3d
       -0.12402487 0.02391045 -0.026233045 0.1039971
000180 92 2d 57 bb b5 63 65 bc 4a a6 10 bd 55 4b 64 3e
       -0.0032833559 -0.014000823 -0.035314836 0.22294362
000190 a0 ec fa 3c 2c 32 5d bb f8 d2 70 bc 13 ec 5c 3d
       0.03063041 -0.0033751829 -0.014698736 0.053936075
0001a0 a5 d0 b8 3d 8c ca 82 3d 94 95 3b be 18 f4 ab ba
       0.09024171 0.06386289 -0.18318778 -0.001311901
0001b0 4d 1c 9c bd 1f 9e e8 bd ff 51 80 3d ad 5f b5 bc
       -0.076225854 -0.11358284 0.062656395 -0.022140348
0001c0 ee 8e 83 3c eb d0 a5 be e5 ad e4 bd da 2d 7f bd
       0.016059365 -0.32385954 -0.1116598 -0.062299587
0001d0 6e 1a 16 bd 35 c0 ca bd b8 5a 0e be b7 e2 3a be
       -0.0366463 -0.09899942 -0.13901794 -0.18250547
0001e0 00 68 20 3e 39 e9 6a 3c 1e 48 64 bc 70 06 61 3d
       0.15664673 0.014337831 -0.01393321 0.05493778
0001f0 ea f1 c5 bc c9 b8 54 3e 41 a7 5a 3d a6 d2 ec bd
       -0.024163205 0.20773615 0.053382162 -0.115636155
000200 46 b1 eb bb 0a 22 5e 3e d1 f3 9f 3c 5c 79 3a bd
       -0.0071927635 0.21692672 0.01952544 -0.045525894
000210 80 04 81 bd 11 59 11 bd aa 99 09 3e be 8f 26 3d
       -0.062996864 -0.03548533 0.13437524 0.040664427
000220 43 41 f0 bd d2 1e 89 3d b3 bf e7 bd 3d a6 39 3d
       -0.11731198 0.06695332 -0.113158606 0.045324553
000230 bb d8 49 be 7b b4 41 3d 06 dd 2e bd 0d 11 98 bd
       -0.19711582 0.04729126 -0.042691253 -0.07425127
000240 0d 38 0d 3e 2d 95 93 bd 58 cc 35 3d 28 14 51 bc
       0.13790913 -0.072061874 0.04438433 -0.012761153
000250 09 57 d9 3b f4 f4 ab bd bd e4 63 bd f9 e5 c8 3d
       0.00663269 -0.083963305 -0.055638064 0.09809489
000260 b6 b1 a4 3c 36 07 24 3d 1e 90 bf 3d 93 fa b6 3d
       0.02010427 0.04004594 0.0935366 0.08934512
000270 c2 b1 86 3d 97 56 13 be dc e2 f7 bd 25 a5 c0 3d
       0.06576873 -0.143885 -0.12103817 0.09406499
000280 01 48 f0 3d 9c b9 e6 3d 53 56 07 3d ad 87 1c be
       0.11732484 0.11265871 0.03304131 -0.15286131
000290 4f d3 8e bd dd a1 6b 3c 3a 2b 8a 3c e0 70 88 bd
       -0.06973898 0.014381853 0.016866315 -0.06662154
0002a0 13 62 d3 3d 23 87 cf bd bd 20 a6 3d 27 ad 7c 3d
       0.103214405 -0.10133197 0.08111713 0.06168857
0002b0 b3 b4 83 3d 37 44 a6 bc a0 45 3f 3d f7 df 46 3d
       0.0643095 -0.0202962 0.04669726 0.048553433
0002c0 4f dc aa bc f2 a5 21 3c 15 47 ff bd 36 60 be 3d
       -0.020857004 0.009866225 -0.1246473 0.092956945
0002d0 ec cc dd 3d 12 d8 67 bd 48 4c 2b 3d 48 9b b5 3c
       0.10830101 -0.056602545 0.041820794 0.02216877
0002e0 d6 21 73 bd ea eb cb bb 85 85 a8 bc d3 41 76 be
       -0.05935844 -0.0062231915 -0.02057148 -0.24048547
0002f0 bb 0b 5d 3d b3 ff 9e 3d c9 9b 53 3d fa f2 c8 3b
       0.053966265 0.077636145 0.05166224 0.0061324807
000300 02 49 1a 3e 5e 93 b9 bd 3b 00 a9 bd d2 0c eb bc
       0.15066913 -0.09061311 -0.08251997 -0.028692637
000310 56 fe c2 bc 35 32 6a bc 25 a3 3c bc 74 ec f4 bd
       -0.023802917 -0.014294197 -0.011513506 -0.11959162
000320 86 6d c7 3d 58 cb 49 bd fc 1f bb 3c 1d a8 7e bc
       0.09737687 -0.04926619 0.0228424 -0.015543011
000330 d7 f7 20 be 04 c4 8b bd 48 e6 53 3d dc 45 65 be
       -0.15719543 -0.068244964 0.051733285 -0.2238993
000340 5a 97 c7 3b 43 de 0f 3d 2b 3d 2f bd 4d d0 99 bd
       0.0060910406 0.035124075 -0.042782944 -0.07510433
000350 39 13 f8 bd 39 b1 b6 bd 8e db 14 bc c6 9a 63 bd
       -0.121130414 -0.08920521 -0.009085549 -0.055567525
000360 ab b6 74 3c 9c 85 d3 3b cf 7d 85 bd 8f 8b 58 3c
       0.01493613 0.0064551365 -0.06518137 0.013216867
000370 24 fe a0 3d 04 40 1e 3e f7 66 4b be 1b 0d 97 be
       0.078609735 0.15454108 -0.19863497 -0.29502186
000380 7c 2a b8 3d 2b 48 64 3d 67 11 72 3d 16 58 7c 3d
       0.08992478 0.055732887 0.059098627 0.061607443
000390 cf 17 c9 3d 46 05 d4 3d bd b4 b8 3c aa 39 4f 3d
       0.09818994 0.10352568 0.02254712 0.050592102
0003a0 81 be 8f 3d 4d 16 77 3d 01 48 0c be c1 9e 01 be
       0.070187576 0.060324002 -0.13699342 -0.12658216
0003b0 ba e9 45 3c 5b 5d ed 3c 13 25 1f 3c e1 1c 8b 3d
       0.012079651 0.02897518 0.009713429 0.067926176
0003c0 44 43 af bc 31 24 b9 3d 9a 03 a7 3d fc 69 27 3d
       -0.02139438 0.09040106 0.08154984 0.04087256
0003d0 b7 0e ba 3d e4 c3 44 3c 82 17 11 3e 01 42 71 bc
       0.09084838 0.012009595 0.14169124 -0.014725209
0003e0 03 b7 38 3b 6a e8 9a bd 55 b3 3d 3e 02 c7 4e bc
       0.0028185255 -0.07563861 0.18525441 -0.012620689
0003f0 6e 36 04 3d c6 7c 2c bd 2e e0 28 3d 71 cd 88 ba
       0.03227847 -0.04211118 0.04122942 -0.0010437203
