actor_model_2.pth (torch_old, 588279 bytes, 10 tensors)

fc1.weight f4 [512, 24]
0	0xbd57b021	-0.052658204
1	0x3d616521	0.055028085
2	0x3cb058bc	0.021526687
3	0xbb370842	-0.0027928506
4	0x3cbbcc45	0.022924552
5	0xbd9db2d9	-0.07700128
6	0xbc4a2d77	-0.012339941
7	0xbcafacbb	-0.021444669
8	0xbdb39a3b	-0.087696515
9	0xbc467cf2	-0.01211475
10	0xbaf3ead6	-0.0018609415
11	0xbcdea74f	-0.027179388
12	0x3c5c1c61	0.0134345
13	0xbbdf21ef	-0.006809465
14	0xb8c5f22e	-9.4388015e-05
15	0x3c10274a	0.00879843
16	0xbcb642c7	-0.022248639
17	0xbc3f02e7	-0.011658407
18	0x3cca9e61	0.024733724
19	0xbd71614d	-0.058930684
20	0xbd55707f	-0.052109238
21	0xbc58e545	-0.013238256
22	0x3a46a485	0.0007577616
23	0xbda67151	-0.08127082
24	0x3dc76233	0.09735527
25	0xbde84899	-0.11341972
26	0x3b5f3083	0.0034056015
27	0x3bb931f5	0.0056517073
28	0xbd843458	-0.06455296
29	0xbcaa3c11	-0.020780595
30	0x3ae151ce	0.0017190517
31	0x3b02913c	0.0019922992
32	0x3cc01360	0.023446739
33	0xbd78dbeb	-0.060756605
34	0x3cd233db	0.025659492
35	0xbbb6db9c	-0.0055803787
36	0xbd5e0481	-0.054203514
37	0x3d66891e	0.05628311
38	0xbc475a37	-0.012167505
39	0xbc9ff859	-0.019527601
40	0x3d77857c	0.060430035
41	0xbdb06af6	-0.08614151
42	0x3c4ae3ba	0.012383396
43	0xbb6ef147	-0.003645973
44	0x3ce17b2e	0.027524557
45	0x3de212ae	0.11038719
46	0xbb779275	-0.0037776504
47	0xbcd43887	-0.02590586
48	0xbd01a793	-0.03165395
49	0xbd38da89	-0.045130286
50	0xbc335085	-0.01094449
51	0xbd25fe4e	-0.040525727
52	0x3cc4823d	0.023987884
53	0xbc992d00	-0.018698215
54	0xbb9cf03c	-0.0047893804
55	0xbd8bbe1e	-0.06823371
56	0xbc85d2da	-0.016335893
57	0xbcea6471	-0.028612347
58	0xbc34e452	-0.011040764
59	0xbd6c2cc2	-0.057659872
60	0x3cad3256	0.021142166
61	0x3d0bcab4	0.03412886
62	0x3c0dee18	0.008662723
63	0x3c8847f7	0.016635878
64	0xbccfe73f	-0.025378821
65	0xbd0fb567	-0.035085108
66	0x3ba4843b	0.005020646
67	0x3bdb87f0	0.0066995546
68	0x3af24719	0.0018484324
69	0x3e3eb82c	0.18624943
70	0xbc3fb69d	-0.011701253
71	0x3cfb5287	0.030679
72	0x3c233120	0.009960443
73	0xbd76b628	-0.06023231
74	0xbd9e80f2	-0.07739438
75	0xbcaa3f73	-0.020782208
76	0x3b3c53cb	0.0028736468
77	0x3cb5cc46	0.022192132
78	0xbc0dcc47	-0.008654661
79	0xbbbab763	-0.005698131
80	0x3d05ab48	0.03263405
81	0xbcd1b119	-0.025597142
82	0xbd91626d	-0.07098851
83	0xbd04cd08	-0.032422096
84	0xbc8570a1	-0.016289057
85	0xbc82ab8c	-0.01595094
86	0xbcfdc895	-0.030979434
87	0xbd0a9e38	-0.033842295
88	0xba6bd315	-0.0008995992
89	0xbc8d1665	-0.017222593
90	0xbb56b608	-0.0032762308
91	0x3cbfa6ca	0.02339496
92	0xbd28c49b	-0.041203123
93	0x3d18b49f	0.03728163
94	0x3bee1663	0.0072658523
95	0xbd36857c	-0.044560894
96	0x3cf7fa74	0.030270793
97	0xbd1ddb6d	-0.03853934
98	0xbc9dddf2	-0.01927087
99	0xbc1732dd	-0.009228435
100	0xbca82e09	-0.020529764
101	0x3c10e1fc	0.008842941
102	0x3ce9f5c2	0.02855957
103	0x3d6e50e4	0.058182612
104	0x3daf7bbb	0.085685216
105	0xbb4982b7	-0.0030748078
106	0x3c9406b8	0.01806961
107	0x3d234339	0.03985903
108	0xbd05220e	-0.03250318
109	0x3d80807a	0.06274505
110	0xbbd9751b	-0.0066362745
111	0x3d2462f3	0.040133428
112	0x3d43a681	0.047766212
113	0xbcdc240f	-0.026872663
114	0xba4a2966	-0.00077118573
115	0x3cb410b1	0.021980615
116	0xbcae086d	-0.021244252
117	0x3e05b0ae	0.13055679
118	0x3c849d46	0.016188275
119	0xbb117fa2	-0.002220132
120	0xba687624	-0.0008867702
121	0x3c886ff9	0.016654955
122	0xbb85ef59	-0.0040873704
123	0xbab956eb	-0.0014140283
124	0xbcefe2bd	-0.029282922
125	0x3d1c7a53	0.038202595
126	0x3c85e053	0.016342318
127	0x3cc90eaf	0.024543134
128	0xbab0a9cd	-0.0013478339
129	0x3ba94672	0.0051658684
130	0x3c9c1e9a	0.01905756
131	0x3bd64344	0.0065387804
132	0x3b35ab00	0.0027720332
133	0x3def492a	0.11683877
134	0xbc15e2bd	-0.009148297
135	0xbd45c3af	-0.04828232
136	0xbc0dbac5	-0.008650486
137	0x3d87a897	0.06623953
138	0x3cb16d33	0.021658516
139	0xbd232b53	-0.03983624
140	0x3d198834	0.03748341
141	0x3e1f6d7a	0.15569106
142	0xbb99a5e7	-0.0046889666
143	0x3d285aaf	0.041102108
144	0xbc84ba7f	-0.01620221
145	0x3cead9d1	0.028668316
146	0x3c84fd2c	0.016234003
147	0x3ca0f1b4	0.019646503
148	0x3c434723	0.011918816
149	0xbdaa8822	-0.083267465
150	0xbd571599	-0.05251083
151	0x3d088774	0.033332303
152	0x3cfaeaa3	0.030629462
153	0x3d6ea713	0.058264803
154	0x3cfc29db	0.030781677
155	0x3c752e4f	0.014964654
156	0xbc6fae52	-0.014628964
157	0xbd6e6d7d	-0.058209885
158	0xbccc30f7	-0.024925692
159	0xbc8691ef	-0.016427008
160	0xbcc92ffe	-0.024559017
161	0x3d9b4d40	0.07583094
162	0xbd9176bc	-0.07102725
163	0x3ca4d1d6	0.020119589
164	0x3d43a8e7	0.0477685
165	0xbd54e09f	-0.051972028
166	0xbb866925	-0.0041018897
167	0x3d6869c9	0.05674151
168	0xbcbaa1a6	-0.022782158
169	0x3cda7a40	0.026669621
170	0xbd07870f	-0.033087786
171	0xbcaab081	-0.020836117
172	0xbca2874c	-0.019839905
173	0x3d4900c0	0.04907298
174	0x3c507236	0.0127225425
175	0xbd14da6a	-0.03634111
176	0x3d2eba2a	0.04265801
177	0x3c8c1fcc	0.017105006
178	0x3b211aca	0.0024582618
179	0x3cc9524e	0.024575379
180	0xbd66b06d	-0.056320596
181	0x3d730b18	0.05933675
182	0xbc191c19	-0.009345078
183	0x3d332c0c	0.04374318
184	0x3d447693	0.047964644
185	0x3cd37f0a	0.025817413
186	0x3ca3ad1e	0.01998001
187	0x3cf000a1	0.029297175
188	0xbc9527ed	-0.018207515
189	0x3e082e56	0.13298926
190	0x3c1d7a17	0.009611628
191	0x3da3bf0c	0.07995424
192	0x3cb7b50c	0.022425197
193	0xbce36d17	-0.027761979
194	0xbcb77dba	-0.022398818
195	0xbc4fad3f	-0.012675582
196	0x3d40fa61	0.04711378
197	0xbc114ecb	-0.008868883
198	0x3cb111d4	0.021614946
199	0x3d12138d	0.035663176
200	0x3d87f942	0.06639339
201	0xbd86df68	-0.0658558
202	0x3c1f50bc	0.009723838
203	0xbd0b0a8f	-0.033945616
204	0xbd82c1d4	-0.06384626
205	0x3cca2944	0.02467788
206	0xbc24a007	-0.010047919
207	0xbc3227bd	-0.010873732
208	0xbc25680c	-0.0100956075
209	0xbd8286d9	-0.063733764
210	0xbc4b1423	-0.012394938
211	0xbca8075e	-0.020511325
212	0xbdb22c1a	-0.08699818
213	0x3d9a74ce	0.0754181
214	0x3c6f65b9	0.014611655
215	0xbc9a948c	-0.01886966
216	0xbd6da2db	-0.05801664
217	0x3d1a7bb4	0.03771563
218	0xbd0c0d75	-0.03419252
219	0x3c51cd64	0.012805317
220	0x3ce889cd	0.028386021
221	0x3cade395	0.021226684
222	0x3d060299	0.03271732
223	0x3c7ff1a2	0.015621575
224	0xbd241583	-0.040059578
225	0xbb132ba8	-0.002245644
226	0xbd0ab092	-0.033859797
227	0x3c055cc7	0.008139796
228	0xbd4a2e5b	-0.049360614
229	0xbcc8e39b	-0.024522593
230	0xbd3fcd7c	-0.046826825
231	0xbb141d4f	-0.0022600477
232	0x3b4db4c0	0.0031388253
233	0x3d972bdb	0.07381412
234	0xbab898c4	-0.0014083614
235	0x3bf81824	0.007571237
236	0xbc98e94c	-0.018665932
237	0xbdbe4959	-0.09291334
238	0xbd14fa89	-0.03637174
239	0xbd054875	-0.032539804
240	0xbc775c20	-0.015097648
241	0x3d137f1b	0.03600989
242	0x3d0398ac	0.03212802
243	0xbc1e263d	-0.009652671
244	0xbda033a5	-0.078223504
245	0x3dab23a7	0.083564095
246	0xbcec78b1	-0.028866144
247	0x3cdd575b	0.027019193
248	0xbd2dcb75	-0.04243036
249	0x3d0d6c35	0.034527022
250	0xbabb8b61	-0.0014308506
251	0xbc99d980	-0.01878047
252	0x3d369da8	0.044583946
253	0x3c80c8e2	0.015720788
254	0x3bacbc25	0.005271452
255	0xbc5a3b43	-0.013319793

fc1.bias f4 [512]
0	0x3a9780ed	0.0011558809
1	0xbd338e53	-0.043836903
2	0x3db08503	0.0861912
3	0x3e0fbfc8	0.14038002
4	0x3d4ed739	0.05049822
5	0x3d6be0ab	0.057587307
6	0x3e3341b0	0.17505527
7	0x3cf8ec9b	0.03038626
8	0xbda9f512	-0.082986966
9	0x3e3149ca	0.17313305
10	0x3e0dec60	0.13859701
11	0x3db9f370	0.09079635
12	0xbe0b17af	-0.13583253
13	0xbc9d1089	-0.019172924
14	0x3e0c6850	0.13711667
15	0x3e375b10	0.17905831
16	0x3e34a684	0.17641646
17	0x3d2adfd4	0.041717365
18	0x3e28ba0d	0.16477223
19	0x3d7046ca	0.05866126
20	0x3e4260ee	0.18982288
21	0x3df999b0	0.12187517
22	0xbc7f7b7a	-0.015593404
23	0xbde4fa1c	-0.11180517
24	0xbdf26f1e	-0.118376
25	0xbe106a9c	-0.14103168
26	0xbe1e0258	-0.15430582
27	0x3de2e42e	0.11078678
28	0xbdaa28fc	-0.083085984
29	0xbe3a804e	-0.18213007
30	0xbe19d3f8	-0.15022266
31	0xbb5b444e	-0.003345746
32	0xbca5aa70	-0.020222872
33	0xbdc9bea9	-0.09850819
34	0x3d88c02d	0.066772796
35	0xbe3cb598	-0.18428648
36	0x3d85ab85	0.065268554
37	0xbc0e5123	-0.008686337
38	0x3e0ae1d1	0.13562705
39	0x3cac40df	0.021027027
40	0xbe006146	-0.12537107
41	0xbd83e455	-0.06440035
42	0xbcf1261d	-0.02943712
43	0x3d873425	0.06601743
44	0x3e0c1e0b	0.13683335
45	0xbe129177	-0.14313303
46	0xbe1f4010	-0.15551782
47	0xbe2c3134	-0.16815645
48	0x3e021f01	0.1270714
49	0x3d8e7740	0.06956339
50	0x3da8e91c	0.08247587
51	0x3de5b74e	0.11216603
52	0x3c3fe45c	0.01171216
53	0x3e2ae95a	0.16690579
54	0x3d81e367	0.06342202
55	0xbd0c5592	-0.034261294
56	0x3e3d4b9a	0.18485871
57	0xbe259408	-0.1616975
58	0x3ca4a743	0.020099288
59	0x3e1b1f87	0.15148745
60	0x3d7c7ecb	0.061644357
61	0xbdffec4d	-0.12496243
62	0x3e476bdb	0.19474737
63	0xbb2ed0df	-0.002667479
64	0xbccf8a00	-0.025334358
65	0xbd65b7fa	-0.056083657
66	0xbe264b97	-0.16239773
67	0x3bee74ce	0.007277108
68	0xbc688092	-0.01419081
69	0x3d45afe8	0.04826346
70	0xbde35a3f	-0.111011975
71	0x3b81a76e	0.0039567268
72	0xbe4f4020	-0.20239305
73	0x3e219c2e	0.15782234
74	0x3d0d2235	0.03445645
75	0x3d79e555	0.061009724
76	0x3e1eb7e5	0.15499838
77	0xbd5ba185	-0.053620834
78	0x3d9601b6	0.07324545
79	0x3e05e36d	0.13075037
80	0xbde944b2	-0.11390056
81	0xbd8c753b	-0.068582974
82	0xbd95923f	-0.07303285
83	0xbdb86ac9	-0.09004743
84	0x3e245078	0.16046321
85	0x3e18d3c3	0.1492453
86	0xbc2572e2	-0.010098191
87	0xbe4a2075	-0.19738944
88	0x3d922566	0.071360394
89	0x3c14f322	0.0090911705
90	0xbe2fd136	-0.17169651
91	0xbd2db77d	-0.042411316
92	0xbdb76843	-0.08955433
93	0x3d8f5e02	0.070003524
94	0x3de76ff5	0.11300651
95	0xbc80f9db	-0.01574414
96	0xbe4e4c04	-0.20146185
97	0x3e0839c8	0.13303292
98	0xbd48cfa3	-0.049026143
99	0x3e00b244	0.12568003
100	0xbb7222c7	-0.0036946998
101	0x3d173abf	0.03692126
102	0xbe3d5bb7	-0.18492018
103	0xbe3057b8	-0.17220962
104	0x3cd55901	0.026043417
105	0xbd98ecba	-0.07467027
106	0x3d5c833a	0.053836085
107	0xbc9a5178	-0.018837675
108	0xbe19e774	-0.15029699
109	0xbcbeed7a	-0.023306597
110	0xbda42038	-0.08013958
111	0x3dd51a0d	0.104053594
112	0x3da1623c	0.07880065
113	0xbd30f8d0	-0.043206036
114	0x3e0047a0	0.12527323
115	0xbc8a983a	-0.01691829
116	0x3e4d5085	0.20050247
117	0x3dc5c84d	0.09657345
118	0x3d975bee	0.07390581
119	0x3daf8542	0.08570339
120	0x3de07880	0.109604836
121	0xbe2de5d4	-0.16982204
122	0x3e452804	0.19253546
123	0x3dfda79a	0.12385483
124	0x3cc71080	0.02429986
125	0x3d586ad4	0.052836254
126	0xbcf2d454	-0.029642262
127	0x3c55569c	0.013021138
128	0xbc8f5f4c	-0.017501496
129	0xbd978dbd	-0.07400081
130	0xbbe48030	-0.006973289
131	0x3e1cc5c9	0.15309824
132	0xbe183824	-0.14865166
133	0x3e2a5333	0.166333
134	0xbe3a54e9	-0.18196453
135	0x3e3e9221	0.18610431
136	0xbdc2cd3c	-0.095118016
137	0x3d185432	0.03718967
138	0x3de7277c	0.11286828
139	0x3e4b4573	0.19850712
140	0x3d9d22f1	0.0767268
141	0xbdfa9335	-0.12235109
142	0xbd8e3277	-0.06943219
143	0x3d7d7b91	0.06188542
144	0x3d9b655c	0.07587692
145	0xbe2f380b	-0.17111222
146	0x3df4cab3	0.11952724
147	0x3dbe91ef	0.093051784
148	0x3bb8e10d	0.0056420625
149	0xbe1e53ee	-0.15461704
150	0xbe49b0df	-0.19696377
151	0xbd65f95c	-0.05614601
152	0x3e3c6de6	0.18401298
153	0x3e49f740	0.19723225
154	0xbd233050	-0.039840996
155	0xbcf4e4ac	-0.029894195
156	0xbe27a94d	-0.16373177
157	0x3e14ec2b	0.14543216
158	0xbe1fe4a9	-0.1561457
159	0x3bf452be	0.0074561527
160	0x3e4bb621	0.19893695
161	0x3e2814f4	0.16414243
162	0xbde2f11e	-0.11081146
163	0xbcae59bd	-0.021283025
164	0xbdbea5ff	-0.09309005
165	0x3e433804	0.19064337
166	0x3e350102	0.17676166
167	0xbdca96a8	-0.09892017
168	0x3e248eff	0.16070174
169	0x3dd68605	0.10474781
170	0x3e4bee20	0.19915056
171	0x3cdc98ea	0.026928384
172	0x3e085ea9	0.1331736
173	0xbe142241	-0.14466192
174	0xbd89c827	-0.06727629
175	0xbdf42bc1	-0.11922408
176	0xbe4763e3	-0.19471698
177	0x3e3ed0eb	0.18634383
178	0x3e225c04	0.15855414
179	0xbe0c971b	-0.13729517
180	0x3e3677df	0.17819165
181	0xbdeee026	-0.11663847
182	0x3decd1a2	0.11563422
183	0x3e1e53bb	0.15461628
184	0x3e01f25d	0.1269011
185	0x3d327441	0.0435679
186	0x3e2ee57a	0.17079726
187	0x3deefaa0	0.11668897
188	0xbc6e3d85	-0.014541035
189	0x3e21f700	0.1581688
190	0x3e247d08	0.1606332
191	0xbe286add	-0.16447015
192	0xbd7dc0f9	-0.06195161
193	0xbbba5ee9	-0.0056875837
194	0xbd92e51f	-0.07172608
195	0xbc5a730c	-0.013333093
196	0x3dd20fce	0.10256921
197	0xbe086c6e	-0.13322613
198	0xbdd04563	-0.101694845
199	0x3c3cfb81	0.011534573
200	0xbe1ca051	-0.15295531
201	0x3e2f67c3	0.17129426
202	0xbdb5df20	-0.08880448
203	0x3e4dab4d	0.20084877
204	0xbba2abf4	-0.004964346
205	0x3e4e5e71	0.20153214
206	0xbd2c9009	-0.04212955
207	0xbde799ed	-0.11308656
208	0x3de0f022	0.10983302
209	0x3e152dc3	0.14568238
210	0xbe352e70	-0.17693496
211	0xbd0fbbf8	-0.03509137
212	0x3d0c94c9	0.03432158
213	0xbe00903f	-0.12555026
214	0x3e499826	0.19686946
215	0x3da90548	0.082529604
216	0xbd846065	-0.06463698
217	0xbd0e93e8	-0.034809023
218	0x3cdef7e1	0.027217807
219	0xbe412bc7	-0.18864356
220	0x3d345b16	0.04403218
221	0x3e22bb8b	0.15891854
222	0x3e0f13fe	0.1397247
223	0x3e1fa336	0.15589604
224	0xbdbeb5a1	-0.09311987
225	0x3d2841f9	0.04107854
226	0x3ce9c2fd	0.02853536
227	0xbe02b5f4	-0.12764722
228	0x3dba5d75	0.09099857
229	0xbd33033c	-0.043704256
230	0xbd4ad865	-0.049522776
231	0x3e347e27	0.17626248
232	0x3e45bf50	0.19311261
233	0x3d87e86c	0.06636128
234	0x3d3f0b4c	0.046641633
235	0x3da59b93	0.08086314
236	0x3de2cdd5	0.110744156
237	0x3e011fce	0.12609789
238	0x3df65ebe	0.120297894
239	0xbd8b4674	-0.06800547
240	0x3e31f870	0.17379928
241	0x3d424a77	0.047434296
242	0x3d359d26	0.04433932
243	0x3dd562b1	0.104192145
244	0x3e23463c	0.15944761
245	0x3dc7f912	0.09764303
246	0x3e1b7bfa	0.15184012
247	0xbda3d476	-0.07999508
248	0x3dfc385d	0.12315438
249	0xbcd58731	-0.02606544
250	0x3ddcb649	0.10776956
251	0xbd8e1759	-0.06938047
252	0xbdb57944	-0.0886102
253	0x3e3747ae	0.17898437
254	0xbd9392e2	-0.0720575
255	0xbe23137f	-0.15925406

bn1.weight f4 [512]
0	0x3ed4ec1f	0.41586396
1	0x3f504804	0.8135989
2	0x3eee3335	0.46523443
3	0x3d84acc9	0.06478269
4	0x3f24038c	0.6406791
5	0x3f059a9f	0.5218906
6	0x3d722015	0.059112627
7	0x3ebd4b9d	0.3697175
8	0x3e7104b6	0.23536953
9	0x3f3eadde	0.7448405
10	0x3f460fa4	0.77367616
11	0x3f553d36	0.83296525
12	0x3f40a0e6	0.7524551
13	0x3f6ea6c8	0.9322324
14	0x3f548f88	0.8303151
15	0x3f1c4793	0.61046714
16	0x3f487cee	0.7831563
17	0x3dbf7ed6	0.09350364
18	0x3f54a7a0	0.83068275
19	0x3f3c96f2	0.73667824
20	0x3f8385e5	1.0275236
21	0x3f2aa7ba	0.6666218
22	0x3eb4c0de	0.35303396
23	0x3e84dc17	0.25949165
24	0x3f44e1e4	0.7690718
25	0x3ec01926	0.37519187
26	0x3f64033b	0.8906743
27	0x3f11d4f8	0.5696559
28	0x3f214087	0.62989086
29	0x3f8c61b2	1.0967314
30	0x3f05b667	0.5223145
31	0x3ed89b23	0.4230586
32	0x3f678c32	0.90448296
33	0x3f26b051	0.6511279
34	0x3ef1a4dc	0.4719609
35	0x3eff97cc	0.499205
36	0x3e24ba79	0.16086759
37	0x3f803a8f	1.0017871
38	0x3f386188	0.7202382
39	0x3e0b094a	0.13577762
40	0x3f46cc42	0.7765542
41	0x3f1cf165	0.6130584
42	0x3ec6990f	0.3878865
43	0x3ea80134	0.32813418
44	0x3d361764	0.0444559
45	0x3f3b3894	0.73133206
46	0x3f890528	1.0704699
47	0x3ed0cc6c	0.40780962
48	0x3ea72531	0.32645562
49	0x3e42a5ee	0.1900861
50	0x3f5d057b	0.8633649
51	0x3f0d8af1	0.5529013
52	0x3f7ecbb7	0.99529594
53	0x3f7c8d7e	0.986534
54	0x3e973e01	0.29539493
55	0x3f28d59d	0.6595095
56	0x3f61d7f7	0.8822016
57	0x3f5ef60e	0.870942
58	0x3f528b9f	0.82244295
59	0x3f585cd3	0.8451664
60	0x3f48eb5d	0.78484136
61	0x3f3723e9	0.7153917
62	0x3ed78c30	0.42099142
63	0x3f069e3c	0.52585196
64	0x3f7bfa14	0.98428464
65	0x3f64b687	0.89341015
66	0x3ed086d1	0.40727857
67	0x3ee8d86b	0.45477614
68	0x3e077165	0.1322685
69	0x3f6c176c	0.9222324
70	0x3eb1c210	0.3471837
71	0x3f06af28	0.5261102
72	0x3ea1a318	0.31569743
73	0x3f6bf8b9	0.92176396
74	0x3e74eb1d	0.23917814
75	0x3f841617	1.0319241
76	0x3f8e15d3	1.110041
77	0x3f3d6d3c	0.73994803
78	0x3d3d2fd0	0.046188176
79	0x3f4bde9f	0.7963657
80	0x3ebef719	0.37297896
81	0x3eea1ad9	0.45723608
82	0x3e91e731	0.28496698
83	0x3f5ae477	0.8550486
84	0x3f32403d	0.6962927
85	0x3f370b15	0.71501285
86	0x3f82e2e9	1.0225497
87	0x3e643780	0.22286797
88	0x3f131425	0.57452613
89	0x3f34cc5e	0.7062434
90	0x3f54491f	0.82924074
91	0x3f2e7fe2	0.68163884
92	0x3dcb2e57	0.09920948
93	0x3f3b78e5	0.73231345
94	0x3f1de36c	0.61675143
95	0x3f657dca	0.89645064
96	0x3f27393d	0.65321714
97	0x3f80f8d7	1.007594
98	0x3f18cacf	0.5968446
99	0x3f24dda0	0.6440067
100	0x3f02d906	0.511124
101	0x3f6aeb25	0.9176505
102	0x3e490d36	0.19633946
103	0x3f43871d	0.7637804
104	0x3f0ab924	0.5418875
105	0x3f734245	0.95022994
106	0x3db81bc3	0.0898967
107	0x3f5fc773	0.8741371
108	0x3e9b13ca	0.30288535
109	0x3f39d9b3	0.7259781
110	0x3ea88dde	0.32920736
111	0x3f8687ed	1.0510231
112	0x3f7ad519	0.9798141
113	0x3de13309	0.10996062
114	0x3e26e9e9	0.16300167
115	0x3e908d47	0.28232786
116	0x3ed8b47b	0.42325196
117	0x3d8d7682	0.06907369
118	0x3f24f625	0.64438087
119	0x3f19ffeb	0.60156125
120	0x3f17a8cc	0.5924194
121	0x3e874d35	0.26426092
122	0x3f1a4af8	0.60270643
123	0x3f84cd08	1.037507
124	0x3f6be17f	0.92140955
125	0x3f54b715	0.8309186
126	0x3f38e7ae	0.72228515
127	0x3e88efa6	0.26745337
128	0x3f57aad7	0.84245056
129	0x3f483088	0.7819905
130	0x3cbb9f5f	0.022903142
131	0x3f50391c	0.8133714
132	0x3ecd01f4	0.40040553
133	0x3e151865	0.14560087
134	0x3e430aa3	0.19047026
135	0x3f1db2f8	0.6160121
136	0x3f11d99d	0.56972677
137	0x3e509d04	0.20372397
138	0x3ee39492	0.44449288
139	0x3f5b127d	0.85575086
140	0x3edd255a	0.4319256
141	0x3f80d5a3	1.0065197
142	0x3f32000b	0.69531316
143	0x3f1917c1	0.5980187
144	0x3f3ecc45	0.7453044
145	0x3f79b02e	0.97534454
146	0x3f2ec77f	0.68273157
147	0x3ee7ae7d	0.45250311
148	0x3f84c67e	1.0373075
149	0x3f15d4ee	0.5852803
150	0x3f0dfb32	0.5546142
151	0x3e905f35	0.28197637
152	0x3e888796	0.26665944
153	0x3e1a4398	0.15064847
154	0x3f7dbe27	0.99118274
155	0x3d805581	0.062663086
156	0x3e657533	0.22407989
157	0x3f773176	0.96559846
158	0x3f88534e	1.0650423
159	0x3ed4b11d	0.41541377
160	0x3ece5134	0.40296328
161	0x3f49f2f1	0.78886324
162	0x3dac6448	0.08417565
163	0x3f577299	0.8415924
164	0x3e7b4188	0.24536717
165	0x3f4e4da1	0.805872
166	0x3e27e0c5	0.16394337
167	0x3f4970ec	0.7868793
168	0x3edf0a06	0.43562335
169	0x3f0152cc	0.50516963
170	0x3e4ed77a	0.20199385
171	0x3f57a9bf	0.84243387
172	0x3e882076	0.26587266
173	0x3ec8207b	0.3908728
174	0x3ecd07ea	0.400451
175	0x3f35437c	0.708061
176	0x3f61e115	0.8823407
177	0x3f63ea06	0.89028966
178	0x3dcdb153	0.100435875
179	0x3f39a1de	0.72512615
180	0x3efe53d4	0.4967333
181	0x3ead6f2e	0.33873886
182	0x3d6e9354	0.05824597
183	0x39aadf19	0.00032591147
184	0x3f47561d	0.77865773
185	0x3e6e0238	0.23243034
186	0x3f3bf70f	0.73423856
187	0x3e9d9a45	0.3078176
188	0x3f7a0931	0.97670275
189	0x3c7f879a	0.015596295
190	0x3f2057b0	0.626338
191	0x3e0d5eb7	0.13805662
192	0x3d411a0e	0.04714399
193	0x3ed62423	0.41824445
194	0x3e24963b	0.16072933
195	0x3f71ee01	0.9450379
196	0x3f289478	0.65851545
197	0x3d8afd7c	0.067866296
198	0x3f69c50e	0.91316307
199	0x3f2b612d	0.66945153
200	0x3eeac5d0	0.45854044
201	0x3ea3ebac	0.3201574
202	0x3f1e6878	0.61878157
203	0x3e560cc6	0.2090331
204	0x3d822849	0.0635534
205	0x3f76ac6d	0.9635685
206	0x3f5b3da7	0.8564095
207	0x3ef5e9bc	0.48029888
208	0x3f82fd35	1.0233523
209	0x3ec7059d	0.3887147
210	0x3e84560a	0.25846893
211	0x3f4be8a4	0.79651856
212	0x3ecba69c	0.3977555
213	0x3f0b7504	0.54475427
214	0x3f5d429e	0.86429775
215	0x3dc285e2	0.09498192
216	0x3f2b31af	0.66872686
217	0x3f65a02b	0.8969752
218	0x3f1e868c	0.6192405
219	0x3eaab4d3	0.33341083
220	0x3ed7d330	0.4215331
221	0x3f74ab66	0.95574033
222	0x3f385518	0.7200484
223	0x3f719039	0.9436069
224	0x3f68d8d1	0.90955836
225	0x3e4f8ba3	0.20268111
226	0x3f058dd5	0.52169544
227	0x3f2ff083	0.68726367
228	0x3f750986	0.95717657
229	0x3f231a00	0.6371155
230	0x3f70657b	0.93904847
231	0x3eb7d657	0.35905716
232	0x3ef5472c	0.47905862
233	0x3f5a5f61	0.85301787
234	0x3f4bb9de	0.79580486
235	0x3f7f50d3	0.997327
236	0x3e95b100	0.29236603
237	0x3f20b547	0.6277661
238	0x3de6040d	0.112312414
239	0x3f35b885	0.7098468
240	0x3e557dbc	0.20848745
241	0x3f156a6f	0.5836553
242	0x3f1e6de2	0.6188642
243	0x3e8f037b	0.27932343
244	0x3ebff3c3	0.37490663
245	0x3f456098	0.77100515
246	0x3f2b34b0	0.6687727
247	0x3f7cf96f	0.98818105
248	0x3e48536b	0.19563071
249	0x3f02e0e7	0.51124424
250	0x3ec96015	0.39331117
251	0x3f1a534e	0.6028336
252	0x3f42569f	0.75913423
253	0x3e99446b	0.2993501
254	0x3f64781b	0.89245766
255	0x3f587f34	0.84569097

bn1.bias f4 [512]
0	0x3cdb51f7	0.026772482
1	0xbd7a63fa	-0.0611305
2	0x3c6bc807	0.014390952
3	0x3d2f675e	0.042823188
4	0x3c8ff5e9	0.017573314
5	0x3d27fd27	0.04101291
6	0x3d8124bc	0.06305835
7	0xbb8862df	-0.004162177
8	0xbd70b66f	-0.058767732
9	0xbbfda7de	-0.0077409586
10	0x3bd2f634	0.006438041
11	0x3be9e5b1	0.007137977
12	0x3d0a25b6	0.03372737
13	0xbc2bda2c	-0.010489028
14	0x3d751c48	0.059841424
15	0x3d4230ff	0.047410008
16	0x3cc98341	0.02459872
17	0xbc7fae4c	-0.01560552
18	0x3d51fad2	0.05126459
19	0x3d6fa949	0.058511052
20	0xbd206ee9	-0.039168272
21	0x3c0ac250	0.008469179
22	0x3d27bd1e	0.04095184
23	0x3d5b2c07	0.053508785
24	0x3cf2b8e9	0.029629188
25	0x3c7c9df3	0.015418517
26	0x3d48a000	0.048980713
27	0xbd164b44	-0.036692873
28	0x3cf65375	0.030069092
29	0x3c131377	0.008976809
30	0xbd3c7d46	-0.046017908
31	0xbc8e1ebb	-0.017348638
32	0x3c1cf9ff	0.009581088
33	0xbd11c160	-0.035584807
34	0x3bccea47	0.006253514
35	0x3d12f3d8	0.03587708
36	0xbca921f4	-0.020646073
37	0xbc093cc2	-0.008376302
38	0x3c7253c5	0.01479048
39	0xbb647b51	-0.0034863541
40	0x3cbdafd4	0.02315513
41	0xbc5a7a6d	-0.013334853
42	0xbc0e502a	-0.008686105
43	0x3bc260fd	0.005931972
44	0x3d99c4c9	0.07508237
45	0x3cb47603	0.022028929
46	0x3d8757bf	0.06608533
47	0x39a33100	0.0003112629
48	0x3d470977	0.04859301
49	0x3d27cbf8	0.040966004
50	0x3d2c76cc	0.04210548
51	0x3d56722a	0.05235497
52	0xbcd80b46	-0.026372563
53	0xbba4e63f	-0.0050323303
54	0xbc3ebc65	-0.011641596
55	0x3d5b1bb3	0.053493213
56	0x3cbe56c2	0.023234729
57	0x3bfe8e6c	0.007768443
58	0x3cc4067d	0.023928875
59	0xbce4960b	-0.027903577
60	0x3bbb2262	0.005710886
61	0x3d4d1605	0.050069828
62	0x3c19e323	0.0093925325
63	0x3cc15cf4	0.023603894
64	0x3d86c3b8	0.06580299
65	0x3ceceb41	0.028920772
66	0xbd33a754	-0.04386075
67	0xbbdb918a	-0.006700699
68	0x3ae2cdb3	0.0017303735
69	0x3c8b3764	0.016994186
70	0x3cefd993	0.029278552
71	0xbda37ece	-0.079831704
72	0x3d525bcf	0.051357087
73	0x3cce11b0	0.025154918
74	0x3d0cb1af	0.03434914
75	0x3d409172	0.047013707
76	0x3d083a8d	0.033258963
77	0xbc7a3840	-0.0152722
78	0xbd0df00d	-0.03465276
79	0x3cccce3b	0.025000682
80	0x3d2ebbdf	0.042659637
81	0x3cbec17f	0.023285626
82	0x3cefbfd8	0.029266283
83	0xbcc8e167	-0.024521543
84	0xbcaeff8f	-0.021362094
85	0xbc9d98f0	-0.019237965
86	0x3c596595	0.013268848
87	0xbc57541d	-0.013142613
88	0x3b1ae30f	0.0023633873
89	0xbc0420d6	-0.008064469
90	0x3cac2c59	0.02101724
91	0xbd25cf17	-0.0404807
92	0x3c8880e3	0.01666302
93	0x38b480b2	8.60704e-05
94	0x3d5570de	0.05210959
95	0x3d95abd3	0.073081635
96	0xbb808a52	-0.003922739
97	0xbc5f6ee6	-0.01363728
98	0xbc4dfc52	-0.012572365
99	0x3c9e85b2	0.01935086
100	0x3ca6b201	0.02034855
101	0xbc3f691d	-0.011682776
102	0x3c8d1812	0.017223392
103	0xbc7a6bf2	-0.015284525
104	0xbd22417a	-0.039613225
105	0x3d171e16	0.036893927
106	0x3ca33442	0.01992238
107	0xbd863ec3	-0.065549396
108	0xbd74fa3a	-0.059808947
109	0x3d179492	0.037006922
110	0x3cf97862	0.03045291
111	0xbd2f1a0d	-0.042749453
112	0x3ce5c1d7	0.028046532
113	0xbc75b5b5	-0.014996936
114	0x3d5656f8	0.052329034
115	0xbcdf2df4	-0.027243592
116	0x3c04ba92	0.008101122
117	0x3c479473	0.012181389
118	0x3d10a0ae	0.035309486
119	0x3d344775	0.04401346
120	0xbbf53be8	-0.007483948
121	0x3d681907	0.056664493
122	0xbbc790d8	-0.006090265
123	0xbb80b987	-0.0039283666
124	0x3ccfe93f	0.025379775
125	0x3ba3f74e	0.0050038463
126	0xbd2f9756	-0.042868935
127	0x3a01436e	0.0004931007
128	0xbd1f20d9	-0.038849685
129	0x3d0a7d86	0.033811115
130	0x3cb988db	0.022648266
131	0x3ce2443f	0.027620433
132	0x3c622724	0.013803277
133	0xbaaf3e35	-0.001336998
134	0x3c845bce	0.016157057
135	0x3ce4d28b	0.027932426
136	0x3c06a9bd	0.00821918
137	0xbd33bfd2	-0.043884106
138	0xbd9adffd	-0.075622536
139	0x3db6db85	0.08928589
140	0xbc8109f5	-0.015751818
141	0x3ce0af2c	0.027427278
142	0xbd5685f4	-0.05237384
143	0x3cdf0c61	0.027227582
144	0x3cce57ad	0.025188291
145	0x3c16e19c	0.009209063
146	0xbd67b8c0	-0.056572676
147	0x3c9ca0ae	0.019119587
148	0x3a62f7f8	0.0008658166
149	0x3bb414d1	0.0054956456
150	0xbd415674	-0.04720159
151	0x3cdd145c	0.026987247
152	0x3d38caf6	0.045115434
153	0x3d3390fc	0.04383944
154	0x3ae8255d	0.001771133
155	0xbc9beb96	-0.019033235
156	0x3d381527	0.044942047
157	0xbd309a5b	-0.043115955
158	0x3d869c6c	0.06572804
159	0x3d289693	0.041159224
160	0x3d78c940	0.060738802
161	0x3d1a0d11	0.037610117
162	0x3c5d4a50	0.013506487
163	0x3d14b945	0.0363095
164	0xbd17d511	-0.03706843
165	0x3cf68d9f	0.030096827
166	0xbcc3fa59	-0.023923086
167	0x3ceefa27	0.029172016
168	0xbd54305d	-0.051803935
169	0x3cb2cb10	0.021825343
170	0x3c10f9c3	0.00884861
171	0x3d368c7f	0.04456758
172	0xbc5f9b4a	-0.013647864
173	0x3b7b7d65	0.0038374302
174	0x3cabb14d	0.020958567
175	0xbcfb86c4	-0.03070391
176	0x3db8bd4e	0.09020482
177	0x3d29202f	0.04129046
178	0x3c6ffe65	0.014648055
179	0x3ccabfd2	0.02474967
180	0x3ca02139	0.019547092
181	0x3cc207db	0.023685386
182	0x3cf60c5a	0.030035187
183	0x3d25975a	0.040427543
184	0x3ccae43a	0.02476703
185	0x3d81a40d	0.06330118
186	0xbb89d704	-0.00420654
187	0xbaa1eb07	-0.0012353369
188	0xbd0641a1	-0.032777432
189	0x3d380175	0.044923265
190	0xbc458699	-0.012056016
191	0xbc440bd3	-0.01196571
192	0x3d7e67de	0.062110774
193	0x3cdb8da8	0.026800945
194	0x3ca74608	0.020419136
195	0x3d39c6c8	0.04535559
196	0x3d0d0abe	0.034434073
197	0x3d0a25c2	0.033727415
198	0xbd386568	-0.045018584
199	0xbd3d6ad8	-0.046244472
200	0x3d332223	0.043733727
201	0x3c355567	0.011067725
202	0x3da92139	0.0825829
203	0xbd0b1175	-0.033952195
204	0x3d2af860	0.041740775
205	0x3c8e14f5	0.017343977
206	0xbd1fa5b9	-0.038976405
207	0xbc0ef07f	-0.008724331
208	0x3b18db0e	0.0023323926
209	0xbcecf551	-0.02892557
210	0xbcf0d72a	-0.029399473
211	0xbd1dd939	-0.038537238
212	0xbd81d9b2	-0.0634035
213	0x3c77b353	0.015118438
214	0xbcb6832d	-0.022279346
215	0xbadb5b0c	-0.0016735508
216	0x3d625abc	0.055262312
217	0xbd6de048	-0.05807522
218	0x3bc5dac5	0.0060380423
219	0xbd0aef67	-0.033919718
220	0xbcad1bf9	-0.021131502
221	0xbce8e913	-0.028431451
222	0x3d000944	0.031258836
223	0x3c7513e5	0.0149583565
224	0x3db20d8d	0.08693991
225	0xbc4364ab	-0.011925857
226	0xbce87881	-0.028377773
227	0x3d248e0e	0.040174536
228	0x3d4d6f17	0.05015477
229	0x3c88a7d0	0.016681582
230	0xbcddc04b	-0.027069231
231	0x3d349ffe	0.044097893
232	0x3cc38722	0.023868147
233	0x3d099f25	0.033599038
234	0xbcd946d2	-0.026523028
235	0xbc5cbe52	-0.01347311
236	0xbcae52b8	-0.021279678
237	0x3d1d0eb6	0.038344108
238	0xbd0c37e9	-0.034233008
239	0xbd1caac6	-0.0382488
240	0x3d44af35	0.048018653
241	0x3bbe4b01	0.005807281
242	0x3d1d7362	0.038440116
243	0x3dcf8481	0.10132695
244	0xbb91a78b	-0.0044450215
245	0xbcb40b86	-0.021978151
246	0x3d1892a7	0.037249234
247	0xbb67015a	-0.0035248608
248	0xbc88c55b	-0.016695669
249	0x3d19f025	0.037582535
250	0x3d5c5d20	0.05379975
251	0x3d43f256	0.04783853
252	0xbd2fc8fe	-0.04291629
253	0x3daf9005	0.085723914
254	0x3d681124	0.05665697
255	0xbc43a5d3	-0.011941391

bn1.running_mean f4 [512]
0	0x3f82e10d	1.022493
1	0xbf5823ba	-0.84429514
2	0x3fc31ee0	1.5243797
3	0xbdae0c6c	-0.08498463
4	0xbf0a7b1d	-0.54094106
5	0x3fa0e608	1.25702
6	0xbf23d1f6	-0.6399225
7	0x3e858069	0.26074532
8	0xbe9b5216	-0.30336064
9	0x3ee925a4	0.4553653
10	0x3f031909	0.51210076
11	0xbec5c9cf	-0.3863053
12	0x3fdfeaa8	1.7493486
13	0xbee95b41	-0.45577434
14	0xbe708a3c	-0.23490232
15	0xbf8aeece	-1.0854127
16	0x3fbd8141	1.480507
17	0x3f8b3638	1.0875921
18	0xbde6e6d2	-0.11274494
19	0x3ed2c2af	0.41164157
20	0x3de10808	0.1098786
21	0x3fceca94	1.6155572
22	0x3f9f35b2	1.2438262
23	0xbe2c8401	-0.1684723
24	0x3f97181d	1.1804234
25	0x3fa3cd5d	1.2797047
26	0xbf77836e	-0.9668492
27	0x3e579ac7	0.21055137
28	0xbfdbef9d	-1.7182499
29	0x3d454280	0.048159122
30	0xbf0ec68a	-0.55771697
31	0xbd34cf9d	-0.044143308
32	0x3e4d286b	0.2003495
33	0xbe6eb07c	-0.23309511
34	0xbf078bcb	-0.5294768
35	0x3fe5b6f1	1.7946454
36	0xbf1131fd	-0.567169
37	0x3eaaa557	0.3332927
38	0xbf1f9c4b	-0.6234786
39	0x3f1df1a2	0.6169683
40	0xbf22fc36	-0.63666093
41	0x3f2413fd	0.64093
42	0x3f97664e	1.1828096
43	0x3fa35eaf	1.276327
44	0x3f2ba122	0.67042744
45	0x3ee0070a	0.4375537
46	0xbf175a9d	-0.5912264
47	0x3f0dc43f	0.5537757
48	0x3f29a2cc	0.66264033
49	0xbefdd992	-0.49580055
50	0x3f5afd0d	0.85542375
51	0x3fb1ef13	1.3901085
52	0xbf4e781d	-0.8065203
53	0x3ec6f3a6	0.38857764
54	0x3fbfddd2	1.4989569
55	0xbf8d39fb	-1.1033319
56	0x3fa11eeb	1.258756
57	0xbfea069a	-1.8283265
58	0xbf940a4a	-1.156564
59	0x3d8ffba2	0.07030417
60	0x3e996c1c	0.29965293
61	0xbf32e5ab	-0.69881696
62	0x3f7930c1	0.9734002
63	0x4014930f	2.3214757
64	0xbfef9e96	-1.8720272
65	0x3fbbf06f	1.468275
66	0xbf45e92e	-0.7730893
67	0x3dbc7130	0.09201276
68	0x3f62fc5d	0.88666326
69	0x3f9896a7	1.1920975
70	0x3f8be823	1.0930218
71	0x3fdc7b11	1.7225057
72	0x3cc70070	0.0242922
73	0xbe27ff44	-0.1640597
74	0xbeab44ec	-0.3345102
75	0xbe0f1b78	-0.13975322
76	0x3f1791e8	0.5920701
77	0x3dd3590a	0.10319717
78	0x3f1aaee9	0.6042314
79	0xbfc3fbfd	-1.5311276
80	0x3eba9b8f	0.36446807
81	0x3dcff28e	0.101536855
82	0x3faaac10	1.3333759
83	0x3edca3fd	0.43093863
84	0x3efeb2fe	0.49745935
85	0x3efbab9a	0.4915436
86	0x3f0af203	0.5427553
87	0xbfde6dae	-1.7377222
88	0x3e7a3e2e	0.24437782
89	0xbe3d9dc2	-0.18517211
90	0xbfddf5e7	-1.7340668
91	0x3db69479	0.08915038
92	0x3f83b3b6	1.0289218
93	0xbf8a1df2	-1.0790389
94	0xbe3065bb	-0.17226307
95	0x3f960309	1.1719676
96	0x3e01bf05	0.12670524
97	0x3eca2f21	0.39489082
98	0x3f2aafbf	0.6667442
99	0x3eea0a1a	0.45710832
100	0x3f5a8139	0.8535343
101	0x3eca0020	0.3945322
102	0xbfac7f25	-1.3476301
103	0x3e158752	0.14602402
104	0x3f484dde	0.78243816
105	0xbfd1cc22	-1.6390421
106	0xbee2c5d7	-0.44291565
107	0xbf0f92de	-0.56083477
108	0xc015170a	-2.3295312
109	0x3ed53968	0.4164536
110	0xbe7d3d00	-0.24730301
111	0x3f3b7e48	0.73239565
112	0x3e11bab1	0.14231373
113	0xbf16b91e	-0.58876216
114	0x3dfc52fb	0.12320515
115	0x3f33e51a	0.70271456
116	0xbe020066	-0.12695464
117	0xbef6024c	-0.48048627
118	0x3cfa2d66	0.030539226
119	0x3f0fe0fa	0.5620266
120	0x3f343a6c	0.70401645
121	0xbd602063	-0.054718386
122	0x4004908b	2.0713222
123	0x3dfae65b	0.12250968
124	0x3f82efe3	1.0229458
125	0x3d99360c	0.07481012
126	0xbe910f2f	-0.28331897
127	0x3ec92d88	0.3929255
128	0x3f33803d	0.7011755
129	0x3f823399	1.0171996
130	0x3f8e656a	1.1124699
131	0x3f1a13f4	0.60186696
132	0xbe47fd32	-0.1953018
133	0x3efdda60	0.4958067
134	0x3e691555	0.22762044
135	0x3e4c97a9	0.19979729
136	0xbe94f2e3	-0.29091558
137	0xbde69db0	-0.11260545
138	0xbe992c22	-0.29916483
139	0x3e207691	0.1567023
140	0xbeb33eb0	-0.35008764
141	0x3f12c63a	0.5733372
142	0x3ca9893d	0.020695323
143	0x3d9b9e3a	0.07598539
144	0xbe154df8	-0.14580524
145	0x3dc7b924	0.0975211
146	0xbfaa1401	-1.3287355
147	0x400f9511	2.2434733
148	0x3e70fc0a	0.23533645
149	0x3d8b29d9	0.06795091
150	0xbeb775a5	-0.35831943
151	0x3fa04e8c	1.2523971
152	0x3fa9ad73	1.3256058
153	0xbf702557	-0.93806976
154	0xbe782e0d	-0.24236317
155	0xbfa0f833	-1.2575744
156	0x3ee170f1	0.4403148
157	0x3ec2883a	0.37994558
158	0x3ecfa97b	0.4055899
159	0xbf85acd9	-1.0443374
160	0xbd836bb3	-0.06417026
161	0xbf4eab1c	-0.8072984
162	0x3f7552d7	0.9582953
163	0x3f1d327a	0.61405146
164	0x3f418086	0.75586736
165	0x3f89f63b	1.0778269
166	0x3e8c99a0	0.27460957
167	0x3f417d97	0.7558226
168	0x3fa019dd	1.2507893
169	0x3f34cc92	0.7062465
170	0x3fc6f873	1.5544571
171	0x3ea8cade	0.32967275
172	0x3fec3aec	1.8455482
173	0x3ec6eeae	0.38853973
174	0xbfaa6e16	-1.3314846
175	0x3f100e6a	0.56271994
176	0x3e9e16be	0.30876726
177	0x3f8f8cbc	1.1214824
178	0x3e7c4585	0.24635895
179	0x3f0abcf5	0.54194576
180	0xbf5616b7	-0.8362841
181	0xbf36acd0	-0.7135744
182	0x3f42221a	0.75833285
183	0x3f5cdd05	0.8627475
184	0xbdac85a5	-0.08423928
185	0x3f5a2c38	0.8522372
186	0xbec1ca86	-0.37849826
187	0x3d2af480	0.04173708
188	0x3edfcd71	0.43711427
189	0x3fb7cc35	1.4359194
190	0x3f0027af	0.5006055
191	0xbf417ea5	-0.7558387
192	0x3f301805	0.6878665
193	0x3fa84d48	1.3148584
194	0xbfadbcfc	-1.3573298
195	0xbf81c7fd	-1.0139157
196	0x3e1674c3	0.14692979
197	0x3ee8c7fb	0.45465073
198	0xbd83aa98	-0.064290226
199	0xbe78e61e	-0.24306533
200	0x3f65d801	0.8978272
201	0x3e06f628	0.13179839
202	0x3f45348f	0.77033323
203	0x3e3e0d60	0.1855979
204	0xbf834361	-1.0254937
205	0xbde5c058	-0.11218327
206	0x3f542b01	0.8287812
207	0xbecb3c9d	-0.39694682
208	0x3f06ec86	0.52704656
209	0x3f99ff13	1.2030967
210	0x3e86f2c4	0.2635709
211	0xbda3551a	-0.07975216
212	0xbe80929d	-0.25111857
213	0xbdc4d6b1	-0.09611262
214	0x3ea957cd	0.330748
215	0xbe4db2c7	-0.2008773
216	0x3f6b7cd7	0.91987365
217	0x3f11cf94	0.56957364
218	0x3f35a2ca	0.7095152
219	0x3d3075d8	0.043081135
220	0x3e9aa03e	0.3020038
221	0x3f2501ab	0.6445567
222	0xbfb23427	-1.3922166
223	0x3e1a5e39	0.15075006
224	0x3d8599d6	0.065234825
225	0x3e124084	0.14282423
226	0x3fe9f6f8	1.8278494
227	0x3f65cc94	0.89765286
228	0x3e9ce81c	0.30645835
229	0x400c366a	2.1908212
230	0x3f1b096d	0.6056126
231	0xbfb35df7	-1.4013051
232	0x3fd5cc2f	1.6702937
233	0x3db1a251	0.086735375
234	0xbf3ba5b0	-0.73299694
235	0x3f278941	0.6544381
236	0xbf12a413	-0.5728161
237	0x3f821f2f	1.0165766
238	0x3f4a62f8	0.79057264
239	0x3d2d166e	0.04225772
240	0x3ed054de	0.4068975
241	0x3fb21cde	1.391506
242	0x3f8a5eee	1.081022
243	0x3f869c8e	1.0516527
244	0x3e7192e0	0.23591185
245	0x3da631f8	0.081149995
246	0x3e95a552	0.29227692
247	0x3f9eedbe	1.2416303
248	0xbf1293d4	-0.5725682
249	0x3fad985a	1.3562119
250	0xbe8c9eee	-0.27465004
251	0xbfb53719	-1.415744
252	0x3cb0dda7	0.021590067
253	0x3fa09ef5	1.254851
254	0x3f6e3dc2	0.93062985
255	0x3f12f9c8	0.57412386

bn1.running_var f4 [512]
0	0x3f436ea0	0.76340675
1	0x3f324195	0.6963132
2	0x3f0b01bd	0.5429953
3	0x405d6ba3	3.4596946
4	0x3f53e3e0	0.82769585
5	0x3e7da183	0.24768643
6	0x3fa02588	1.2511454
7	0x3f6942a9	0.9111734
8	0x3efc2044	0.49243367
9	0x3fcfc9ab	1.6233419
10	0x3eae0c75	0.3399388
11	0x3f7f1249	0.99637276
12	0x3f89f1f7	1.0776967
13	0x3f262ef8	0.6491542
14	0x3fc95a39	1.5730659
15	0x3f1515e6	0.5823654
16	0x3f2a441e	0.6651019
17	0x3f8a3572	1.079756
18	0x3fd82df8	1.6889029
19	0x3fb100a9	1.3828326
20	0x3f0cf5c2	0.55062497
21	0x3f9617e0	1.1726036
22	0x3f290cbe	0.6603507
23	0x3f9d82ef	1.2305583
24	0x3fb48923	1.4104351
25	0x3ed180d3	0.40918598
26	0x3f25b0f9	0.64723164
27	0x3fbc64b2	1.471823
28	0x3f78a5fa	0.9712826
29	0x3e208cbf	0.1567869
30	0x3f02e378	0.5112834
31	0x3f6f61b9	0.9350849
32	0x3fc3f4b3	1.5309051
33	0x3f5ff067	0.874762
34	0x3e653f4d	0.22387429
35	0x3fbe831b	1.488376
36	0x3f289f1d	0.6586779
37	0x3ec5b5d3	0.38615283
38	0x40053f6d	2.0819962
39	0x3f01579d	0.5052431
40	0x3eaae9af	0.3338141
41	0x3e545ae3	0.20737796
42	0x3f271462	0.65265477
43	0x3ea8ec0d	0.32992592
44	0x3f631587	0.88704723
45	0x3f04e998	0.51918936
46	0x40069cfb	2.1033313
47	0x3f4e3f8c	0.80565715
48	0x3e4d1bb1	0.20030095
49	0x3fab7b2b	1.3396963
50	0x3f93fa75	1.1560808
51	0x3e622e29	0.22087921
52	0x3f48f31e	0.7849597
53	0x3f7d9713	0.99058646
54	0x3e7fa63d	0.24965759
55	0x3eebd202	0.4605866
56	0x3e2a1209	0.16608442
57	0x3f3470aa	0.7048441
58	0x3efddda0	0.4958315
59	0x3ef4521b	0.47718892
60	0x3f7e09c6	0.99233663
61	0x3f9805c0	1.1876755
62	0x3e0052a3	0.12531523
63	0x3f19f27f	0.60135645
64	0x3f724b3e	0.9464606
65	0x3ed5c0f3	0.4174877
66	0x3f43adde	0.76437175
67	0x3f3bee4f	0.73410505
68	0x3ecb5e73	0.39720497
69	0x3e6247c5	0.2209769
70	0x3edc7baf	0.43063113
71	0x3ecb2d87	0.39683172
72	0x3f449d79	0.76802784
73	0x3f21d3d1	0.6321383
74	0x3ff90668	1.945508
75	0x3f86a159	1.0517989
76	0x3e3aa904	0.18228537
77	0x3f5437cf	0.8289766
78	0x3f424ca0	0.7589817
79	0x3f3648bf	0.7120475
80	0x3f0bb81d	0.5457781
81	0x3e67c1dd	0.22632547
82	0x3f3458b0	0.70447826
83	0x3f8df4d7	1.1090344
84	0x3f1501f4	0.58206105
85	0x3f788378	0.97075605
86	0x3fc72266	1.5557373
87	0x3ec96c6e	0.39340538
88	0x3e4c82bd	0.19971748
89	0x3f6530b9	0.8952747
90	0x3ec0654c	0.37577283
91	0x3f657a5a	0.8963982
92	0x3e4a1725	0.19735391
93	0x3fa1ae7b	1.2631372
94	0x3efca238	0.49342513
95	0x3ff0cb7a	1.8812096
96	0x3fb7dd0f	1.4364337
97	0x3f83f6ea	1.0309727
98	0x3f81a26e	1.0127695
99	0x3d531e6a	0.051542677
100	0x3f633718	0.8875594
101	0x3facd31d	1.3501927
102	0x3f1aa510	0.60408115
103	0x4007423e	2.113418
104	0x3eca64bc	0.3952998
105	0x3eb39954	0.35077918
106	0x40248f57	2.5712488
107	0x3f9d851a	1.2306244
108	0x3fa78340	1.3086929
109	0x3db60972	0.0888852
110	0x3f4fb222	0.81131184
111	0x3e83967e	0.25700754
112	0x3f1619fe	0.5863341
113	0x3f5717eb	0.8402087
114	0x3ebb838d	0.36623803
115	0x3ee56585	0.44804016
116	0x3e19c182	0.15015224
117	0x402f24cc	2.736621
118	0x3fe7ad87	1.8099831
119	0x3dafdb24	0.0858672
120	0x3e6f41d5	0.23364957
121	0x3fa61c38	1.2977362
122	0x3fb655da	1.424495
123	0x3f142d78	0.5788188
124	0x3f5f5b66	0.8724884
125	0x4004a726	2.072702
126	0x3f12687d	0.57190686
127	0x3f9da48e	1.2315843
128	0x3f8f7b4e	1.1209505
129	0x3f5ea9ec	0.8697803
130	0x3f973238	1.18122
131	0x40006b74	2.0065584
132	0x3fe52494	1.7901788
133	0x3f66f336	0.9021486
134	0x3f8d84b1	1.1056119
135	0x3ef681f0	0.4814601
136	0x3f375f73	0.7163002
137	0x3f45f71c	0.77330184
138	0x3f09e98e	0.53872
139	0x3fc2c70d	1.5216995
140	0x3f0659c8	0.52480745
141	0x3edf750d	0.4364399
142	0x3eb262b8	0.3484094
143	0x3ec8464b	0.3911613
144	0x3f937d02	1.1522524
145	0x3f026fc0	0.50951767
146	0x3f14730f	0.57988065
147	0x3f7ef84f	0.9959764
148	0x3f6bbd55	0.9208577
149	0x3fad67a5	1.3547255
150	0x3fa204c7	1.2657708
151	0x40136432	2.3029904
152	0x3e2ab130	0.16669154
153	0x3efe94c9	0.4972289
154	0x3f1030d2	0.56324494
155	0x3f69353e	0.91096866
156	0x3f3a5ab6	0.72794664
157	0x3ed45bab	0.41476187
158	0x3f80a1b4	1.0049348
159	0x3f6d8d8d	0.92794114
160	0x3ff26ef0	1.8940105
161	0x3f70c8a7	0.9405617
162	0x3f574316	0.8408674
163	0x3feb55d6	1.838557
164	0x3f52d923	0.82362574
165	0x3ef6f32c	0.482324
166	0x3f4494ec	0.76789737
167	0x3f3f4218	0.74710226
168	0x3ee2a507	0.4426653
169	0x3da7faad	0.082021095
170	0x3fb3563e	1.4010694
171	0x3ecda349	0.4016364
172	0x3f3c308a	0.73511565
173	0x3f7bc780	0.9835129
174	0x3e9222b8	0.28542113
175	0x3ee13c93	0.43991527
176	0x3fcd36a8	1.6032305
177	0x3f241e95	0.64109164
178	0x3ffb0cb7	1.9613255
179	0x3f6711e7	0.9026169
180	0x3f032667	0.5123047
181	0x3f8bc110	1.0918293
182	0x402e23d3	2.7209365
183	0x3fbda312	1.481539
184	0x3fccf929	1.6013538
185	0x3fae6b1c	1.3626437
186	0x3fcacf74	1.584456
187	0x3f2ae133	0.66749877
188	0x3ef009e9	0.4688256
189	0x3fe8021a	1.8125641
190	0x3f5cecd2	0.8629886
191	0x3f1efc75	0.6210397
192	0x3fc8eda4	1.5697522
193	0x3f709d5c	0.9399011
194	0x3fb66460	1.4249382
195	0x3f79c1c4	0.9756129
196	0x3e4c4b8a	0.19950691
197	0x3f247b11	0.64250284
198	0x3f097c82	0.5370561
199	0x3f76cf6f	0.9641027
200	0x3f7e8ecc	0.9943664
201	0x3f7f65f2	0.9976493
202	0x3f9044d4	1.1271005
203	0x3ef9fa62	0.4882384
204	0x3ffcc923	1.9748882
205	0x3fbc365e	1.4704092
206	0x3e9357b3	0.28777847
207	0x3ffc98a2	1.973408
208	0x3fa1396d	1.259565
209	0x3eb24eb5	0.34825674
210	0x3f092f34	0.5358765
211	0x3f9520bb	1.1650614
212	0x3f348848	0.7052045
213	0x3eff95b1	0.49918893
214	0x3f536fd1	0.82592493
215	0x3ef1d264	0.47230828
216	0x3f4b8b4f	0.79509443
217	0x3f939a01	1.1531373
218	0x401a36d7	2.4095972
219	0x3f2cf9ed	0.67568856
220	0x3eaa67c0	0.3328228
221	0x3f71bb73	0.9442665
222	0x3f1daf89	0.6159597
223	0x408cfb1a	4.405652
224	0x402c0b66	2.6881957
225	0x3f88b3eb	1.0679907
226	0x3f926f0a	1.1440136
227	0x3f72b5d1	0.9480868
228	0x3fe8ca58	1.818675
229	0x3f0b2b66	0.54363096
230	0x3f62676a	0.8843905
231	0x3fa85980	1.3152313
232	0x3f0df88b	0.5545737
233	0x3f6bf2c1	0.9216729
234	0x3f0bfedd	0.54685766
235	0x3e3e0ecd	0.18560334
236	0x3eb67767	0.35637972
237	0x3f32bea6	0.69822156
238	0x3facb75c	1.3493457
239	0x3eee084c	0.46490705
240	0x3fe395a3	1.778004
241	0x3f0221ac	0.5083263
242	0x3e48e94f	0.1962025
243	0x4026d47e	2.6067195
244	0x3fb08390	1.379015
245	0x3f8e7294	1.1128716
246	0x3ec24040	0.37939644
247	0x3e7b8201	0.24561311
248	0x3ebd64f4	0.36991084
249	0x3f396e59	0.72434
250	0x406d1d38	3.7049084
251	0x3f0f5290	0.55985355
252	0x3ebca036	0.3684098
253	0x404cbc08	3.1989765
254	0x3e659c47	0.22422896
255	0x3fa50de1	1.289486

fc2.weight f4 [256, 512]
0	0xbce548d8	-0.027988836
1	0x3d4add0e	0.04952722
2	0xbca2efa1	-0.019889655
3	0x3d84d56e	0.06486021
4	0xbc9283a0	-0.01788503
5	0x3dedc13f	0.116091244
6	0x3cbcc0db	0.02304118
7	0x3c575c3d	0.01314455
8	0x3cc30cb0	0.02380976
9	0x3ca8614a	0.020554204
10	0x3e4bc8d0	0.19900823
11	0xbd42d6cd	-0.04756813
12	0x3d9171e8	0.07101804
13	0xbb13126a	-0.0022441396
14	0x3d85faa6	0.06541948
15	0xbdbfe5fc	-0.09370038
16	0x3d8ee13f	0.06976556
17	0x3c1d8eae	0.009616537
18	0x3d1654d8	0.036702007
19	0x3da3ea91	0.08003724
20	0x3d491c7e	0.049099438
21	0xbc1b12d3	-0.009464937
22	0x3db46e0a	0.08810051
23	0xb9e9a56e	-0.00044564478
24	0x3cfc36c1	0.030787827
25	0x3d48ed28	0.049054295
26	0x3d120973	0.035653543
27	0xbcf467b9	-0.029834615
28	0xbd241451	-0.040058438
29	0x3da529c0	0.08064604
30	0x3d26a451	0.040684048
31	0xbc13ef44	-0.009029213
32	0xbca7f66a	-0.020503242
33	0xbd114503	-0.035466205
34	0x3e25d5a3	0.16194777
35	0xbc86a6b7	-0.016436918
36	0x3dd76e88	0.10519129
37	0xbc4d5bcb	-0.012534092
38	0x3dc0bb83	0.09410765
39	0x3d3ce9bb	0.04612134
40	0x3d478f46	0.04872062
41	0xbda2b057	-0.079437904
42	0x3dc8d227	0.098057084
43	0x3e3f343a	0.18672267
44	0x3d99e864	0.07515028
45	0x3dd1aeed	0.102384426
46	0x3e184fce	0.14874193
47	0x3d09b234	0.033617213
48	0x3dc347f5	0.09535209
49	0x3c4f888d	0.012666834
50	0x3ce588c1	0.02801931
51	0x3d93c92d	0.072161056
52	0x3d582a68	0.052774817
53	0xbd65d98a	-0.056115665
54	0xbb77e119	-0.0037823378
55	0xbc8b2688	-0.016986147
56	0xbd01df0a	-0.031706847
57	0xbd3a3ffc	-0.045471177
58	0xbd3972f1	-0.045275632
59	0xbd190a67	-0.037363436
60	0x3db89920	0.09013581
61	0x3e099c5c	0.13438553
62	0x3c5cd0f5	0.013477554
63	0x3d5afc6b	0.05346338
64	0xbd4a0e0a	-0.049329795
65	0x3db7a81b	0.089676104
66	0x3d904b7c	0.070456475
67	0x3d2780fe	0.0408945
68	0x3d2c40a0	0.04205382
69	0x3cc9c81d	0.024631554
70	0x3dcf9915	0.1013662
71	0x3bfc2f13	0.0076960414
72	0x3dba75f3	0.09104528
73	0x3d8343e0	0.064094305
74	0xbd087366	-0.033313178
75	0x3da1442e	0.07874332
76	0x3e1c9658	0.15291727
77	0xbc0abb4a	-0.008467505
78	0x3d5afb84	0.05346252
79	0xbd5c2355	-0.053744633
80	0xbcae9ec2	-0.021315936
81	0x3e234e3e	0.15947816
82	0x3d6da6fa	0.05802057
83	0x3d0ca118	0.03433332
84	0xbd9ad149	-0.07559449
85	0x3c88ef15	0.016715566
86	0xbd00d4e4	-0.03145303
87	0x3a7ab7e1	0.0009564143
88	0x3e0b2d1d	0.13591428
89	0x3d746f7e	0.05967664
90	0xbce7ae8c	-0.028281473
91	0x3cf26715	0.029590169
92	0xbba1814e	-0.0049287444
93	0x3b83b93c	0.0040198844
94	0x3d1bfbbf	0.03808188
95	0x3e02cb73	0.12772922
96	0xbcdd4de3	-0.027014678
97	0xbd7f55f7	-0.06233784
98	0xbb2d43ca	-0.002643811
99	0x3e608630	0.21926188
100	0x3ab89473	0.0014082327
101	0xbc4491e4	-0.011997674
102	0xbc478baf	-0.012179299
103	0x3c274a4e	0.010210587
104	0x3cb4b336	0.02205811
105	0x3cd3cab6	0.025853496
106	0xbd016431	-0.03158969
107	0xbd8a9c35	-0.067680754
108	0xbca7f576	-0.020502787
109	0x3c7b9596	0.015355488
110	0x3ddb6614	0.10712829
111	0x3c7f19f2	0.015570151
112	0x3da541a5	0.08069161
113	0xbb7e0caf	-0.0038764884
114	0x3e039529	0.12849869
115	0x3db95805	0.090499915
116	0x3de02a88	0.10945612
117	0x3c3e3083	0.011608246
118	0x3d01e68d	0.03171401
119	0x3e192b12	0.14957836
120	0x3e0e5f3f	0.13903521
121	0x3d6ee653	0.058325123
122	0x3d6abd12	0.057309218
123	0x3e20c4e9	0.15700115
124	0x3ddd25cb	0.10798224
125	0x3da22b06	0.07918362
126	0x3dcd1227	0.10013228
127	0x3d846126	0.06463842
128	0xbd506e67	-0.050886538
129	0x3dd97990	0.10618889
130	0x3d1525c6	0.036412977
131	0x3d76b754	0.06023343
132	0x3c82fb4f	0.015988974
133	0xbd23b362	-0.039965995
134	0x3e07f542	0.13277152
135	0xbc4a880a	-0.012361536
136	0x3cba39b8	0.0227326
137	0x3d626abd	0.055277575
138	0xbda3d464	-0.07999495
139	0x3dd349a8	0.10316783
140	0xbce60bdb	-0.028081825
141	0xba2ba4c6	-0.00065476855
142	0xbdad24ea	-0.084543064
143	0x3b8fa3bd	0.004383533
144	0x3d23f265	0.040026087
145	0xbd5fd188	-0.054643184
146	0x3d7daa1b	0.061929803
147	0x3d0bd201	0.034135822
148	0xbc3ac670	-0.01139985
149	0xbd275061	-0.04084814
150	0xbd6e2c86	-0.05814793
151	0xbb8871a0	-0.004163936
152	0xbcebcd6a	-0.028784472
153	0x3d0f270e	0.034949355
154	0x3db0ed23	0.0863898
155	0xbd31004d	-0.043213177
156	0x3dc34128	0.09533912
157	0xbd981d41	-0.07427455
158	0x3d4ffed7	0.050780144
159	0xbb9a6a98	-0.004712414
160	0x3dc5810d	0.09643755
161	0x3da88f22	0.082304254
162	0x3d121e14	0.035673216
163	0x3cd16a3b	0.02556335
164	0xbda98ba2	-0.08278586
165	0x3ca9c92e	0.020725813
166	0xbcf1a5ed	-0.029498065
167	0x3d74ef6f	0.059798654
168	0x3da15ae1	0.07878662
169	0xbd8af16b	-0.06784328
170	0x3cf10b52	0.029424343
171	0x3db33a2d	0.087513305
172	0x3d8f8caf	0.07009255
173	0x3db9296e	0.09041105
174	0xbc5f0166	-0.013611173
175	0xbb72cdaa	-0.0037048855
176	0x3dfaf3fc	0.122535676
177	0x3c4000bf	0.011718928
178	0x3ca11d89	0.019667404
179	0x3d4ad19f	0.049516317
180	0xbd1a924b	-0.037737172
181	0x3d9edca0	0.07756925
182	0x3d173ad5	0.03692134
183	0x3d8bc213	0.06824126
184	0x3deaeb0e	0.114706144
185	0x3d2c3ba5	0.04204907
186	0x3cca3e4f	0.024687914
187	0xbd4b49cf	-0.049630936
188	0x3cdb06b8	0.026736602
189	0x3d8285d3	0.06373181
190	0xbd37fa3f	-0.044916388
191	0xbca98638	-0.020693883
192	0x3d5f869e	0.05457174
193	0xbc391289	-0.011295923
194	0xbd47f06a	-0.04881326
195	0x3db42229	0.08795578
196	0x3e41b5d3	0.18917017
197	0x3c03aa5c	0.008036222
198	0xbd66f234	-0.056383327
199	0xbd629803	-0.05532075
200	0x3dbc0d61	0.09182239
201	0xbd5a8368	-0.053347975
202	0x3e026364	0.12733227
203	0x3c122d96	0.008922001
204	0x3ddb5418	0.10709399
205	0x3d9065b0	0.07050645
206	0xbbc0a0d8	-0.005878549
207	0x3d11bce7	0.035580542
208	0xbd9ca909	-0.076494284
209	0xbd60ff86	-0.054931186
210	0xbdda3015	-0.10653702
211	0xbdc72dbd	-0.09725521
212	0xbbcbfa3e	-0.0062248996
213	0xbbffac24	-0.007802503
214	0xbc96c975	-0.01840661
215	0x3cbd976c	0.023143493
216	0x3cd24c60	0.025671184
217	0xbc78fc52	-0.015196877
218	0x3b524cd4	0.003208925
219	0x3d5b1b38	0.053492755
220	0xbdb202b5	-0.086919226
221	0x3d2d482d	0.04230516
222	0xbcd88830	-0.026432127
223	0x3c1c99b2	0.009558128
224	0x3e08f55c	0.13374847
225	0x3cb067b2	0.02153382
226	0x3cb38d0e	0.021917846
227	0x3bbbc5e9	0.00573038
228	0x3e1abf06	0.15111932
229	0x3daf86aa	0.08570607
230	0x3bda22db	0.006656987
231	0x3c206dde	0.009791819
232	0x3dcf6375	0.10126392
233	0x3d964e59	0.073391624
234	0x3d54394e	0.051812463
235	0xbd1c7c34	-0.038204387
236	0x3e07dad2	0.13267067
237	0x3cde8ce3	0.02716679
238	0x3c75a430	0.014992759
239	0x3ba4b9f6	0.005027051
240	0x3d3f1561	0.046651248
241	0x3d8fd40b	0.07022866
242	0x3e1e90c2	0.15484908
243	0x3d9247a7	0.07142573
244	0xbd367099	-0.044540975
245	0xbd8d3cb5	-0.068963446
246	0x3dda4afb	0.10658833
247	0x3c42310c	0.011852514
248	0x3d98383d	0.074326016
249	0x3c953d84	0.01821781
250	0x3d95d144	0.07315305
251	0xbdadcc72	-0.084862605
252	0xbd6b11c7	-0.05739
253	0x3d98ee59	0.07467336
254	0x3db0ef42	0.08639385
255	0x3d477fa2	0.048705705
