actor_model_1.pth (torch_old, 588279 bytes, 10 tensors)

fc1.weight f4 [512, 24]
000000 2e 64 02 3b e1 f1 fb 3c 3b ee 2f 3d 02 f3 a7 bc
       0.0019896138 0.030754985 0.042951804 -0.020501617
000010 b5 59 42 3d e1 98 b7 bd 8c d9 14 3c 52 5f 20 bd
       0.047448833 -0.08964706 0.00908507 -0.039153405
000020 56 23 2d bd 15 e9 1b bd ef a6 c6 ba cd a3 24 bc
       -0.042270027 -0.03806408 -0.0015155951 -0.010048819
000030 a6 3d e5 3c 39 f9 f7 3c f0 97 83 39 ce 68 d4 3c
       0.027983498 0.030270206 0.0002509947 0.025928881
000040 c5 b8 b7 3b 5a 03 1c bd 5a a5 81 3c e0 38 94 bc
       0.005606743 -0.038089134 0.015825916 -0.018093526
000050 50 5d 72 bd 9b 3f 93 3d c6 87 05 bc 66 9d 25 bd
       -0.05917102 0.07189866 -0.008150047 -0.04043331
000060 57 f0 bf 3d 92 1c eb bd 4f 7f 42 ba a9 5e d8 3b
       0.09372013 -0.11480059 -0.0007419483 0.0066030812
000070 e2 4d 92 bd 18 f5 a3 b9 1f 26 1f bb 76 eb 40 3b
       -0.07143761 -0.00031272392 -0.0024284197 0.002943722
000080 29 82 c6 3c 84 84 67 bd 31 bd b9 3c 4b 1b 2e 39
       0.024231987 -0.05652286 0.022673221 0.000166041
000090 5c 11 75 bd fa 1a 85 3d 27 47 78 bc 76 ca 61 bc
       -0.05983101 0.06499286 -0.015153683 -0.013781181
0000a0 0a 70 9e 3d 90 2e 90 bd 99 59 3c 3c 3b 3f 02 3c
       0.077362135 -0.07040131 0.011495971 0.007949646
0000b0 66 37 d7 3c 79 11 cf 3d 5c dc 98 bb 34 74 6a bc
       0.026271533 0.101107545 -0.0046649408 -0.014309932
0000c0 52 22 ca bc 81 54 66 bd 9f 8d 1d 3a db d8 8f bc
       -0.024674568 -0.056232933 0.0006010178 -0.01755946
0000d0 46 da ff 3c 2a 31 10 bd 9b 62 dd 3b 71 69 39 bd
       0.03123201 -0.035203137 0.0067561395 -0.045266572
0000e0 53 0e 97 3a a5 fc 23 bd 17 17 ea bb f7 5f 5a bd
       0.0011524655 -0.040035862 -0.007143866 -0.053314175
0000f0 47 63 8d 3c e2 b9 8c 3c dc c7 4d 3c 97 e1 ab 3c
       0.017259253 0.01717848 0.012559857 0.020981593
000100 ab f4 8b bc 8b 5f a2 bd 4d e2 05 3c 97 78 16 3c
       -0.01708444 -0.079283796 0.00817163 0.009184024
000110 f9 c1 39 bc 96 40 52 3e 93 16 0c bc 8c d6 07 3d
       -0.011337751 0.2053245 -0.008550304 0.033163592
000120 b6 ca 9a 3c f7 60 5e bd 7a ed ac bd 90 a8 9d bc
       0.018895488 -0.05429169 -0.084437326 -0.019245416
000130 e6 18 d4 3b 68 70 81 bb 0b 99 80 bc 6a 5b 88 bb
       0.0064726947 -0.0039501674 -0.015697977 -0.004161288
000140 81 e5 34 3d c1 85 67 bc 48 ca 86 bd 69 74 86 bc
       0.044164184 -0.0141310105 -0.06581551 -0.01641293
000150 ac 66 4a bc 44 8c bc bc 20 68 d3 bc c3 16 92 bc
       -0.01235358 -0.023016103 -0.025806487 -0.01783312
000160 b0 08 a3 3a 67 d6 c9 ba e1 ca 84 bc 08 24 2c 3d
       0.0012438502 -0.001539898 -0.016210021 0.04202655
000170 12 64 24 bd 06 0b 41 3d ff b9 b9 bb b3 69 d4 bc
       -0.040134497 0.047129653 -0.0056679244 -0.025929308
000180 a4 4b b3 3c 8e aa 3c bd 0f d2 02 bd fd 82 b3 3b
       0.021886654 -0.04606109 -0.03193861 0.0054782615
000190 d9 30 6d bc df 43 bd 3b aa 2f 82 3c 43 47 95 3d
       -0.014476978 0.005775913 0.015891869 0.07288983
0001a0 17 e1 8d 3d 59 35 d3 bb 91 e5 12 3c 7f ab 67 3d
       0.06927698 -0.0064455685 0.008965866 0.056560036
0001b0 e2 ef c8 bc cc ba 7c 3d 31 f1 80 bc 39 cb 68 3d
       -0.024528448 0.06170158 -0.015740009 0.056834433
0001c0 98 76 a3 3c 0f bf 1a bd d0 00 af bc 83 47 9b 3c
       0.01995401 -0.037779864 -0.021362692 0.018954998
0001d0 b1 3e 55 bc ed b8 fd 3d 26 49 90 bb 43 e7 ab bb
       -0.013015435 0.123887874 -0.004403251 -0.0052460744
0001e0 70 d9 49 3b 03 f7 4a 3b 0b 6d e8 ba 81 8d 80 bb
       0.003079977 0.0030969984 -0.0017732693 -0.0039231186
0001f0 f0 0d 97 bc c3 17 cf 3d 44 d5 98 3c 46 80 b4 3c
       -0.018439263 0.10111954 0.01865638 0.022033822
000200 8e 6a 47 bc 97 fe 8a bc 82 5d a3 3c 31 e0 4c 3b
       -0.012171401 -0.016967101 0.019942049 0.0031261558
000210 23 12 8f bb 16 06 0a 3e 50 65 07 bc f0 bd 53 bd
       -0.0043661757 0.13478884 -0.008263901 -0.05169481
000220 c2 95 05 bd fd 00 15 3d cc 4d 9a 3c 1d 9a 8b bd
       -0.032613523 0.036377896 0.018835925 -0.06816504
000230 df f5 29 3c 09 56 12 3e 62 23 f6 bb 61 46 51 3c
       0.010373562 0.14290632 -0.007511542 0.012773127
000240 66 72 0e bd cf f5 8a 3d 22 d7 12 3c 31 f4 3e 3d
       -0.034777068 0.067851655 0.0089624245 0.046619598
000250 c1 44 af 3b 53 82 a8 bd 33 de 74 bd 25 03 77 3d
       0.0053487723 -0.08227982 -0.05978222 0.060305733
000260 0b 07 22 3c 48 5b d3 3d 69 47 d2 3c 99 f9 a0 3c
       0.0098893745 0.10320145 0.025668817 0.019650267
000270 dc 86 96 bc a3 bb 7d bd b3 13 f6 bc 5e 5f 40 bc
       -0.018374853 -0.061946522 -0.03003869 -0.011741487
000280 2d 87 14 bd 5f 6d e3 3d 92 f7 14 bd 81 48 10 3c
       -0.036261726 0.11104845 -0.036368914 0.008806349
000290 04 6a 3e 3d 90 25 3e bd c4 51 fa 3c f9 12 3a 3d
       0.046487823 -0.04642254 0.030556567 0.04542825
0002a0 37 9e ff bc fe 3c 85 3c e0 f7 c2 bc db b9 de bc
       -0.031203372 0.016264435 -0.023799837 -0.027188232
0002b0 0f 2d d2 bc 8b bb 72 3d 48 4f b4 3c f6 de 2e bd
       -0.025656251 0.059260886 0.02201046 -0.0426931
0002c0 17 6e 16 3d 79 25 ab 3b e5 fa 5c 3c 3c db 43 3b
       0.036726084 0.005222973 0.013487552 0.0029885313
0002d0 90 01 ae bd 24 3d 59 3d 66 ba dc 3a 32 81 b5 3c
       -0.08496392 0.053036824 0.0016840219 0.022156332
0002e0 26 cf 10 3d 23 b5 d1 3b 70 3e a8 3b e1 9c 99 3a
       0.035353802 0.006399767 0.0051343963 0.0011719727
0002f0 ad 21 a3 bd 13 03 ee 3d 30 81 ab bb 11 4b 54 3d
       -0.079654075 0.1162168 -0.005233906 0.0518294
000300 b8 70 9f 3c 14 69 13 bd 67 71 ab bc ce db b3 bc
       0.019462928 -0.035988882 -0.020928098 -0.021955397
000310 95 81 30 3d a4 96 f3 b8 23 1e bd 3c c8 21 d8 3c
       0.04309233 -0.00011615202 0.02308566 0.026383296
000320 ca 8e 84 3d 7b 5c 93 bd 04 0c 16 3c 35 82 af bc
       0.06472547 -0.071953736 0.009158138 -0.021424392
000330 eb 02 87 bd 3d 56 17 3d d4 e4 2d bc 4d ee d7 3a
       -0.065923534 0.036947478 -0.010613639 0.0016474217
000340 7e 83 79 bc df 33 8a bd f1 58 51 bc 1c c8 08 bc
       -0.015229104 -0.06748175 -0.012777553 -0.008348491
000350 08 38 ad bd 33 f6 bb 3d cb 20 69 3c 9f c5 db bb
       -0.08457953 0.09177818 0.01422901 -0.006706908
000360 08 30 8a bd ae 19 94 3d 02 27 58 bd 90 c8 54 3d
       -0.067474425 0.072314605 -0.052771576 0.051949084
000370 c3 3a d4 b9 c8 1b fb bc 52 a3 67 3c a4 51 60 3d
       -0.00040479572 -0.030652896 0.01413806 0.05476536
000380 71 01 54 bd 08 da 0a 3d 64 8c d2 bc 69 ad 0e 3d
       -0.051759187 0.033899337 -0.02570171 0.034833346
000390 79 ef 39 bd 3f 57 48 3c 25 63 1e bd ab 28 c8 3c
       -0.045394395 0.012227832 -0.03866877 0.024433454
0003a0 b6 fb 29 bc 02 be db 3d f9 68 28 3c 59 0f e7 3b
       -0.010374954 0.107296005 0.010278934 0.00705139
0003b0 bc 68 80 3c 33 e6 8d 3c aa 36 ca bc 7f 69 07 bd
       0.015674941 0.017321682 -0.024684269 -0.033059593
0003c0 4a 9d ab bc f2 4b 0f 3d 39 4b fe 3c 96 01 12 bc
       -0.020949025 0.034984536 0.031041728 -0.008911511
0003d0 af b3 ab bd a9 a3 a3 3d 5a 5e f5 bc 6b 69 e3 3c
       -0.08383881 0.079902 -0.029952217 0.027760228
0003e0 0d 1d 31 bd b8 55 0e 3d 80 59 fb ba 1c a1 8c bc
       -0.043240596 0.034749717 -0.0019176453 -0.017166667
0003f0 ef 0c 23 3d 55 c0 78 3c ca c8 9c 3b b0 ca 3f bc
       0.039807256 0.015182574 0.004784678 -0.011706039

fc1.bias f4 [512]
000000 5d aa 46 3a c5 8e 2e bd 49 05 af 3d bd c0 0f 3e
       0.00075784867 -0.042616624 0.0854593 0.14038368
000010 78 b5 58 3d 24 19 63 3d 79 54 33 3e 0c c7 f8 3c
       0.052907437 0.055443898 0.17512693 0.03036835
000020 6d d7 a8 bd a3 6d 31 3e 8d 31 0f 3e 53 7f bc 3d
       -0.08244214 0.1732698 0.13983746 0.09203973
000030 59 1a 0b be 1b c5 9f bc 63 8a 0c 3e 60 b7 3a 3e
       -0.1358427 -0.019503167 0.13724665 0.18234015
000040 c6 68 35 3e 9f 3b 2d 3d 98 2e 2a 3e de 3a 72 3d
       0.17715749 0.042293187 0.16619337 0.05913817
000050 e3 c6 41 3e 32 bb f9 3d ad fd 78 bc cf 93 e5 bd
       0.18923526 0.12193908 -0.0151972 -0.11209833
000060 7b 1e f2 bd 99 aa 10 be 1a dc 1e be dd 33 e3 3d
       -0.1182222 -0.14127578 -0.1551365 0.110938765
000070 0c 71 a7 bd 99 6e 3c be a9 df 19 be 2c bc a0 ba
       -0.08175859 -0.18401565 -0.15026726 -0.0012263111
000080 a2 41 a2 bc fa 0f d1 bd 5e c2 87 3d 37 35 3c be
       -0.019806687 -0.102081254 0.066288695 -0.18379675
000090 86 39 87 3d 08 b2 19 bc 6e 73 0a 3e 4d 87 b1 3c
       0.066027686 -0.009380825 0.13520595 0.021670962
0000a0 ea ce ff bd fd 65 5f bd 41 f5 f5 bc f4 37 86 3d
       -0.124906376 -0.054540623 -0.030024173 0.06553641
0000b0 0e 13 0c 3e 70 27 13 be 57 55 20 be 7c 46 2b be
       0.13679144 -0.14370513 -0.15657555 -0.16726106
0000c0 58 5e 01 3e 64 c6 8d 3d 17 7a ab 3d a2 e5 e5 3d
       0.12633646 0.06922606 0.08372896 0.112254396
0000d0 c8 a3 5e 3c 02 ab 27 3e bf a4 7a 3d 24 74 04 bd
       0.013588853 0.16373828 0.06119227 -0.032337323
0000e0 03 c5 39 3e 9e a2 25 be 60 06 aa 3c 94 72 13 3e
       0.1814156 -0.16175315 0.020754993 0.14399177
0000f0 83 51 80 3d 14 22 01 be 24 64 4c 3e 1e f3 9e ba
       0.06265547 -0.12610656 0.19960076 -0.0012126898
000100 71 59 c2 bc 35 1e 77 bd d9 fd 25 be 44 10 e6 3b
       -0.02372429 -0.060331542 -0.16210116 0.007020982
000110 70 11 65 bc 13 2e 4e 3d 14 37 ea bd a2 ae 60 3b
       -0.013981208 0.05033691 -0.114362866 0.0034283777
000120 4f 49 4f be b4 cb 25 3e f9 32 0d 3d 4b 8a 76 3d
       -0.20242809 0.16190988 0.03447244 0.06019048
000130 14 51 22 3e 4a 74 67 bd ca 00 96 3d 28 ed 03 3e
       0.15851241 -0.056507386 0.07324369 0.12883437
000140 b5 05 ea bd c7 7c 90 bd 9e 79 94 bd 13 57 b9 bd
       -0.1142687 -0.070550494 -0.07249759 -0.09049811
000150 85 a2 22 3e 3d 3b 19 3e ff ba 25 bc 7f 49 49 be
       0.15882309 0.14964004 -0.010115384 -0.19656943
000160 84 78 89 3d 68 87 10 3c 08 c4 27 be 3a f8 2d bd
       0.0671244 0.008821346 -0.16383374 -0.042473055
000170 7c 50 b8 bd 9e 8c 8f 3d c7 33 e5 3d 1f 1b 6b bc
       -0.08999726 0.070092425 0.11191516 -0.014349728
000180 01 2b 4e be 2d 3a 08 3e 3f 37 45 bd 66 7f f5 3d
       -0.20133592 0.13303442 -0.04814839 0.1198719
000190 fe c3 a1 bb fd 6c 19 3d 50 a3 3d be 40 2f 30 be
       -0.004936694 0.037457455 -0.1851933 -0.17205524
0001a0 f1 35 d8 3c 21 60 a0 bd 55 95 5c 3d 68 68 9c bc
       0.026392909 -0.07830835 0.05385335 -0.019092754
0001b0 df c1 19 be d9 5b d7 bc 9e 41 a3 bd b6 e3 d7 3d
       -0.15015362 -0.026288914 -0.079715 0.10541479
0001c0 b5 28 a7 3d ee c8 32 bd c8 8a 01 3e 0a ac 8b bc
       0.08162061 -0.043648653 0.12650597 -0.017049808
0001d0 4c e0 4d 3e 4e c2 c5 3d 34 2b 97 3d f7 ee a5 3d
       0.20105094 0.09656201 0.07381287 0.081022196
0001e0 86 c9 e1 3d e6 ec 2d be 72 3c 46 3e f0 65 03 3e
       0.11024766 -0.16984901 0.19358996 0.12831855
0001f0 35 fd c8 3c 5c e7 59 3d 3c 55 f3 bc f3 0b 53 3c
       0.024534801 0.053199157 -0.029703729 0.012881267
000200 99 7f 89 bc ef 66 96 bd 74 a5 e3 bb e6 a1 1c 3e
       -0.016784476 -0.07343852 -0.006947214 0.15296134
000210 77 8d 18 be d7 88 2a 3e 59 30 3a be 0d f3 3c 3e
       -0.14897715 0.16653763 -0.18182506 0.18452092
000220 b9 03 c6 bd 9c 7c 16 3d 46 cc e0 3d ca 1b 4c 3e
       -0.09668679 0.03673993 0.10976462 0.19932476
000230 50 04 9a 3d da df fa bd 11 54 98 bd 5d ea 80 3d
       0.07520354 -0.122497275 -0.074379094 0.06294701
000240 3e a0 9b 3d d2 74 31 be 8b 18 f4 3d 1b 3d bf 3d
       0.07598923 -0.1732972 0.11918744 0.09337827
000250 30 7d da 3a bb 81 1d be dd 42 49 be 78 7a 65 bd
       0.0016669389 -0.1538152 -0.19654413 -0.056025
000260 0a 86 3b 3e d4 1a 4a 3e 7c 0c 20 bd e3 61 f4 bc
       0.1831285 0.19736797 -0.039074406 -0.029831832
000270 c7 ff 26 be 3c ad 18 3e 39 6d 20 be c7 48 03 3c
       -0.16308509 0.14909834 -0.15666665 0.008012957
000280 3f 70 4b 3e f2 5b 28 3e 1d da e2 bd d0 b8 ae bc
       0.19867037 0.16441324 -0.11076758 -0.02132836
000290 67 74 bf bd 6b 69 43 3e f8 c5 34 3e 3f 21 ca bd
       -0.09348374 0.19083183 0.17653644 -0.098696224
0002a0 c9 ed 24 3e 42 4a cc 3d 91 cd 4b 3e e7 43 a7 3c
       0.16106333 0.09975101 0.19902636 0.02041812
0002b0 d3 fc 08 3e 1a b5 14 be 2f d2 88 bd 0b d9 f4 bd
       0.13377695 -0.1452221 -0.06680714 -0.1195546
0002c0 92 fe 47 be dc 43 3e 3e 56 4e 22 3e be f9 0d be
       -0.19530705 0.18580574 0.15850195 -0.138648
0002d0 f1 0a 37 3e d1 28 ef bd 25 d9 ec 3d bc 53 1e 3e
       0.17875268 -0.11677707 0.115648545 0.1546163
0002e0 96 d9 03 3e 77 5a 34 3d 13 72 2e 3e 13 d0 f1 3d
       0.12875971 0.044031586 0.17035703 0.11807265
0002f0 eb 02 56 bc 1a 13 24 3e ed a5 24 3e cd ff 27 be
       -0.013062219 0.16022912 0.1607892 -0.16406174
000300 6f f4 7d bd e8 15 bd bb 72 ba 92 bd ce 65 50 bc
       -0.06200069 -0.0057704337 -0.07164468 -0.012719585
000310 c1 4f cf 3d 9b 63 08 be 1e 6a ce bd eb cb 3f 3c
       0.10122634 -0.13319246 -0.10078834 0.011706333
000320 74 67 1c be 7e 9f 2f 3e fa bb b6 bd 28 af 4d 3e
       -0.15273839 0.17150685 -0.089225724 0.20086348
000330 fb 68 a3 bb 76 49 4e 3e 39 a9 14 bd 0f 52 e7 bd
       -0.00498688 0.2014521 -0.036294196 -0.11294948
000340 da 20 dd 3d c0 df 13 3e 98 ea 35 be 63 4a 10 bd
       0.107972816 0.14440823 -0.17765272 -0.03522719
000350 cf 7d 07 3d e2 87 00 be 36 80 49 3e 84 37 a8 3d
       0.033078965 -0.12551835 0.19677815 0.08213714
000360 93 cd 83 bd 55 6f 0e bd f7 9a df 3c d3 69 41 be
       -0.064356945 -0.034774143 0.027295573 -0.18888025
000370 6c 0a 36 3d 38 09 23 3e 71 c9 08 3e 67 0b 1f 3e
       0.044443533 0.15921485 0.13358094 0.15531693
000380 b8 b3 bd bd 01 22 25 3d dd 5a f2 3c e7 3a 02 be
       -0.09262794 0.04031563 0.029584343 -0.12717782
000390 05 27 bc 3d db 17 32 bd c6 4d 4a bd 4c db 34 3e
       0.0918713 -0.04347978 -0.049390577 0.1766178
0003a0 a5 fd 44 3e 67 d8 86 3d 8e 80 3c 3d a7 d5 a3 3d
       0.19237383 0.06584244 0.046021037 0.07999735
0003b0 7c 5f de 3d 27 70 02 3e df 2d f6 3d e0 4f 9f bd
       0.10858056 0.12738095 0.12020468 -0.07778907
0003c0 1f 11 32 3e 3a f4 3f 3d f5 a2 38 3d db 66 d4 3d
       0.17389344 0.046863772 0.045077283 0.103711806
0003d0 29 bf 21 3e 88 98 cb 3d fa 6f 1d 3e 78 f3 9f bd
       0.15795578 0.099412024 0.15374747 -0.0781011
0003e0 91 6d fa 3d fc fe d5 bc df 95 dc 3d f4 d0 88 bd
       0.122279294 -0.026122563 0.10770773 -0.0668048
0003f0 d0 51 c2 bd 0a 9f 37 3e 9a 0d 9b bd 8f fa 22 be
       -0.09488261 0.17931762 -0.07570954 -0.15915893

bn1.weight f4 [512]
000000 9b 71 e2 3e ff aa 4d 3f 7f 22 02 3f cc bc 74 3d
       0.442273 0.80339044 0.50833887 0.059750363
000010 27 7a 23 3f bf fb 08 3f f1 c8 50 3d be 98 c1 3e
       0.63858265 0.53509134 0.050972883 0.37811846
000020 6d a8 69 3e 11 97 3d 3f d0 4f 44 3f ab 0f 59 3f
       0.22818156 0.74058634 0.76684284 0.8478953
000030 0e e7 3d 3f 50 4f 71 3f e6 fb 5f 3f b1 88 1d 3f
       0.74180686 0.94261646 0.8749374 0.615367
000040 19 c9 45 3f 7b 1d 13 3e 97 59 53 3f 25 6a 3c 3f
       0.77259976 0.14366715 0.8255858 0.73599464
000050 5a 8f 85 3f 0e f5 25 3f 7f 04 b0 3e d1 74 83 3e
       1.0434372 0.6482705 0.3437843 0.2567506
000060 5d de 4b 3f c6 dd c0 3e 9c d5 63 3f 07 a4 18 3f
       0.79636174 0.376692 0.8899782 0.59625286
000070 d9 fb 23 3f 46 64 82 3f df 30 01 3f e7 fa e2 3e
       0.64056164 1.0186851 0.50465196 0.44332048
000080 ae 73 74 3f 47 10 27 3f 62 4a ed 3e 27 d4 05 3f
       0.95489013 0.6525921 0.46345812 0.52276844
000090 a1 70 04 3e 8d 1a 84 3f 11 6d 38 3f c9 08 22 3e
       0.1293359 1.0320603 0.7204142 0.15823664
0000a0 4c a4 40 3f 89 1c 20 3f 3c 73 c9 3e d3 d3 c6 3e
       0.752507 0.6254354 0.3934573 0.38833484
0000b0 39 8f 3f 3d 88 30 3c 3f 9a d5 87 3f b0 da da 3e
       0.046767447 0.7351155 1.0612061 0.4274497
0000c0 97 7d 84 3e 4f f4 78 3e f7 18 5b 3f 23 68 04 3f
       0.25877067 0.24311946 0.8558497 0.517214
0000d0 91 5f 83 3f ef 5a 7d 3f 28 eb 90 3e ed 42 29 3f
       1.026354 0.9896688 0.2830441 0.66117746
0000e0 6e 9c 51 3f 41 5a 59 3f 0b d1 53 3f 5a c3 5c 3f
       0.8187932 0.8490334 0.8274085 0.8623558
0000f0 49 66 4a 3f 8c 83 31 3f 0b fe c3 3e 96 2e 1b 3f
       0.79062325 0.6934135 0.38279757 0.6061796
000100 72 50 7d 3f 3d 67 5a 3f 9e e3 d1 3e a8 10 f0 3e
       0.98950875 0.8531378 0.4099397 0.46887708
000110 53 b4 30 3e 95 fa 67 3f 78 da bd 3e 6b 7e 02 3f
       0.17256288 0.9061673 0.3708074 0.5097415
000120 c8 2d a5 3e 14 6d 75 3f 60 0a 76 3e 78 2e 85 3f
       0.3226149 0.95869565 0.24027395 1.0404806
000130 b1 1e 8e 3f 1f c3 3b 3f 76 bb 49 3d 64 50 4d 3f
       1.1103116 0.73344606 0.049251042 0.8020079
000140 6d ec b3 3e b5 46 01 3f 37 85 92 3e 19 fc 61 3f
       0.35141316 0.50498515 0.2861726 0.88275295
000150 25 9a 2f 3f bb cd 33 3f d1 7c 82 3f 4e 4d 38 3e
       0.6859458 0.70235795 1.0194341 0.1799824
000160 4a e2 1b 3f b8 5a 32 3f 6c fe 52 3f bf b4 2e 3f
       0.60892165 0.69669676 0.82419467 0.68244547
000170 18 37 89 3b ce d1 37 3f e0 c0 19 3f 7b fb 60 3f
       0.004187476 0.7180451 0.6005993 0.8788373
000180 3b 22 29 3f ca ef 80 3f 73 02 21 3f 5f 71 0f 3f
       0.66067857 1.0073178 0.6289436 0.56032366
000190 09 17 06 3f 00 9b 67 3f 5a fc 4c 3e d8 0d 4f 3f
       0.523789 0.90470886 0.2001814 0.808805
0001a0 a5 05 0e 3f 41 7d 78 3f 5b ef c8 3d 86 2b 5b 3f
       0.5547736 0.9706612 0.098112784 0.85613286
0001b0 ac b7 93 3e 94 ee 1d 3f e7 dc a4 3e 41 99 85 3f
       0.28851068 0.61692166 0.32199785 1.0437394
0001c0 7c 55 7b 3f 86 97 41 3e bf d7 52 3e 0c ad 8a 3e
       0.98177314 0.18905458 0.20590113 0.2708515
0001d0 58 17 ef 3e fe 3d 97 3d 46 3e 22 3f 5f 57 14 3f
       0.46697497 0.07384871 0.6337627 0.5794582
0001e0 4e 95 1b 3f 81 fb 7f 3e e4 0c 1d 3f 91 df 7e 3f
       0.60774696 0.24998285 0.61347795 0.99559885
0001f0 00 0f 71 3f 49 dc 4d 3f 22 14 42 3f 78 97 90 3e
       0.94163513 0.80414253 0.7581197 0.2824056
000200 0c 22 53 3f 6f 75 48 3f 5a 65 17 3c 99 c7 58 3f
       0.82473826 0.7830419 0.009240473 0.8467956
000210 23 f6 ce 3e da 1e 01 3e ff 91 6a 3e f9 4c 1f 3f
       0.40422162 0.12609425 0.22907256 0.62226826
000220 88 52 12 3f a8 d3 7b 3e 31 52 e6 3e 9a 64 58 3f
       0.5715718 0.24592459 0.44984582 0.84528506
000230 ff b1 da 3e 43 ea 7b 3f 79 a4 35 3f ad d7 15 3f
       0.42713925 0.9840433 0.7095409 0.5853222
000240 3e 5a 41 3f 43 90 79 3f fc 2d 2d 3f 53 2f e4 3e
       0.75528324 0.9748575 0.6764829 0.44567356
000250 d3 40 81 3f 40 26 14 3f 2c 45 10 3f e8 9b 93 3e
       1.0097908 0.57870865 0.5635555 0.28829885
000260 cb e2 96 3e 4b 78 18 3e fd 74 83 3f 45 dd 5f 3d
       0.29469904 0.14889638 1.0270077 0.05465438
000270 85 bc 58 3e 35 ba 7e 3f 4e 8d 82 3f eb 0b dc 3e
       0.21165664 0.9950288 1.0199373 0.42977843
000280 21 03 ca 3e 5a b4 48 3f 5a 82 2c 3d bf 71 55 3f
       0.39455512 0.78400195 0.0421165 0.8337669
000290 15 96 8c 3e 0a ab 46 3f 80 24 45 3e 52 34 44 3f
       0.27458254 0.77604735 0.19252205 0.76642334
0002a0 ce 27 d7 3e e0 38 ed 3e 7d 82 4d 3e 7b 5b 56 3f
       0.42022556 0.46332455 0.20069309 0.8373334
0002b0 89 65 8b 3e 9c fe af 3e 34 e3 c3 3e f0 23 37 3f
       0.27225903 0.3437394 0.3825928 0.7153921
0002c0 2c ee 5c 3f c5 9a 61 3f d3 5b cf 3d bb d1 39 3f
       0.8630092 0.88126785 0.10124936 0.7258565
0002d0 61 d9 f3 3e 9a de b2 3e 67 22 f8 3c 62 84 76 38
       0.47626784 0.34935457 0.030289842 5.877426e-05
0002e0 71 f1 45 3f 5e 9b 7c 3e e2 cc 3e 3f 20 ed ab 3e
       0.77321535 0.24668643 0.74531376 0.3357935
0002f0 f7 a9 73 3f 82 be 54 3e a9 ad 1c 3f d1 e1 16 3e
       0.9518122 0.20775798 0.61202484 0.1473458
000300 e0 ec 3c 3d 73 7f d1 3e e0 97 25 3e ae d5 70 3f
       0.04612434 0.4091755 0.16171217 0.9407605
000310 e1 a7 16 3f fd bc 5e 3d 60 43 70 3f 73 e2 27 3f
       0.5884991 0.054379452 0.93852806 0.6557991
000320 dd ce e8 3e 68 d7 a8 3e 5c 25 06 3f bf 0c 52 3e
       0.45470324 0.32976842 0.52400756 0.20512675
000330 08 20 51 3d b7 da 82 3f d4 2d 64 3f 0d 35 01 3f
       0.051055938 1.0222996 0.8913243 0.50471574
000340 6f 86 82 3f be d0 d8 3e 04 c5 85 3e 84 85 46 3f
       1.0197276 0.42346758 0.26126873 0.7754748
000350 c9 f6 cd 3e e9 39 05 3f bf ad 5c 3f 7e b1 31 3e
       0.40227345 0.5204149 0.86202615 0.17352864
000360 fa 98 2c 3f 4b 9d 5e 3f 4e af 21 3f 90 9d aa 3e
       0.67420924 0.8695876 0.6315812 0.33323336
000370 4f 38 e1 3e 42 ab 75 3f 5f f8 32 3f 8d 6c 72 3f
       0.43988273 0.95964444 0.69910234 0.94696885
000380 0f 0c 66 3f 5c ec 4d 3e ac 99 0e 3f d1 98 30 3f
       0.8986215 0.20109695 0.55703235 0.6898318
000390 d8 19 72 3f a8 e0 2f 3f 8a 3e 78 3f b8 b8 b7 3e
       0.94570684 0.68702173 0.9697043 0.35883117
0003a0 69 cc 00 3f d7 72 58 3f f5 97 45 3f 8b 5a 76 3f
       0.50311905 0.8455023 0.77184993 0.9623191
0003b0 a0 c5 92 3e 42 d5 1d 3f 51 3d e8 3d ab 1c 3c 3f
       0.286664 0.6165353 0.1133982 0.73481244
0003c0 a4 0e 5b 3e 29 ef 16 3f 63 dd 14 3f 87 17 95 3e
       0.21392304 0.5895868 0.5815031 0.29119512
0003d0 d6 f5 bc 3e 6f df 47 3f f1 16 29 3f 1f 28 73 3f
       0.36906308 0.7807531 0.6605063 0.94983095
0003e0 06 36 39 3e 7a f7 00 3f a6 40 cb 3e 68 a4 19 3f
       0.18087015 0.5037762 0.3969776 0.6001649
0003f0 87 e6 40 3f 6c 3d 9a 3e 02 00 80 3f 56 83 52 3f
       0.75351757 0.30124986 1.0000002 0.8223165

bn1.bias f4 [512]
000000 30 8c 84 3c 9e 23 e2 bc 42 e4 62 3c c6 5e 63 3d
       0.016180128 -0.027604874 0.013848366 0.055510305
000010 45 c0 bd bb e5 ae 94 3c ac c5 3e 3d 1a d4 47 39
       -0.0057907426 0.018149802 0.046575233 0.00019057133
000020 fe fa 3e bd 9d 21 1e 3a 08 c7 c5 3b 67 2c 6e 3c
       -0.046626084 0.00060322304 0.0060356893 0.0145369535
000030 9c 8b ac 3c b8 c7 7a 3c 8b be 06 3d ab 56 54 3d
       0.021062665 0.015306406 0.03289656 0.051840466
000040 4a 2e 27 3d f6 77 50 bc 43 f6 b7 3c ea d8 4c 3d
       0.04081563 -0.012723913 0.022456294 0.050011553
000050 ac cd 4a 3c c1 8e 5b bc ac e3 0f 3d b0 f4 85 3d
       0.012378138 -0.013400734 0.035129234 0.06540811
000060 e5 0e c7 3b c3 26 70 3b 54 fb 3b 3d a9 fe 8c 3b
       0.0060747736 0.0036644198 0.045893982 0.004302819
000070 c6 56 23 3d 84 34 53 3d 13 14 1e bd 3a 75 82 bc
       0.039877675 0.051563755 -0.038593363 -0.015925039
000080 3f 05 b9 bd 64 e4 04 bd bc e8 6d 38 94 24 f0 3c
       -0.09034204 -0.032444373 5.6721954e-05 0.029314317
000090 0c 24 80 bb 02 88 92 3c 94 76 53 3c c2 42 e7 3b
       -0.003910547 0.01788712 0.012906689 0.0070575187
0000a0 83 a3 bb 3c 73 f7 21 bd 6e d5 9e bc db 6f 60 3c
       0.022905117 -0.039542627 -0.01938888 0.013698543
0000b0 fe b7 90 3d 84 3f 77 3c 4f fb 34 3d f1 ae f5 bc
       0.07066344 0.015090827 0.04418498 -0.029990645
0000c0 b2 7c 40 3d 5a 00 85 3c 7e e6 28 3d 2a ed 16 3d
       0.04699392 0.01623552 0.04123544 0.03684727
0000d0 5b 23 77 bd 8b 12 1a bc 0e f0 c2 3c 50 4d 6c 3d
       -0.060336452 -0.009403835 0.023796108 0.05769092
0000e0 0c 2f 7a 3d a3 18 04 3d 34 ce d0 3c 23 f7 1d bd
       0.061080024 0.032250058 0.02548895 -0.038565766
0000f0 08 12 87 bc 54 e3 0e 3d de 81 49 3c 4c a6 89 3c
       -0.01648809 0.034884766 0.012299029 0.01680293
000100 a5 92 86 3d c8 ff 02 3d 9b 2d 6b bc 93 38 85 bc
       0.06570939 0.031982213 -0.014354135 -0.016262328
000110 05 f6 b7 bb b4 f9 c0 3c 4b 15 e1 3c 45 7b 00 bd
       -0.0056140446 0.023556568 0.027475974 -0.03136756
000120 7d 5a 5c 3d 43 6c d6 3c 8a 4b 0d 3d 33 13 1d 3d
       0.053797234 0.02617467 0.034495868 0.038348388
000130 30 a1 3c 3d 9e 90 70 bc 54 b3 92 bd b0 71 f3 3c
       0.046052158 -0.014682917 -0.071631104 0.029717296
000140 9e de 1d 3d 37 13 86 3c bf ae f1 3c 6a e1 98 3c
       0.038542382 0.016366584 0.02950227 0.018662173
000150 8a b1 98 bc e6 48 e8 bc d3 34 8d bb 81 f7 0e 3b
       -0.018639345 -0.028355073 -0.0043092757 0.0021815004
000160 1c ae 82 3d ed e4 cf 3c f8 48 bd 3c bf 6a 2a bd
       0.06380865 0.025377715 0.023106083 -0.041605707
000170 45 44 3b bc 95 f0 3e 3c e1 e6 d9 3c a6 4d 11 3d
       -0.011429851 0.011654039 0.02659935 0.035474442
000180 73 0b 08 3b 62 32 38 bc 8b 34 0f 3d 1d f3 bb bb
       0.0020758777 -0.011242481 0.03496222 -0.0057357685
000190 c7 43 33 3c 07 a9 d9 bc b2 55 df 3c 0d 04 ad bc
       0.010941452 -0.026569856 0.027262542 -0.021120096
0001a0 52 c6 07 bd be 32 ca 3c eb 2d 62 3c a8 22 60 bd
       -0.033148117 0.024682399 0.013804893 -0.05472055
0001b0 3e 80 9c bc c9 aa 7e 3c 11 ac 1f 3d 9e 3f 60 bd
       -0.01910412 0.015543648 0.038982455 -0.05474817
0001c0 41 ad 9e 3c 9f 9f 82 3c f3 13 9e 3d 67 8f 10 bd
       0.019369723 0.015945254 0.07718649 -0.03529301
0001d0 ee 20 cb 3b 3f 3e 26 3d f4 eb 2d 3d 02 de a4 3c
       0.006198994 0.040586706 0.04246135 0.020125393
0001e0 d1 1a 17 3c ba f0 4c 3d 0a ac e3 bb 29 49 4d 3d
       0.009222702 0.050034262 -0.006947999 0.0501186
0001f0 b0 9e a6 3d 2d 3f 10 3b 5b 28 44 bd fc be 47 3d
       0.08135736 0.0022010312 -0.04789005 0.04876612
000200 5e 2c 30 bd af 4c 13 3d 9c de ce 3c 46 2d c1 3c
       -0.04301106 0.035961803 0.025252633 0.023581158
000210 d3 ff f5 3c 2a e3 19 3d 91 9f 25 bc ff 3b 28 3d
       0.030029213 0.037570156 -0.010108844 0.04107284
000220 bb db 3e 3c 51 37 4c bc 37 7b 89 bd 88 b5 99 3c
       0.0116490675 -0.01246436 -0.067129545 0.018763319
000230 90 3c d0 3a bc 45 00 3d 8e f9 5a bd 3a 9e 1a 3d
       0.001588719 0.031316504 -0.05346065 0.037748553
000240 97 e2 d6 3c 5f ce 17 3c a6 27 88 3c 93 a6 5d 3c
       0.026231093 0.009265511 0.016620468 0.013528484
000250 fb 59 bb bc f2 8d d7 3b c3 a3 29 bd ac da 03 3d
       -0.022870054 0.0065782005 -0.04141594 0.032190964
000260 6b 83 2f 3d 05 5c 1d 3d a0 25 aa 3c a4 ff 50 bd
       0.04284994 0.038417835 0.020769894 -0.051025048
000270 52 c3 2e 3d 68 73 8c bd 0b 03 54 3c 56 a3 07 3d
       0.04266674 -0.068579495 0.012940179 0.033114754
000280 ef ef 29 3d 5e a3 6a 3d 91 53 96 3c 1f ef 24 3d
       0.041488584 0.057284705 0.018350394 0.040267106
000290 e7 0c 06 3c c9 3c 5b bc ac 27 b2 39 24 84 47 3d
       0.008181787 -0.0133811915 0.00033980364 0.048710003
0002a0 af ba 32 bc 67 9a 92 3c cb 0e 2c bc 25 19 66 3d
       -0.010908767 0.01789589 -0.010501574 0.056176323
0002b0 d3 d8 79 bc 1e e8 39 3d d2 62 26 3d 41 f2 ac bc
       -0.015249449 0.04538738 0.040621586 -0.02111161
0002c0 99 f8 a4 3c a2 8e 4a 3d c5 db 94 3c cd 80 06 3d
       0.020138072 0.04945243 0.0181712 0.032837678
0002d0 f1 c7 a5 3c 03 b5 79 3a 7e d1 a2 bc 2f b9 58 ba
       0.020236941 0.0009525569 -0.019875284 -0.00082673406
0002e0 4f 7a d7 3c c7 22 65 3c 26 35 84 3c 46 69 e2 bc
       0.026303438 0.013985342 0.016138624 -0.027638089
0002f0 b7 56 02 bd 47 6a d8 3c ed 03 dd bb 96 7d 69 3c
       -0.03182098 0.026417864 -0.0067448528 0.014251133
000300 a3 55 4e 3d 7a df 29 3d 90 77 de 3c a7 cf d2 3c
       0.05037464 0.04147289 0.027156621 0.025733782
000310 8a a6 07 3c ce 47 9b bb e2 05 f3 bc 52 e1 3e bc
       0.008279452 -0.0047387844 -0.029665891 -0.0116504
000320 e2 a4 46 3d 03 f4 86 3c 19 1a 56 3d 9c 89 e0 bc
       0.04849709 0.016473776 0.052270982 -0.027409367
000330 21 2f 43 3d 06 d6 02 3d ed 38 55 bd 99 de 76 3c
       0.047652368 0.03194239 -0.05205624 0.01506772
000340 c2 1d cd bb 61 03 e0 bc 51 07 db bc 94 50 68 bd
       -0.006259651 -0.027345361 -0.026736887 -0.05671747
000350 ab 1c 64 bd 85 40 84 3c 86 f1 e8 bb cd 22 c9 3c
       -0.055691402 0.016144047 -0.00710887 0.024552727
000360 08 ae 5a 3d 0b 09 63 bd b7 48 71 3b e8 25 d5 bc
       0.053388625 -0.055428546 0.0036817023 -0.026019052
000370 9a 6b d5 3c 54 9f 6c bc ac 22 30 3d 32 52 47 3c
       0.026052285 -0.014442284 0.043001816 0.012165593
000380 c7 9b 77 3d d1 bd ae bb c1 8c 48 3c 59 74 39 3d
       0.060451295 -0.0053326865 0.01224059 0.045276973
000390 51 09 48 3d 7a 14 71 3d 46 a0 c2 3c cf 88 03 3d
       0.04883701 0.05885742 0.023758065 0.032112893
0003a0 71 42 be 3c 09 99 cc 3c f9 f7 f2 bb 48 62 22 3d
       0.023225041 0.024975317 -0.0074148146 0.03964451
0003b0 bc 14 3d bc 93 83 36 3d a6 d2 1c bd 39 48 43 bd
       -0.011540588 0.044559073 -0.038286828 -0.0476763
0003c0 ca bb 3a 3d b5 01 84 bc a2 c9 3c 3d 58 d9 ad 3d
       0.045589246 -0.016114095 0.04609073 0.08488721
0003d0 29 2f e9 ba 07 b0 3f bc 10 82 26 3d 36 94 1b bc
       -0.0017790544 -0.011699683 0.04065138 -0.009495785
0003e0 10 9d 0e bd d0 7c 2a 3d 96 53 fd 3c 64 d7 63 3d
       -0.034817755 0.041622937 0.030923646 0.055625334
0003f0 81 52 e0 bc de 88 9b 3d 72 ee e2 3d da a0 c8 3a
       -0.02738309 0.07594465 0.11080636 0.0015306727

bn1.running_mean f4 [512]
000000 f4 55 ce 3e 93 61 6e bf d1 1f a1 3f f8 46 bd be
       0.40299952 -0.93117636 1.2587835 -0.36968207
000010 d6 b6 02 be 57 ad e8 3f ed 45 5f be 47 18 02 3f
       -0.12765059 1.8177899 -0.21804018 0.50818294
000020 42 98 83 bd 0f 6c 8c 3f 06 cc 1b 3f bb 40 62 3e
       -0.06425525 1.0970477 0.6085819 0.22095005
000030 23 51 0f 40 ca bf 81 bd 0e 3b 8d 3e ed c0 94 bf
       2.2393272 -0.06335409 0.27584118 -1.1621376
000040 d3 38 63 3f 78 1f 8e 3f 20 14 c1 bd 75 55 7d 3f
       0.8875858 1.1103354 -0.09427667 0.9895852
000050 ad 4f 0a 40 2d 27 b8 3e 8e db a1 3f 81 8a 58 3e
       2.161113 0.3596739 1.2645128 0.21146585
000060 8a 9f 66 3f 80 83 af 3f f0 33 97 bf 3f e5 11 bf
       0.9008719 1.3712006 -1.1812725 -0.56990427
000070 4d 57 de be 8c 48 8e bf 6e f6 0e bf f8 9d 10 bf
       -0.4342598 -1.111589 -0.5584477 -0.5649104
000080 dc 07 8f bf b7 73 2d bd e9 c8 45 bf 40 1a e0 3f
       -1.1174273 -0.042346682 -0.7725969 1.7508011
000090 1f b1 22 3e be 11 17 40 2b 45 09 bf 98 66 68 3f
       0.15887879 2.360458 -0.53621167 0.90781546
0000a0 88 ee b1 3e 61 4d 36 3e 7d 57 87 bf ba b2 22 3f
       0.34752297 0.17802955 -1.0573574 0.63553965
0000b0 4c 51 a4 3f bc 3d 5f 3f ad ed 51 bf fe d9 2e 3f
       1.283731 0.87203574 -0.8200329 0.6830138
0000c0 31 29 d0 3e a3 e1 c0 3e e3 88 0c 3f c6 14 af 3e
       0.40656427 0.37672147 0.5489637 0.34195536
0000d0 f4 b9 7f bf 4c 23 1c 3f 68 33 59 3f 39 4c 42 bf
       -0.99893117 0.6099136 0.84844065 -0.75897557
0000e0 4a 51 8f 3f e8 67 bf bf e3 a3 ac bf 27 78 25 be
       1.1196682 -1.4953585 -1.3487514 -0.16159116
0000f0 28 5a 4c be ec 27 7e be ad 5b b0 3f 9d 1b c9 3f
       -0.19956267 -0.24819916 1.3777977 1.5711552
000100 8c a1 db bf a9 8b a0 3f d3 72 2f 3e a1 a0 ce bd
       -1.7158675 1.2542621 0.17133646 -0.10089231
000110 ae cf 8a 3f 73 0f ab 3f d6 b0 74 bd 15 cf 3b 3f
       1.0844629 1.336409 -0.059738956 0.7336286
000120 50 95 7d bd 44 7c 11 3f 0c 00 29 bf e1 36 47 3e
       -0.061909974 0.5683024 -0.66015697 0.19454528
000130 88 20 06 3f 10 dc b5 bc d6 ec dd 3f 94 d6 cc bf
       0.5239339 -0.02219966 1.7337902 -1.6002984
000140 71 c9 80 3e 76 7a 8e 3e c7 57 8d 3f 9f 8c f6 3f
       0.25153688 0.27827805 1.1042413 1.9261664
000150 fa 32 34 3f fc 72 4e 3f b9 c1 46 3f 1c a0 1a bf
       0.70390284 0.806442 0.7763935 -0.6040056
000160 b2 8e b7 3e 7f 5e 94 3d 09 76 c7 bf 40 dc b1 3e
       0.35851055 0.07244586 -1.5582896 0.3473835
000170 80 0c 03 3f a2 8b 9e bd cd 64 46 3f a2 aa 33 3d
       0.5119095 -0.077414766 0.7749756 0.0438639
000180 71 fb 86 3f f4 de 2d 3f 51 ab 00 40 18 38 bd 3f
       1.0545484 0.67918324 2.0104563 1.4782743
000190 0b 5e 94 3f b6 5f 0c 3c 89 b5 ac be a2 c5 80 bd
       1.15912 0.008567741 -0.3373225 -0.062876955
0001a0 40 9f 46 3e b5 ea e1 bf fc 38 10 bf cf 80 d5 3e
       0.19396687 -1.7649752 -0.5633695 0.41699836
0001b0 68 df 28 c0 c7 86 6d bf d0 28 b7 3e ab 9d dd 3e
       -2.6386356 -0.9278378 0.35773325 0.43284354
0001c0 de 06 ff 3d e9 b5 1f 3f db 24 a0 3f 0b 43 d4 3e
       0.12452482 0.6238695 1.2511247 0.414574
0001d0 a8 bc ca bd b3 52 45 3d 9b 12 8b be d6 7f 43 3f
       -0.098992646 0.04817457 -0.27162632 0.7636694
0001e0 0e e2 cd 3d bd c9 d3 bd 12 74 8c 3f 1e 9d 79 bf
       0.10052882 -0.10341213 1.0972922 -0.97505367
0001f0 fc 26 f6 3e d8 2f f2 be d3 bb d6 be 5e 09 41 3f
       0.48076618 -0.47302127 -0.41940174 0.7540492
000200 50 b5 db 3e 45 ee 9e 3f 73 83 c0 3f d0 1c 21 3f
       0.42911768 1.2416464 1.5040115 0.6293459
000210 35 db 76 bc 4a eb 1e be 72 bc 3e bf ad 16 8f 3f
       -0.0150669115 -0.15519443 -0.74506295 1.1178795
000220 d2 f9 8f 3c 72 01 8e 3f 79 5f 91 be f0 c8 1a 3d
       0.017575178 1.1094191 -0.28393152 0.037789285
000230 11 67 9b bd 48 70 13 be 35 af 1f bf 48 4c 85 bd
       -0.07588018 -0.143983 -0.6237672 -0.0650869
000240 51 c5 e9 3e 26 02 90 3e 05 c4 b0 be 25 91 a0 3f
       0.45658353 0.2812664 -0.3452455 1.2544295
000250 d0 7a f7 be 3e 85 89 3f ea 0c 70 3e b7 3d f8 3f
       -0.48335886 1.0743787 0.23442426 1.9393834
000260 c4 89 b4 3f c5 1b 77 bf a5 be 2e 3e bf e4 87 3f
       1.4104543 -0.9652675 0.17064913 1.0616683
000270 d0 e4 9f 3c 13 08 1e be 6c 45 1c 3f 05 8c 95 3f
       0.019518286 -0.15432768 0.6104343 1.1683356
000280 da c3 21 bb 40 41 55 bf 27 e6 99 3f 17 00 94 3f
       -0.0024683387 -0.8330269 1.2023362 1.1562527
000290 1b 0a f1 3e dc f3 42 3e df 8a 5d 3f 74 3c ec 3e
       0.47078022 0.19038337 0.86540025 0.46139872
0002a0 d6 e3 78 3f 08 48 46 3f fd 26 6b 3f d6 b1 24 3f
       0.9722265 0.7745366 0.91856366 0.64333856
0002b0 b4 9f d4 3f bb 47 39 3d ad 7d 76 bf 0a 3a c9 3f
       1.6611238 0.045234423 -0.96285516 1.5720837
0002c0 7c a8 d5 be fe 23 a7 3f 1c 56 1c be 32 40 4b 3f
       -0.41730106 1.3057859 -0.15267223 0.7939483
0002d0 36 1a 57 bf 66 b0 e0 be e4 af b6 3f 81 5b 58 be
       -0.8402437 -0.4388458 1.4272428 -0.21128656
0002e0 c8 cf 7e 3c b7 2d 85 3b f9 cc 38 bf 98 a8 8b be
       0.015552469 0.0040642875 -0.72187763 -0.27277064
0002f0 7a ae a5 3f 66 d9 6a 3f 4b f3 35 3f f7 c2 5a bf
       1.2943871 0.91737974 0.7107436 -0.8545374
000300 b9 06 45 3f 15 30 b6 3f 79 49 32 bf e9 34 b6 bf
       0.7696338 1.4233423 -0.6964336 -1.4234897
000310 08 6f 4a 3f 35 62 cc 3e aa a3 9b 3f 3e 86 69 3e
       0.7907567 0.39918676 1.2159321 0.22805116
000320 82 28 bb 3f aa cc eb 3e cb 43 f3 bd 79 74 e0 3c
       1.4621737 0.46054584 -0.11878165 0.027399288
000330 c9 8d 72 bf 29 bd 34 3f fb b5 e5 be 9e 5a 59 be
       -0.94747597 0.70601135 -0.44865403 -0.21225974
000340 e1 cd 08 3f 96 42 68 3f 32 98 45 3e 5e 84 25 3f
       0.53439146 0.907266 0.19296339 0.646551
000350 00 50 94 be f2 12 03 be 3c 5d 41 3f 00 d2 93 3d
       -0.28967285 -0.12800196 0.7553289 0.07217789
000360 3c 0e 74 3f 0e f0 a4 3f f7 8f 91 be 17 82 b6 3e
       0.9533422 1.2885759 -0.2843015 0.35646126
000370 5e 08 c0 3f 7a 01 21 3f d9 1a a2 bf 98 35 29 3e
       1.5002553 0.6289288 -1.2664443 0.1652435
000380 9b c2 2f bf 1d 80 f1 3e 95 bb 17 40 87 6b 0b 3f
       -0.6865632 0.47168055 2.370824 0.5446095
000390 9d 84 94 bc 8a ef d2 3f e8 61 02 bf 57 34 92 bf
       -0.018129641 1.6479352 -0.50930643 -1.1422223
0003a0 16 f2 1d 40 d6 e8 75 3d 8d 0d f2 bd 7d 6c 69 3c
       2.4679008 0.060036503 -0.11818991 0.014247057
0003b0 1f 74 41 bf 78 08 79 3f 4d 58 53 3f fa 64 4c be
       -0.7556781 0.9727855 0.8255661 -0.19960395
0003c0 c1 bf 81 bd 40 29 9b 3f 59 69 89 be 4f b3 05 3f
       -0.06335402 1.2121964 -0.26838186 0.5222673
0003d0 eb 7d c0 3e 1d a1 c8 3e 78 2a 74 3f 98 6a ce 3f
       0.37596068 0.3918542 0.953773 1.612628
0003e0 9a 77 ac 3e 33 25 9c 3f 0e d8 b4 bd 87 ee a1 bf
       0.33685 1.2198852 -0.08830272 -1.2650918
0003f0 98 8a 65 be db ae 18 3f 9b ba 33 3f 89 86 2f bf
       -0.2241615 0.5964181 0.7020661 -0.6856466

bn1.running_var f4 [512]
000000 57 c2 0b 3f fc d3 36 3f 79 97 9f 3e 94 b6 7a 40
       0.54593414 0.7141721 0.31170252 3.9173937
000010 4e 80 86 3f d2 73 a9 3e a7 e5 5a 3f 9a 08 b3 3f
       1.0507905 0.33096176 0.8550667 1.3987
000020 8e 2b f7 3e b4 5d 01 40 9e 84 c3 3e fe 48 65 3f
       0.48275417 2.0213442 0.38187116 0.895645
000030 4e 9e 75 3f 4f 97 0e 3f 82 8a 02 3f fa e7 0e 3f
       0.9594468 0.5569963 0.50992596 0.5582272
000040 a9 c4 94 3f 7e 7d 1d 3f ab cc b0 3f 92 fb a6 3f
       1.1622516 0.6151961 1.381246 1.3045523
000050 77 36 e0 3e eb 22 b4 3f 54 ec 30 3f bd 5e fd 3f
       0.43791553 1.4073156 0.6911061 1.9794537
000060 57 18 f2 3f 42 21 07 3f 4d 8d 1d 3f 22 99 96 3f
       1.8913678 0.5278512 0.6154373 1.1765482
000070 1f 43 ad 3f e7 f4 6c 3f 49 26 0d 3f ec 6b 42 3f
       1.3536109 0.9256119 0.55136544 0.75945926
000080 7b 60 de 3e 33 02 6e 3f a9 40 b2 3e bc e7 b4 3f
       0.43432984 0.92972106 0.34814957 1.413322
000090 51 96 29 3f 76 aa 0b 3f 32 68 7b 3f 54 2c 03 3f
       0.6624499 0.5455698 0.98205864 0.51239514
0000a0 b1 9f 16 3f aa ee 84 3e 72 7a 47 3f e1 52 2c 3e
       0.5883742 0.25963336 0.7792121 0.16828491
0000b0 4e d6 80 3f 68 02 77 3f 89 e4 f3 3f ae ed 5a 3f
       1.0065401 0.96488047 1.9054118 0.8551892
0000c0 34 b4 27 3f ee 19 d8 3f 9a 63 4c 3f 90 f3 e9 3e
       0.65509343 1.6882913 0.7983948 0.45693636
0000d0 22 07 11 3f 94 cf 7a 3f da 9d 5a 3e c5 84 7e 3f
       0.5665151 0.9797299 0.21349278 0.9942134
0000e0 94 86 14 3e 46 46 36 3f 06 df de 3e 3d a6 f9 3e
       0.14504462 0.7120098 0.43529528 0.48759642
0000f0 9e c3 74 3f 22 a6 e1 3f f2 e2 84 3e 8b 26 fd 3e
       0.9561099 1.7628825 0.25954396 0.49443468
000100 c1 73 8a 3f da 33 35 3f 15 4a f0 3e d5 72 fd 3e
       1.0816575 0.70782244 0.4693152 0.49501672
000110 6e 04 d1 3e 46 8c 13 3f 92 cb 72 3e 9c 14 18 3f
       0.40823692 0.57635915 0.23710468 0.5940645
000120 21 01 31 3f 74 4d de 3d 9e 66 e6 3f 57 89 22 3f
       0.6914235 0.10854617 1.8000066 0.63490814
000130 bd d3 1c 3e f4 e7 5a 3f b9 d7 24 3f 7e da 13 3f
       0.15315147 0.8551018 0.64391667 0.5775527
000140 86 f5 08 3f 93 5a b4 3d 24 03 3d 3f d5 93 85 3f
       0.5349964 0.08806338 0.7383292 1.043574
000150 0d 23 1c 3f f6 0a 7f 3f a3 60 ba 3f bf f2 e7 3e
       0.60990983 0.996261 1.4560741 0.45302388
000160 99 ef 3d 3f e1 df 57 3f d6 5e dd 3e ac d4 66 3f
       0.7419372 0.8432599 0.43236417 0.9016826
000170 ac 19 88 3f 88 fb 96 3f 62 a5 71 3f fe 07 89 3f
       1.0632834 1.1795511 0.9439298 1.0705564
000180 c7 6b 8b 3f d2 a1 89 3f f8 d6 2c 3f df 16 34 3e
       1.0892266 1.0752509 0.67515516 0.1758685
000190 11 9a 4a 3f f9 2d d1 3f 1a 03 33 3f f2 a8 17 3f
       0.79141337 1.6342155 0.6992661 0.59242165
0001a0 ec 02 fb 3e 14 eb fc 3e 9e ee a7 3f ea dc 7a 3f
       0.49025667 0.493981 1.3119695 0.9799334
0001b0 57 a6 8c 3f 32 cb 61 3f 16 a1 63 3f b4 7e 97 3e
       1.0988263 0.88200676 0.8891767 0.29588854
0001c0 87 8f d9 3e b1 b5 f3 3d 41 e9 5f 3f ab 90 2a 3f
       0.42492315 0.11899889 0.8746529 0.66626996
0001d0 c6 05 07 3e f3 8a b2 3f e4 19 e6 3f 41 15 75 3e
       0.13185796 1.3948654 1.7976651 0.23933889
0001e0 f9 a6 66 3e 2f 97 13 40 81 16 d4 3f f8 c4 4f 3f
       0.22524633 2.3061025 1.6569368 0.81159925
0001f0 db af 11 40 cf a9 5c 40 ea bc 3b 3f 59 08 a4 3e
       2.2763584 3.4478643 0.73335135 0.3203762
000200 db f6 c5 3f a6 7f 1b 3f d7 8b 88 3f a6 88 d6 3f
       1.5465959 0.6074165 1.0667676 1.6760452
000210 23 1a a0 3f b7 a4 77 3f 92 70 b5 3e 22 bd 89 3f
       1.2507976 0.9673571 0.35437447 1.0760844
000220 16 46 55 3f c6 2c bb 3e e9 92 07 3f 5e 2b df 3f
       0.8331007 0.36557597 0.5295854 1.743511
000230 96 1d 12 3f 29 95 17 40 4d 9e 02 3f 4c a4 f4 3e
       0.57076395 2.368479 0.510228 0.477816
000240 09 97 96 3f a7 2a cd 3e 3d 2f 6e 3f 71 54 97 3f
       1.1764842 0.40071604 0.9304083 1.1822644
000250 a4 e3 16 3f 77 43 bb 3f c1 32 73 3f 7f 7e c9 3f
       0.589411 1.4629964 0.9499932 1.5741729
000260 4b bb 42 3e 3c 48 ff 3e af 4e f6 3e d1 3d 4a 3f
       0.19016759 0.49859798 0.48106906 0.79000574
000270 a8 06 21 3f 89 35 00 3f 6b 49 b0 3f 32 aa 2c 3f
       0.6290078 0.5008169 1.3772405 0.674472
000280 91 40 be 3f 1d 21 5f 3f e2 a6 ff 3e ca 07 b8 3f
       1.4863454 0.871599 0.4993201 1.4377377
000290 4c bc 11 3f 80 3f 64 3f 72 b2 25 3f 72 87 41 3f
       0.56927943 0.89159393 0.6472541 0.755973
0002a0 93 c5 69 3f 0c 94 fa 3d 2c f7 69 3f 7d 47 fb 3e
       0.913171 0.12235269 0.9139278 0.4907798
0002b0 fe 88 0f 3f 93 81 8a 3f 8f 2b b5 3e a8 9c ae 3e
       0.5606841 1.0820793 0.35384795 0.34103894
0002c0 2c bb d5 3f 60 7d 7a 3f 1e 08 2d 40 72 c7 6e 3f
       1.6697745 0.9784756 2.7036204 0.9327308
0002d0 73 e6 f6 3e f8 87 0a 3f f9 a6 24 40 8e 19 f4 3e
       0.48222694 0.5411372 2.5726912 0.47675747
0002e0 eb ac c6 3f ec 75 a1 3e c1 b6 3f 3f 0d 91 eb 3e
       1.552152 0.3153528 0.74888235 0.46009102
0002f0 49 39 df 3e 52 a7 dd 3d 2a 31 57 3f 46 8e 4c 3f
       0.43598393 0.108229294 0.84059393 0.7990459
000300 24 84 e2 3f 59 3f 5b 3f 54 b8 99 3f 7a 87 9f 3e
       1.7696576 0.85643536 1.2009377 0.31158048
000310 fd d9 89 3e 72 02 75 3f bd b1 6e 3e d9 33 4b 3f
       0.26924124 0.95706856 0.2330999 0.7937599
000320 e8 81 3b 3f 49 00 94 3f 29 e8 df 3f 47 30 f3 3e
       0.73245096 1.1562587 1.7492725 0.4749777
000330 93 ae 77 40 cd 5d bb 3f 70 6a fd 3e 0f 1c 10 40
       3.8700302 1.4638001 0.49495268 2.2517126
000340 81 c9 a9 3f 4b 99 ac 3e 1b 0b 0f 3f 8b 25 2c 3f
       1.3264619 0.33710703 0.5587632 0.67244786
000350 56 fa 27 3f 78 19 90 3f 98 15 6d 3f 2b 66 a0 3e
       0.6561636 1.1257772 0.92611074 0.31327948
000360 85 89 22 3f cc 49 f6 3e ea 96 ff 3f 98 27 48 3f
       0.6349109 0.48103178 1.996793 0.78185415
000370 0e e9 25 3f ae be 9b 3f 06 6d b9 3e 51 77 76 40
       0.6480874 1.2167566 0.3621599 3.8510325
000380 0b 0d cf 3f 37 2b 72 3f 17 01 5a 3f c6 3d 8f 3f
       1.6175855 0.9459719 0.8515791 1.1190727
000390 16 f4 ef 3f 69 d2 2e 3f 03 17 e0 3f d2 7b a8 3f
       1.8746364 0.6828981 1.7507023 1.3162787
0003a0 2e 92 47 3f fd 96 7e 3f 35 3b 43 3f 26 ec 55 3f
       0.7795743 0.9944914 0.7626222 0.8356346
0003b0 85 8f bd 3e 12 04 2f 3f f4 64 7f 3f d7 0d 04 3f
       0.3702356 0.68365586 0.9976342 0.5158362
0003c0 19 e5 75 3f a5 9a 0a 3f b2 e9 a0 3e b8 10 16 40
       0.960527 0.5414222 0.31428295 2.3447704
0003d0 a0 8b a7 3f 79 95 91 3f 6e d8 3f 3f b1 78 49 3f
       1.3089485 1.137374 0.7493962 0.78699785
0003e0 02 52 95 3e b4 73 96 3f b5 04 49 40 21 ee ef 3e
       0.2916413 1.175406 3.1409123 0.46861365
0003f0 05 82 d2 3e b2 26 47 40 aa c1 9c 3d d7 3c 15 40
       0.41114822 3.1117368 0.07654126 2.3318384

fc2.weight f4 [256, 512]
000000 08 df 95 bd 58 df 0b 3d 96 ab 6c bd 67 d2 89 3d
       -0.073179305 0.034148544 -0.057780825 0.06729584
000010 d0 b4 76 3c c0 f0 e0 3d 82 b9 21 3b 68 e4 d1 bb
       0.0150577575 0.109834194 0.0024677222 -0.006405402
000020 7b 87 8d 3d 3c 05 bc 3c 27 a8 48 3e 17 c5 c5 bd
       0.069106065 0.022951715 0.19595395 -0.096567325
000030 d4 51 84 3d 18 a4 ab 3c 37 23 54 3d ad 21 b4 bd
       0.0646092 0.02095227 0.051791396 -0.08795486
000040 c0 99 54 3d b0 55 08 bd 57 e6 d5 3c de 33 b3 3d
       0.05190444 -0.033284843 0.026110811 0.08750127
000050 87 fa 76 3d 55 bf 86 bc 10 51 8b 3d 9d b2 dd bb
       0.060297515 -0.016448656 0.06802571 -0.006765677
000060 32 8f af 3c 25 1c c0 bb e6 0a 6b 3d 27 8e 05 bd
       0.021430586 -0.00586273 0.05738344 -0.03260627
000070 1f 25 0e 3c 07 7c 3c 3d 0e 79 ec 3c 3e 10 88 3c
       0.008675843 0.04601672 0.028866317 0.016609307
000080 ef bb 27 bb ea 80 80 bd 8e d8 22 3e 1b 4d b7 3c
       -0.0025594195 -0.062745884 0.15902922 0.022375634
000090 9b 14 3e 3d e8 ef 9e bc ac 03 a8 3d d3 21 94 3c
       0.04640637 -0.019401506 0.08203825 0.018082535
0000a0 23 6a 27 3d d2 49 10 bd 0b 0e af 3d 18 e9 6c 3e
       0.040872704 -0.03522665 0.085476 0.23135793
0000b0 4c 51 5b 3d ec 80 9f 3d 30 ff 0e 3e 3b 88 b3 3b
       0.053544328 0.07788262 0.13964534 0.0054788864
0000c0 f5 a3 4f 3d 1a 6e 67 3b 0a 33 ae bb 6d 7f 84 3d
       0.05069347 0.0035313428 -0.005316143 0.06469617
0000d0 a2 ca 2e 3c 59 83 8c bd be 30 6b bc 35 73 be 3b
       0.010668429 -0.0686099 -0.014354883 0.0058120736
0000e0 a2 79 15 3c ce ef bb 3b 09 bb 94 bd 7d a3 6e bd
       0.009123238 0.005735374 -0.072622366 -0.058261383
0000f0 4c fb c9 3c 38 33 e5 3d 2a ed b6 3c 56 45 a1 3c
       0.02465596 0.1119141 0.022329886 0.019686382
000100 62 fb 81 bd ca 55 7b 3d 9d 83 d2 3d 0e 40 e6 bb
       -0.063467756 0.06136111 0.102790095 -0.007026679
000110 80 0b 37 bd e4 ff c5 3c 4d f5 ec 3d 2e c8 2e 3c
       -0.0446887 0.02416987 0.11570225 0.010667844
000120 07 3e cb 3d 64 e8 dd 3d c1 a1 7b bc 32 d6 a9 3d
       0.0992394 0.108353406 -0.015358389 0.08292808
000130 45 b0 25 3e e3 97 6b 3d e8 7a 68 3b 52 f7 89 bd
       0.16180523 0.057517897 0.0035473648 -0.06736626
000140 23 90 a5 bc a2 67 5b 3e e4 dd c0 3c f1 75 35 3d
       -0.020210331 0.21426252 0.023543306 0.04430193
000150 2e 88 77 bd 2e aa 8e 3c 1f 42 20 bd 46 21 86 3d
       -0.060432605 0.017415132 -0.039125558 0.06549315
000160 1f 4a b3 3d 0a 2d 88 3c a9 1c ba bc ef 1d 20 3d
       0.08754372 0.016623039 -0.022718744 0.039091047
000170 00 4e 64 bd 6e 1d d0 3c 06 71 3a 3d 0b 16 fb 3d
       -0.05573845 0.025404658 0.045517944 0.12260064
000180 a3 fc b4 bc 70 5a 95 bd dd d6 33 3d c8 d4 03 3e
       -0.022093123 -0.0729264 0.04390608 0.12874138
000190 aa ad ce 3c 6a 3e f9 3c bd d9 d9 bc 43 a0 26 3d
       0.025229294 0.03042527 -0.026593084 0.04068018
0001a0 f2 05 83 bb cf 20 01 3b 6d c8 1d bd d3 c8 58 bd
       -0.0039985115 0.0019703393 -0.03852122 -0.052925896
0001b0 83 cd 79 bc 61 f2 80 3c 9f 76 c1 3d 40 0f d0 bc
       -0.015246752 0.015740575 0.09446453 -0.025397897
0001c0 30 76 9c 3d 3b 1b 9b bc bb 5c 99 3d ee b2 75 3d
       0.0763973 -0.018933883 0.0748839 0.059985094
0001d0 c4 e0 18 3e 40 47 8a 3b 4a 52 a6 3c 5b e7 fc 3d
       0.14929491 0.0042199194 0.02030291 0.12348815
0001e0 d1 ae 28 3e 0f a4 91 3d 5b 76 f7 3c 9f 81 ba 3d
       0.16472937 0.0711137 0.030207803 0.091067545
0001f0 a9 69 db 3d 9a f9 a5 3d 74 58 80 3d 15 7d af 3d
       0.107135125 0.08104248 0.06266871 0.085687794
000200 60 79 81 bd 5f 36 e5 3d 91 25 63 3d 7f ac 4e 3d
       -0.063219786 0.11192011 0.055455748 0.050457474
000210 8b 4c 9c 3c b9 65 d2 ba 15 cd 2b 3e ce ae b8 bc
       0.019079467 -0.0016052044 0.16777451 -0.02254429
000220 0c 9f 62 bd 06 ab 8e 3c 4a e6 68 bd 54 9c c2 3d
       -0.05532746 0.017415535 -0.056860246 0.095024735
000230 9b 4c 84 bc 7a 14 89 3a 29 a1 ae bd 28 6e eb ba
       -0.01614981 0.0010458373 -0.085268326 -0.0017961906
000240 e3 e0 bc 3c 8c cf 9b bd cd eb d4 3d 09 1a 1d 3d
       0.023056453 -0.07607946 0.10396538 0.038354907
000250 99 3c 53 bd 14 ae 5a 3c d5 ba ef bc e0 ab ea ba
       -0.051571462 0.0133471675 -0.029263893 -0.0017904006
000260 2d 4d c9 bd 29 c4 07 3d cc 94 e0 3d 3b 3f 22 3d
       -0.09829173 0.033146057 0.10965881 0.039611083
000270 0e 78 8a 3d 74 e1 74 bd 90 dc ca 3c c3 be f6 3c
       0.0676118 -0.05978532 0.024763376 0.03012026
000280 c9 b3 a7 3d f7 3a 82 3d f3 70 65 3b 8b 97 27 3d
       0.08188588 0.06358903 0.003500995 0.040916007
000290 aa 81 8c bd 5c 97 9c bb 49 00 e0 3c 46 52 6a 3d
       -0.06860669 -0.0047787856 0.027343886 0.05720737
0002a0 3e c2 7e 3d 58 0c 8f bd 22 e1 83 3d 39 57 a8 3d
       0.062196963 -0.06984776 0.06439425 0.082197614
0002b0 de 58 22 3d eb 9c 4e 3d 2d a2 9d 3c 68 4e b0 bc
       0.03963553 0.050442617 0.01924237 -0.021521762
0002c0 56 d7 db 3d b1 f1 db bb 0b 77 e2 3c 8e b6 4d 3d
       0.107344314 -0.0067121615 0.027644655 0.050222926
0002d0 1d 4a 0b bd dd 0a 9b 3d b3 31 a5 3c e4 0f 91 3c
       -0.034006227 0.075704314 0.0201653 0.017707773
0002e0 66 bb e3 3d ee 55 71 3d 5e 1c bb 3c 62 14 44 bb
       0.11119728 0.05891984 0.022840675 -0.0029919376
0002f0 db 12 1b 3d 0f 4a b4 bd 88 0e c6 bc 26 b1 59 bd
       0.03785978 -0.08803188 -0.02417685 -0.053147458
000300 63 43 38 3d 84 b1 ea bc e7 8c 6b bd a2 d1 9b 3d
       0.04498614 -0.0286491 -0.05750742 0.07608344
000310 e6 de 0b 3e 1d a0 11 bc c0 4d 35 bd e3 d3 11 bd
       0.13659248 -0.008888272 -0.0442636 -0.03560246
000320 47 06 c9 3d 0d 7d ab bd 18 f5 07 3e c2 65 0d 3d
       0.098156504 -0.08373461 0.1327709 0.034520872
000330 fc 77 d9 3d 96 9a 9e 3d c4 45 83 bd 26 49 e0 3c
       0.10618588 0.07744329 -0.06409791 0.02737863
000340 3a bb a3 bd 86 d9 95 bd 96 85 df bd bf 9d 76 bd
       -0.07994695 -0.0731688 -0.10914151 -0.060209032
000350 27 74 7f bb 9e 38 b8 bc ab bd 1e 3b cc 32 60 3d
       -0.0038979144 -0.022487935 0.0024221938 0.054735944
000360 70 4d 71 3b 44 ac a2 3c b3 6d 01 3c 90 4a 3f 3d
       0.0036819838 0.019857533 0.0078996895 0.046701968
000370 ee 2d 0d 3d 48 34 5b 3d b5 de af 3c 57 5f 96 bb
       0.03446763 0.053516656 0.0214685 -0.004589002
000380 30 24 08 3e f3 b5 f1 3c b5 76 57 3d 35 04 a7 bc
       0.13295054 0.029505705 0.052603442 -0.020387748
000390 6b d6 0d 3e ab d0 a6 3d ec d3 ce bc 75 24 34 bc
       0.13851325 0.08145269 -0.025247537 -0.01099502
0003a0 48 2a 33 3d 79 a9 c1 3d a4 61 45 bc 8b 90 24 bd
       0.043741494 0.094561525 -0.012047205 -0.04017691
0003b0 3b 22 06 3e d5 81 c9 3c 1a b5 a8 bb ed ff 8a 3d
       0.13098995 0.024598042 -0.005148542 0.06787095
0003c0 b6 dc 55 bc 70 54 1a bd 2e 8d b5 3d 16 ae 5b 3d
       -0.01305311 -0.037678182 0.088648185 0.05363282
0003d0 05 8a fe bc 84 df 7b bd b4 0b a6 3d 1b 9c 46 3b
       -0.031071672 -0.061492458 0.08107701 0.0030305448
0003e0 14 16 9f 3d 24 cc 00 bc fa 4f 60 3d 7f 69 89 bd
       0.07767883 -0.007861171 0.05476377 -0.06709575
0003f0 f7 d7 2a 3b 4b 00 92 3d 28 81 e9 3c 4c 7e f0 3c
       0.0026068666 0.07128962 0.02850397 0.029357098
