critic_model.pth (torch_old, 589455 bytes, 9 tensors)

fcs1.weight f4 [512, 24]
-0.3384125 -0.36612552 0.07682387 -0.36645472 -0.0741638 0.7538303 0.01889678 -0.3645794
-0.056897823 -0.24172777 0.062124684 0.06590123 -0.020120054 0.98096395 0.09317272 0.0447838
0.11685138 0.1316852 -0.1626747 0.23903763 1.7203104 1.2302783 -0.16073528 0.21223491
-0.21045913 0.17936882 0.0404331 0.48310184 0.51143247 1.1818463 -0.0009109303 0.47907048
-1.600356 -0.17161584 0.02671319 -0.18979101 -0.44746548 1.655365 0.018657576 -0.21148628
-1.9209325 0.1836 0.0653772 1.5144708 -0.47817844 0.5832817 0.063137636 1.5249553
0.15951991 -1.588782 -0.0048875 -0.06717073 0.31461558 3.9294395 -0.017276438 -0.10608306
-0.3615176 -1.1224757 -0.02808459 -0.049927894 -0.104393356 1.6184077 -0.07078284 -0.052782785
-0.3394464 -1.3638535 0.086743 -0.57743573 -0.57718736 -1.2643057 0.039667066 -0.5797346
0.03645524 0.015705394 -0.004545626 0.018118437 0.0074166288 0.024946928 -0.05282576 0.034119565
0.0043947413 0.027595945 -0.0060462905 -0.01957646 0.011987671 0.0039986516 -0.034751825 0.024544867
0.005381247 -0.018068518 -0.035614233 0.031359587 -0.010488723 0.04273799 -0.058331553 -0.01267908
0.24137425 -1.8758866 -0.26183975 -0.050469007 0.6005526 -0.0065228585 -0.19222294 -0.10085354
0.15269285 -1.2440934 0.40260702 0.053317986 0.60463786 0.92586535 0.40000635 0.02696832
1.056755 -0.6569162 0.34947315 0.9073406 1.311401 1.9792073 0.32182887 0.8814188
0.045049593 0.30748823 -0.05028773 -0.44144854 0.017313726 0.02570515 -0.033770554 -0.46881333
0.024412477 -0.927115 -0.73290056 0.13288453 0.6770986 0.018383445 -0.70293057 0.17784365
0.514773 -0.7479157 -0.008044819 1.2062335 1.397729 1.2872863 -0.0024362553 1.174388
0.047443837 -0.1649301 0.015981166 -0.1051773 0.03241866 -0.15702929 -0.02464149 -0.029054267
0.028165273 -0.20561928 0.12342591 -0.11145547 0.01119394 -0.12497104 0.11773709 -0.052512683
-0.04284732 -0.03265429 0.17192754 0.17382497 0.08624149 0.033775542 0.11849686 0.12599136
-0.7320574 -1.328298 0.06300509 -0.106282525 0.023944259 -1.4311168 0.02041962 -0.04099919
-1.4836245 -1.5136008 0.311343 0.07535589 -0.45940566 -0.27811977 0.29113027 0.10736419
-1.4771245 -1.325152 0.3652404 -0.31541067 -1.1851972 0.8996845 0.39274365 -0.3312618
0.6027628 0.037091535 -0.16465527 0.03856578 0.85251963 0.66726154 -0.14890851 0.025982076
0.068767145 -0.05478391 0.40575522 -0.036502123 0.6823923 0.35583863 0.40395075 0.0391142
1.0042752 0.9678162 0.488638 -0.31829655 0.81399727 -1.7057508 0.49663693 -0.36911887
-0.08866951 0.1628587 -0.011601384 0.06638639 0.08491216 0.72013056 -0.031388387 0.089064196
0.21874198 -0.10977614 -0.05879425 -0.0013245469 -0.014926804 1.6009048 0.018864019 -0.07679099
0.713775 -1.719382 0.0037902368 -0.0867508 -0.009753207 -3.8214154 -0.018868053 -0.13527854
0.12450499 0.27092528 -0.05637529 0.08253246 -0.29930547 0.71302754 -0.061697952 0.06442997
-0.18884158 0.6732735 0.05444048 -0.2673179 -0.30114836 1.093893 0.01445688 -0.25365117
00000000: 6744 adbe ce74 bbbe d555 9d3d f49f bbbe
00000010: 31e3 97bd 06fb 403f 6ccd 9a3c 27aa babe
00000020: b10d 69bd 7c87 77be 7476 7e3d 39f7 863d
00000030: d0d2 a4bc 7420 7b3f 57d1 be3d 386f 373d
00000040: c74f ef3d 7cd8 063e 3294 26be 48c6 743e
00000050: 2233 dc3f c279 9d3f ca97 24be 1c54 593e
00000060: 9982 57be 76ac 373e 2e9d 253d 2059 f73e
00000070: 3ded 023f bd46 973f 7fcb 6eba ba48 f53e
00000080: 77d8 ccbf 10bc 2fbe 9fd5 da3c 9358 42be
00000090: 321a e5be 00e3 d33f c6d7 983c dc8f 58be
000000a0: 1ee1 f5bf a301 3c3e 7be4 853d 2eda c13f
000000b0: ced3 f4be f351 153f 4e4e 813d bc31 c33f
000000c0: 3059 233e 355d cbbf 5227 a0bb cf90 89bd
000000d0: 4b15 a13e f07b 7b40 5187 8dbc 1342 d9bd
000000e0: d618 b9be 49ad 8fbf a711 e6bc 3181 4cbd
000000f0: 2fcc d5bd fc27 cf3f 98f6 90bd c332 58bd
00000100: ebcb adbe c092 aebf 50a6 b13d d4d2 13bf
00000110: 8dc2 13bf c5d4 a1bf ef79 223d 7d69 14bf
00000120: 1752 153d 99a8 803c 7af3 94bb 1e6d 943c
00000130: 3107 f33b 805d cc3c d35f 58bd f5c0 0b3d
00000140: c301 903b e410 e23c f61f c6bb d05e a0bc
00000150: f067 443c 1f07 833b ee57 0ebd 5112 c93c
00000160: 2c55 b03b 6e04 94bc 3be0 11bd e972 003d
00000170: e5d8 2bbc 080e 2f3d 11ed 6ebd eabb 4fbc
00000180: d02a 773e 0d1d f0bf dc0f 86be 97b8 4ebd
00000190: d1bd 193f b4bd d5bb 17d6 44be 4d8c cebd
000001a0: 845b 1c3e 743e 9fbf 8222 ce3e f663 5a3d
000001b0: 8cc9 1a3f 8305 6d3f a2cd cc3e abec dc3c
000001c0: bf43 873f a92b 28bf 25ee b23e 7947 683f
000001d0: fddb a73f aa56 fd3f c1c6 a43e aaa4 613f
000001e0: ec85 383d 196f 9d3e 82fa 4dbd 8b05 e2be
000001f0: 84d5 8d3c 9b93 d23c fe52 0abd 4d08 f0be
00000200: adfc c73c 6957 6dbf 5f9f 3bbf e212 083e
00000210: 5556 2d3f e198 963c 42f3 33bf a51c 363e
00000220: 2ac8 033f 6777 3fbf 6bce 03bc dc65 9a3f
00000230: c9e8 b23f ccc5 a43f 95a9 1fbb 5952 963f
00000240: 7854 423d 70e3 28be efea 823c 3267 d7bd
00000250: 6ec9 043d 49cc 20be f3dc c9bc 3703 eebc
00000260: dcba e63c dc8d 52be b9c6 fc3d c442 e4bd
00000270: ca66 373c d1f0 ffbd 2520 f13d 8a17 57bd
00000280: ac80 2fbd 81c0 05bd c60d 303e 2cff 313e
00000290: 619f b03d 3958 0a3d 7bae f23d e103 013e
000002a0: 1d68 3bbf ab05 aabf d008 813d a7aa d9bd
000002b0: c026 c43c d62e b7bf 0c47 a73c c4ee 27bd
000002c0: 68e7 bdbf acbd c1bf 5a68 9f3e 3054 9a3d
000002d0: 3837 ebbe b765 8ebe 070f 953e c2e1 db3d
000002e0: 6a12 bdbf 959e a9bf ca00 bb3e 827d a1be
000002f0: 8bb4 97bf b951 663f b215 c93e 269b a9be
00000300: aa4e 1a3f 4bed 173d 649b 28be 27f7 1d3d
00000310: ba3e 5a3f a7d1 2a3f 797b 18be 5dd8 d43c
00000320: cad5 8c3d 1865 60bd 26bf cf3e 4083 15bd
00000330: 43b1 2e3f 7b30 b63e a2d2 ce3e 3636 203d
00000340: 178c 803f cdc2 773f c32e fa3e c4f7 a2be
00000350: 2062 503f 0b56 dabf 3247 fe3e 26fd bcbe
00000360: 5c98 b5bd 6ec4 263e bb13 3ebc 96f5 873d
00000370: 6de6 ad3d 7a5a 383f 1c91 00bd 4a67 b63d
00000380: e6fd 5f3e 50d2 e0bd 3dd2 70bd 6b9c adba
00000390: 8e8f 74bc 73ea cc3f b788 9a3c 9844 9dbd
000003a0: f5b9 363f b614 dcbf 9f65 783b 67aa b1bd
000003b0: eacb 1fbc 1292 74c0 2d91 9abc 7586 0abe
000003c0: 79fc fe3d b8b6 8a3e c7e9 66bd c706 a93d
000003d0: 913e 99be f988 363f feb6 7cbd dcf3 833d
000003e0: b05f 41be a75b 2c3f fbfc 5e3d e4dd 88be
000003f0: 1e30 9abe b004 8c3f 8ddc 6c3c 91de 81be

fcs1.bias f4 [512]
0.35374445 0.016399244 0.16866104 0.14039218 -0.02928711 0.2649588 0.1751037 0.39811835
-0.07177776 0.5627373 0.15013228 0.2633599 0.34586075 -0.34442097 -0.015789513 0.12344152
1.1504031 -0.2845142 0.9648819 0.38120216 0.8558472 -0.47894394 0.45226064 -0.55962014
-0.9049433 -0.020539667 -0.7993481 0.04430748 -0.060992997 -0.0072700595 0.11322245 0.0960611
-0.089580186 0.01729898 0.29072028 -0.39467773 0.06585792 0.5897389 -0.85920465 0.021355564
0.30447724 0.5632116 0.206382 -0.19791086 0.1367769 0.288983 -0.23216523 -0.03474335
0.06434317 0.06950417 -0.20979406 0.08389547 0.169628 0.2474111 -0.19235249 -0.7145393
0.86545056 -0.18218596 0.0011631709 0.0727767 0.097519934 -0.09624157 -0.22376616 -0.4751624
0.51486534 0.43441507 -0.66433024 -0.14035517 -0.014543738 0.042860888 0.26645407 0.93980044
-0.86778295 0.36956224 0.34737098 0.33626106 -0.1700316 0.10579237 0.073239274 -0.07046256
-0.37628186 -0.026103077 -0.5692956 0.21498257 0.32944903 0.22132477 -0.8003002 -0.37994868
-0.025460664 0.13846163 -0.1286403 0.12946372 -0.08999726 0.1443787 0.060588744 -0.2930402
-0.5758828 0.19384469 0.15909442 0.12589562 0.06243667 0.11775003 -0.9722187 -1.2147396
-0.60311824 -0.16273963 0.053855807 -1.0065465 0.27537256 -0.58794934 -0.049334563 0.5971508
0.3072327 -0.04333084 0.12617344 0.32960126 -0.46919763 0.030752929 -0.3295659 0.08455744
-0.37443572 0.26182714 0.6300538 -0.8217938 0.2662412 0.5272882 -0.18938117 0.481585
0.52995294 -0.12586218 -0.006955857 0.40937173 -1.1963342 -0.38501456 -0.18195894 1.0001818
-0.09561867 -0.15542771 0.9473245 0.39522648 0.05293623 -0.25343636 0.17722829 0.034042817
-0.3234206 -0.73867613 -0.3611484 -0.61388177 -0.27993143 -0.2673723 -0.025589285 -0.5655089
0.75289506 -0.5866191 0.7532007 -0.04178544 -0.16270928 0.052248437 -0.60341 -0.30525044
-0.055922255 -0.72498107 -0.110801816 0.11101494 0.5510828 0.19639897 0.17665914 1.0019608
0.36239403 0.72849053 0.19911896 0.2101941 0.13325608 0.2837379 -0.5600329 -1.1818273
-1.0601668 0.6354292 0.15847164 -1.2492259 0.67761606 -0.4354411 0.11564636 -0.027609762
-0.4905764 1.0371435 0.4718701 0.38869318 0.23737314 0.15815628 0.5964878 -0.28161925
-0.06197977 -0.11242363 -0.07152645 0.5712396 -0.9568809 -0.1332162 -0.6793994 -0.044106793
-0.27783436 -0.15093248 0.03172601 0.49430427 -0.038755096 0.43512586 -0.40636846 -0.022379844
-0.25650212 -0.6317482 -0.18979244 0.29848453 0.033839867 -0.0154579785 0.27897465 0.0824635
-0.6551791 0.24551216 -0.007362843 -0.691303 0.38072902 0.6041566 -0.30140436 0.61573756
-0.07057422 0.04121731 0.23943101 -0.5705409 0.3725683 0.098192915 -0.38393912 0.15598921
0.97336465 -0.40131408 -0.4287581 -0.05672621 -0.23546393 0.65144175 0.120280124 -0.61904746
-0.6777118 -0.48770627 0.06792206 0.2662374 -0.3392138 0.5567042 0.0431095 0.014679292
0.122205965 0.17118807 0.3855688 0.54147977 -0.6817339 0.87768173 0.43118426 -0.42975384
00000000: fe1d b53e b557 863c 7bb5 2c3e f8c2 0f3e
00000010: 85eb efbc aea8 873e 624e 333e 2bd6 cb3e
00000020: 3800 93bd 8d0f 103f 47bc 193e 1cd7 863e
00000030: a914 b13e f257 b0be 0259 81bc e8ce fc3d
00000040: 6940 933f d8ab 91be 8002 773f ee2c c33e
00000050: cd18 5b3f 2438 f5be b58e e73e 4443 0fbf
00000060: 5daa 67bf ce42 a8bc 14a2 4cbf c37b 353d
00000070: cbd3 79bd ae39 eebb 2ce1 e73d afbb c43d
00000080: d175 b7bd 97b6 8d3c 4ad9 943e 3313 cabe
00000090: 84e0 863d 21f9 163f d6f4 5bbf ddf1 ae3c
000000a0: 71e4 9b3e a32e 103f ce55 533e 25a9 4abe
000000b0: 3e0f 0c3e 94f5 933e b9bc 6dbe 0b4f 0ebd
000000c0: 5ac6 833d 3458 8e3d 41d4 56be 63d1 ab3d
000000d0: f6b2 2d3e 5659 7d3e 0df8 44be 0cec 36bf
000000e0: 2b8e 5d3f f58e 3abe 8a75 983a f30b 953d
000000f0: 88b8 c73d 4d1a c5bd f522 65be 7c48 f3be
00000100: 37ce 033f a76b de3e 8c11 2abf 44b9 0fbe
00000110: dc48 6ebc e68e 2f3d ab6c 883e c396 703f
00000120: 0627 5ebf 4337 bd3e 9cda b13e 692a ac3e
00000130: c41c 2ebe aca9 d83d 79fe 953d ad4e 90bd
00000140: 04a8 c0be 1fd6 d5bc 5bbd 11bf 6424 5c3e
00000150: 8bad a83e f6a2 623e 79e0 4cbf a288 c2be
00000160: e292 d0bc e3c8 0d3e 48ba 03be 2392 043e
00000170: 7c50 b8bd 03d8 133e e72b 783d 5d09 96be
00000180: 0e6d 13bf 397f 463e a6e9 223e c8ea 003e
00000190: 98bd 7f3d ed26 f13d 53e3 78bf 967c 9bbf
000001a0: f565 1abf 38a5 26be e897 5c3d 84d6 80bf
000001b0: a2fd 8c3e d983 16bf 0a13 4abd e0de 183f
000001c0: 9b4d 9d3e ae7b 31bd 9c33 013e 7fc1 a83e
000001d0: ac3a f0be 91ed fb3c ddbc a8be 732c ad3d
000001e0: 0ab6 bfbe 350e 863e 354b 213f 1461 52bf
000001f0: c450 883e 5cfc 063f 23ed 41be 4f92 f63e
00000200: ffaa 073f 04e2 00be f5ed e3bb 2c99 d13e
00000210: 7b21 99bf a120 c5be 7253 3abe f505 803f
00000220: b9d3 c3bd 7128 1fbe dc83 723f 205b ca3e
00000230: a9d3 583d 69c2 81be 557b 353e 7b70 0b3d
00000240: 6397 a5be e119 3dbf 71e8 b8be 5b27 1dbf
00000250: 2c53 8fbe 06e5 88be 9fa0 d1bc 31c5 10bf
00000260: bbbd 403f ab2c 16bf c3d1 403f 3627 2bbd
00000270: 439d 26be 7502 563d 1479 1abf c949 9cbe
00000280: bc0e 65bd 5c98 39bf 10ec e2bd cd5b e33d
00000290: c313 0d3f d01c 493e 22e6 343e 4040 803f
000002a0: b68b b93e 5b7e 3a3f d7e5 4b3e 1f3d 573e
000002b0: 4874 083e 1846 913e 515e 0fbf 1e46 97bf
000002c0: 8cb3 87bf 7dab 223f 6446 223e a2e6 9fbf
000002d0: 3f78 2d3f 23f2 debe 00d8 ec3d de2d e2bc
000002e0: d42c fbbe 1ec1 843f f598 f13e cb02 c73e
000002f0: f211 733e b8f3 213e 6db3 183f 6630 90be
00000300: 80de 7dbd 5c3e e6bd 767c 92bd c23c 123f
00000310: 26f6 74bf d469 08be 1eed 2dbf 53a9 34bd
00000320: 4e40 8ebe 0b8e 1abe 22f3 013d 7315 fd3e
00000330: aabd 1ebd d1c8 de3e 870f d0be ef55 b7bc
00000340: 3f54 83be 40ba 21bf f358 42be f7d2 983e
00000350: ac9b 0a3d 7643 7dbc c4d5 8e3e a0e2 a83d
00000360: d1b9 27bf 8a67 7b3e 0144 f1bb 3cf9 30bf
00000370: eaee c23e 02aa 1a3f ac51 9abe faa0 1d3f
00000380: 3789 90bd 7bd3 283d 672d 753e f80e 12bf
00000390: 46c1 be3e 5e19 c93d ab93 c4be a3bb 1f3e
000003a0: 6d2e 793f 0a79 cdbe 2f86 dbbe be59 68bd
000003b0: 751d 71be e3c4 263f 6d55 f63d e579 1ebf
000003c0: 857e 2dbf a3b4 f9be b91a 8b3d 4550 883e
000003d0: 6ead adbe 2b84 0e3f 9693 303d 6a81 703c
000003e0: 1f47 fa3d ed4b 2f3e 4669 c53e 6b9e 0a3f
000003f0: 1d86 2ebf c0af 603f 2fc4 dc3e b208 dcbe

bn1.weight f4 [512]
1.2434093 2.235162 3.9312785 0.0065425104 2.9713027 2.1537576 0.027799929 1.6097356
2.4119983 2.338189 2.5843318 2.0262198 1.2872828 2.2850351 4.1727185 0.15617839
1.1908346 1.6794524 1.324153 2.2463677 2.7627668 2.0269253 1.7789919 1.610746
4.559232 1.9784341 3.4334633 3.5951445 1.6537832 2.5362935 1.9242003 2.161496
3.0935118 2.8489172 2.0352914 1.8335078 -0.016178807 1.5047381 1.3025438 -0.009194743
4.138419 1.712184 1.979129 1.2490947 -0.0049346755 6.1464453 5.312293 5.273271
1.4519528 -0.002004892 2.1226783 1.9686428 2.7869744 6.224727 0.003302302 1.414776
1.8688504 1.815972 3.6431127 2.2544901 1.3947203 3.2870893 2.8235018 2.0256565
3.616011 1.1476058 1.4465575 1.4469208 0.05213768 1.4691029 6.383978 8.146659
3.2750444 2.1602206 1.8729904 2.6065786 2.3413134 1.7382302 -0.016926985 1.8004593
4.5163827 2.869666 1.0855556 2.074102 2.175218 1.2515328 2.8043118 3.0254447
1.1542877 1.8605939 4.5798593 2.7584655 0.0043762554 2.3699157 1.7933614 2.794738
3.1619065 1.4807326 6.6800475 1.6856453 1.429721 1.1987491 1.1543547 2.434932
1.2207388 0.35311604 0.015711911 3.650176 2.3694263 2.7515006 2.3414133 3.368712
1.4675976 -0.0073787654 0.0069519887 2.8580823 1.2937633 1.0629886 3.416401 1.6968457
1.1985291 2.2126136 1.9820416 1.6352417 1.6735727 4.7108154 7.6559663 6.0592723
4.53228 1.5125475 -0.020251092 2.6487238 1.7205527 1.6313218 0.010288012 1.7559026
0.09196597 1.4238855 1.6768929 5.206717 0.98100907 1.9828534 1.779564 1.8809705
1.3192962 3.1962247 2.8065639 1.4957321 1.4873351 3.0447674 5.3276153 0.91427284
3.879925 3.222264 3.047441 0.026098212 0.0048792744 4.7364974 9.085938 6.336453
5.5511084 2.6264796 0.01923525 1.3864174 2.9382484 2.6264634 0.03621082 0.3897143
1.0498228 1.3120308 0.057325795 1.5270025 0.047096908 1.3119748 1.0010571 1.5706698
1.3672346 3.0280912 -0.012999012 0.14237528 5.8993907 2.210225 0.011129271 -1.1109438
3.1595776 2.1948054 2.0350308 5.9016733 2.3059952 -0.0077230255 2.1420624 1.4248575
0.0019957295 2.1460364 0.018090053 6.4736958 1.8709326 0.01336071 2.1780574 1.3319247
1.1149039 1.5953983 1.1246434 1.4020365 3.437082 4.7510667 1.2865589 1.9716604
5.79019 1.9997302 2.1840096 3.7293203 0.035317004 1.542126 1.507302 0.0028948754
1.9947357 6.4801497 2.5948186 2.2742035 1.9305325 5.1173973 1.1737598 2.435017
3.3854213 0.05162439 1.3875097 6.3579607 1.3270358 1.4592094 1.5143478 1.9057225
3.2533333 1.197924 1.1173007 2.0406559 2.2765799 1.4137499 -0.005223033 4.722214
3.4109848 1.9977411 2.4974399 0.35460794 0.8368378 1.8070484 3.7788844 3.4042978
-0.006720153 2.3262138 5.241415 2.1733167 1.3662769 1.1506808 4.845419 1.5625463
00000000: 0928 9f3f e50c 0f40 119a 7b40 8e62 d63b
00000010: d329 3e40 2ad7 0940 adbc e33c d10b ce3f
00000020: 2e5e 1a40 e3a4 1540 b165 2540 96ad 0140
00000030: afc5 a43f 043e 1240 e986 8540 3aed 1f3e
00000040: 456d 983f 4cf8 d63f d87d a93f 7dc4 0f40
00000050: 2cd1 3040 25b9 0140 02b6 e33f ed2c ce3f
00000060: 3be5 9140 543d fd3f ddbd 5b40 d916 6640
00000070: 2baf d33f a252 2240 324c f63f f355 0a40
00000080: 19fc 4540 a954 3640 3742 0240 62b0 ea3f
00000090: 6b89 84bc 429b c03f c1b9 a63f 8ca5 16bc
000000a0: ee6d 8440 d828 db3f 1954 fd3f 56e2 9f3f
000000b0: 0fb3 a1bb aeaf c440 4efe a940 a3be a840
000000c0: 97d9 b93f 8264 03bb f6d9 0740 7dfc fb3f
000000d0: ca5d 3240 f730 c740 6f6b 583b 6117 b53f
000000e0: 7d36 ef3f c571 e83f c228 6940 9149 1040
000000f0: 3286 b23f ac5f 5240 41b4 3440 5ba4 0140
00000100: b96c 6740 bfe4 923f cc28 b93f b334 b93f
00000110: 528e 553d 900b bc3f 8c49 cc40 b758 0241
00000120: 549a 5140 0e41 0a40 26be ef3f 2fd2 2640
00000130: 14d8 1540 547e de3f 76aa 8abc 7375 e63f
00000140: 3586 9040 9ca8 3740 7cf3 8a3f 16be 0440
00000150: c636 0b40 3a32 a03f d879 3340 e3a0 4140
00000160: b3bf 933f f127 ee3f 358e 9240 b38a 3040
00000170: b166 8f3b b3ac 1740 de8c e53f fddc 3240
00000180: ad5c 4a40 a588 bd3f f3c2 d540 3ac3 d73f
00000190: 1901 b73f 9c70 993f e5c1 933f edd5 1b40
000001a0: 2b41 9c3f a0cb b43e 44b6 803c 7c9c 6940
000001b0: aea4 1740 9618 3040 b7d9 1540 fa98 5740
000001c0: 3dda bb3f 92c9 f1bb 82cd e33b d2ea 3640
000001d0: 099a a53f 0310 883f 50a6 5a40 3d32 d93f
000001e0: 6769 993f 769b 0d40 8ab3 fd3f 9a4f d13f
000001f0: a137 d63f 00bf 9640 adfd f440 8fe5 c140
00000200: 7008 9140 289b c13f 9ee5 a5bc b184 2940
00000210: 123b dc3f 27cf d03f 0d8f 283c 6bc1 e03f
00000220: a858 bc3d e141 b63f 6da4 d63f 6d9d a640
00000230: 6923 7b3f 24ce fd3f c1c8 e33f a4c3 f03f
00000240: b3de a83f f28e 4c40 be9e 3340 2674 bf3f
00000250: ff60 be3f 78dd 4240 d37b aa40 c90d 6a3f
00000260: b150 7840 9339 4e40 4609 4340 ebcb d53c
00000270: 52e2 9f3b 6391 9740 0160 1141 39c4 ca40
00000280: aea2 b140 3e18 2840 3e93 9d3c 2076 b13f
00000290: 430c 3c40 fa17 2840 cc51 143d a288 c73e
000002a0: 9860 863f a0f0 a73f 74ce 6a3d d174 c33f
000002b0: b0e8 403d caee a73f a422 803f b50b c93f
000002c0: 8b01 af3f 3fcc 4140 cff9 54bc d3ca 113e
000002d0: cfc7 bc40 5474 0d40 8c57 363c 6833 8ebf
000002e0: 8536 4a40 b177 0c40 f23d 0240 82da bc40
000002f0: 6d95 1340 6f11 fdbb 8d17 0940 bb61 b63f
00000300: c9ca 023b a958 0940 9731 943c 8428 cf40
00000310: b87a ef3f e1e6 5a3c 4b65 0b40 827c aa3f
00000320: 2cb5 8e3f 0336 cc3f 51f4 8f3f ef75 b33f
00000330: 27f9 5b40 bd08 9840 f6ad a43f 5e5f fc3f
00000340: 3d49 b940 29f7 ff3f d0c6 0b40 2fad 6e40
00000350: 90a8 103d 6364 c53f 46ef c03f f3b7 3d3b
00000360: 8053 ff3f 635d cf40 8211 2640 8d8c 1140
00000370: b01b f73f b8c1 a340 c33d 963f 52d7 1b40
00000380: beaa 5840 1974 533d eb99 b13f 6a74 cb40
00000390: 4fdc a93f 60c7 ba3f 26d6 c13f b7ee f33f
000003a0: 9d36 5040 9355 993f b603 8f3f 1b9a 0240
000003b0: 7cb3 1140 c2f5 b43f fa25 abbb 611c 9740
000003c0: 934d 5a40 fbb5 ff3f 0ed6 1f40 2c8f b53e
000003d0: 013b 563f 5d4d e73f 3ed9 7140 04e0 5940
000003e0: bb34 dcbb b0e0 1440 acb9 a740 9f17 0b40
000003f0: 29e2 ae3f 8249 933f ac0d 9b40 8401 c83f

bn1.bias f4 [512]
-1.3195453 -0.20141779 0.6903392 -0.031070216 0.20424363 -0.24589953 -0.16097856 -1.2590828
-1.3788794 -2.4060187 -1.4969137 -0.34678382 -1.5192748 1.7337934 -0.07517099 1.6602527
-1.0316563 -1.142744 -1.8088263 -1.2152694 0.84243125 -0.5660205 -0.9164056 -1.6179278
1.1081264 -1.1561165 0.75438356 0.33151707 -0.9570535 -1.0134304 -1.4797705 -1.0858114
-1.1451885 -1.4432122 -2.5255568 -0.7997586 -0.081605405 1.8046367 0.31625175 -0.03220286
-0.7740169 -0.7946652 1.0295212 -0.01786779 -0.05349438 0.29780877 0.18010575 2.0222015
-1.679365 -0.1265435 -1.8092453 -1.2145023 -0.28460392 -0.9787899 2.328937 -2.076386
-1.9977612 0.057812724 0.98606855 -2.5771754 -1.1022314 -1.0732093 1.3617685 -0.77886426
2.5359163 -1.4173301 -0.34181353 -1.9838505 -0.2438631 0.7770198 -0.7558977 1.0623363
2.5334003 -1.0345812 -2.127659 0.1667465 1.463379 1.198279 -0.091319464 -0.5113392
0.8760979 0.14748657 -1.1900368 0.009924882 -0.79384905 -1.567355 -3.6571531 0.30588424
-1.7209066 0.6103848 1.2075592 -0.4545745 -0.01958889 1.4182106 -1.8573856 -1.7047797
-0.8227243 -1.6433346 0.11768626 -1.6308124 -1.4869359 1.2480536 -0.8412303 -1.6683035
-1.3352795 1.9095451 -0.080661945 -0.8654351 -0.27498743 -1.859448 -0.8086803 -0.28523988
-1.3440058 -0.07821156 -0.045876596 -0.26261863 1.4707474 -1.7326872 -0.7148623 1.0134668
-1.2226552 -1.2526666 -0.57790774 0.012059021 -0.90236574 -0.85840726 1.8986137 -0.18311884
0.3896356 -2.146426 -0.07261083 -1.6241719 0.53861487 -1.3364673 -0.101808384 0.9732022
-0.3488421 -1.3953521 -1.7345417 0.837242 -1.2378048 0.4160099 -1.3145801 -0.38458174
-0.7440189 -0.0724233 0.03290042 1.6492234 -1.2680451 -1.1067814 -1.3610173 -0.8646813
-0.83617306 -0.7594307 -1.3708584 -0.15697591 -0.10763519 1.5846621 -0.4946502 -0.62011355
1.360414 -1.397506 -0.08663885 -1.0225064 -0.8017511 -1.7092757 -0.22257927 2.4709837
-1.9916452 -1.409744 -0.22521846 -1.4571602 -0.25573897 -1.0953566 -1.0998147 -1.8660748
-1.5499768 0.6561332 -0.07389372 2.1981628 -1.0404313 -0.09868536 -0.07214461 -1.5367064
0.7987861 2.3135812 -1.0426815 0.56519043 1.3291777 -0.07711803 -1.595681 -1.225472
-0.07500105 -1.831102 -0.06595829 -1.4910703 -1.320554 -0.079539046 -0.21179208 -1.2190813
-0.9051617 0.051272426 -1.8187363 -0.7276261 -1.2720714 0.2239416 -1.783734 -1.7253444
1.2816291 1.2366871 -0.35722655 -0.6512935 -0.23484215 -0.32751653 -1.0644542 -0.013055078
-2.7735205 -0.9468439 0.17952341 -0.95712185 -0.18807274 -0.2699276 -1.3182708 -0.30383292
-0.4839286 -0.27340314 -1.4143287 -3.4889104 -1.4598669 -0.67122966 0.022857264 -1.0134866
-0.85061747 -1.3134459 0.4931838 -0.23535092 -0.49561027 0.36235794 -0.10711232 0.70062363
-0.6499667 3.3863816 -1.0789734 2.0807006 -1.1186309 0.3682962 -2.1190522 -1.9118859
-0.09181679 1.287436 -1.0151869 -1.4632004 -1.0360819 -1.366362 -1.8635708 -0.5191342
00000000: dce6 a8bf 7740 4ebe 12ba 303f f786 febc
00000010: 3e25 513e 16cd 7bbe 90d7 24be a029 a1bf
00000020: 1f7f b0bf 36fc 19c0 de9a bfbf a68d b1be
00000030: 9977 c2bf f1ec dd3f 3ff3 99bd 2983 d43f
00000040: 500d 84bf 6f45 92bf 9f87 e7bf f38d 9bbf
00000050: 93a9 573f b8e6 10bf 8f99 6abf 4218 cfbf
00000060: 16d7 8d3f a0fb 93bf 481f 413f 9bbc a93e
00000070: 7501 75bf 16b8 81bf 1f69 bdbf defb 8abf
00000080: 8995 92bf 2dbb b8bf b9a2 21c0 fbbc 4cbf
00000090: bc20 a7bd 56fe e63f c0eb a13e 25e7 03bd
000000a0: f925 46bf 2e6f 4bbf 5ac7 833f 795f 92bc
000000b0: ec1c 5bbd 647a 983e a46d 383e c06b 0140
000000c0: 6ff5 d6bf 9f94 01be 5a95 e7bf d074 9bbf
000000d0: 9bb7 91be fa91 7abf 4e0d 1540 82e3 04c0
000000e0: a4b6 ffbf 09cd 6c3d fd6e 7c3f 71f0 24c0
000000f0: eb15 8dbf ec5e 89bf 6e4e ae3f a663 47bf
00000100: 744c 2240 136b b5bf 2f02 afbe d0ee fdbf
00000110: 40b7 79be c5ea 463f 8382 41bf a3fa 873f
00000120: 3b23 2240 286d 84bf 912b 08c0 98bf 2a3e
00000130: 0150 bb3f 3561 993f b305 bbbd 20e7 02bf
00000140: f447 603f b806 173e 2053 98bf f99b 223c
00000150: b139 4bbf 179f c8bf cc0e 6ac0 dc9c 9c3e
00000160: ab46 dcbf 2e42 1c3f 4d91 9a3f fdbd e8be
00000170: e178 a0bc ed87 b53f d0be edbf 3936 dabf
00000180: 0f9e 52bf ca58 d2bf 7e05 f13d 76be d0bf
00000190: ea53 bebf 38c0 9f3f de5a 57bf f88a d5bf
000001a0: 70ea aabf f96b f43f 1732 a5bd 288d 5dbf
000001b0: 27cb 8cbe 6402 eebf ac05 4fbf f60a 92be
000001c0: 6208 acbf 622d a0bd 19e9 3bbd f375 86be
000001d0: 7341 bc3f b2c8 ddbf 3701 37bf 48b9 813f
000001e0: f77f 9cbf 6157 a0bf c3f1 13bf 3393 453c
000001f0: 7101 67bf 94c0 5bbf c605 f33f 8183 3bbe
00000200: 517e c73e 0b5f 09c0 fdb4 94bd dde4 cfbf
00000210: aae2 093f 5c11 abbf ea80 d0bd c823 793f
00000220: 6f9b b2be e69a b2bf 7605 debf 7e55 563f
00000230: 6370 9ebf 40ff d43e 2944 a8bf e6e7 c4be
00000240: 0678 3ebf ab52 94bd 97c2 063d c119 d33f
00000250: 4d4f a2bf 03ab 8dbf d135 aebf c15b 5dbf
00000260: 700f 56bf 0d6a 42bf 4a78 afbf 4bbe 20be
00000270: d76f dcbd 35d6 ca3f ca42 fdbe c3bf 1ebf
00000280: 0c22 ae3f 7ae1 b2bf b66f b1bd 7de1 82bf
00000290: 8f3f 4dbf 8cc9 dabf d2eb 63be 9924 1e40
000002a0: 3bee febf 7e72 b4bf ab9f 66be 3a84 babf
000002b0: 38f0 82be a534 8cbf bac6 8cbf 8adb eebf
000002c0: a465 c6bf 58f8 273f 9755 97bd b3ae 0c40
000002d0: da2c 85bf 8d1b cabd 8ec0 93bd ccb2 c4bf
000002e0: 3f7d 4c3f b711 1440 9676 85bf 52b0 103f
000002f0: 7f22 aa3f 0ff0 9dbd 463f ccbf 44dc 9cbf
00000300: 279a 99bd 8d61 eabf 2415 87bd 64db bebf
00000310: ea07 a9bf 5ee5 a2bd 06e0 58be db0a 9cbf
00000320: adb8 67bf 0903 523d 5acc e8bf b445 3abf
00000330: 3cd3 a2bf f250 653e 6551 e4bf 16d8 dcbf
00000340: 6c0c a43f c34b 9e3f 66e6 b6be 2cbb 26bf
00000350: 767a 70be 3fb0 a7be 0940 88bf f7e4 55bc
00000360: 5c81 31c0 5d64 72bf fcd4 373e f005 75bf
00000370: 2496 40be f333 8abe 19bd a8bf fd8f 9bbe
00000380: 7dc5 f7be 7ffb 8bbe b908 b5bf 4f4a 5fc0
00000390: ebdc babf b5d5 2bbf 283f bb3c eeb9 81bf
000003a0: 11c2 59bf ff1e a8bf 9682 fc3e d5ff 70be
000003b0: a1c0 fdbe fb86 b93e b45d dbbd 125c 333f
000003c0: 3864 26bf 7aba 5840 cd1b 8abf 332a 0540
000003d0: 4c2f 8fbf 5291 bc3e 8d9e 07c0 adb8 f4bf
000003e0: 710a bcbd b4ca a43f a5f1 81bf 274a bbbf
000003f0: 559e 84bf f3e4 aebf 7d89 eebf fbe5 04bf

bn1.running_mean f4 [512]
13.756963 41.286606 23.385715 -0.15691444 3.0299406 -0.082127996 -0.30815196 28.778559
-14.367305 -10.745914 9.576234 -0.80270934 -32.160343 18.414047 11.688205 6.681106
13.162867 2.4043508 -24.49291 2.5295112 14.781511 30.687988 -1.8961744 0.095283195
15.992129 13.751492 17.928986 -3.9195943 34.182278 -15.021882 16.550863 26.493656
8.351084 33.152733 0.46832258 31.231892 1.0899189 14.560223 14.688511 0.14201081
17.65734 -4.7024813 -0.060817905 30.35977 1.8614066 3.7442863 23.373903 1.0533603
-5.6013002 -1.452475 -25.613375 -8.8974495 -50.880795 3.4477615 34.081146 -17.985302
-22.672665 8.234597 18.544777 -8.986219 -5.6785207 2.7862735 20.307142 -6.820874
7.5510626 5.2044473 26.771158 16.523895 4.1540155 29.883108 2.6335564 0.8086925
8.689892 12.969196 12.897121 -1.67668 -1.8199234 11.891669 0.07580316 -6.0176234
4.5161877 8.118842 4.149889 -10.857204 26.09977 -2.3688898 -35.234333 21.321789
-16.165173 24.280762 -5.6506166 -7.411791 -0.17643374 9.890568 -25.957977 -10.903495
4.5054836 -14.5867195 1.5373567 -28.22623 -16.12737 6.1024942 11.254267 13.702798
-4.5265994 3.065487 -1.4086974 1.3335533 -20.582958 -15.0893955 18.72763 -6.3888144
-14.588957 3.1253812 -1.0492979 25.641466 4.315693 -4.9480133 2.6423314 -15.616452
-23.664686 7.076553 14.619995 14.921809 24.849941 4.4941497 -1.1604867 1.7404065
4.953269 -27.71332 0.9194393 12.688173 33.813797 -14.135487 -1.7473251 5.510117
-2.5169525 31.514502 -15.9007225 1.017449 3.1927776 -8.702211 -21.089327 -6.829446
33.961956 -21.500708 -1.4781325 -1.5830574 -22.701515 -1.2845273 2.5868118 2.744104
-14.250926 3.359511 -45.68536 -1.8511505 8.049224 9.69911 -0.36613637 1.6465224
-1.6287243 -27.609509 -0.25017887 -3.7966306 17.271864 24.90691 -5.235175 30.122433
-30.006363 23.301815 4.476876 5.465465 0.105773956 16.37455 -9.6293125 -37.91828
-1.4815016 14.876272 2.1741574 9.292428 -6.1685386 48.79718 0.98349637 -9.03856
-3.522712 45.691765 -6.9638495 4.348917 31.852192 0.23116182 -22.566751 -6.371388
-0.8259577 7.9040446 -1.8301045 -0.061281674 -31.619715 -3.6710825 -21.425255 -37.526474
28.562546 -26.205091 -17.375366 6.2839713 6.84782 -2.1121414 -29.195982 18.668869
3.093615 -3.3734088 40.140614 10.180867 -3.613705 9.061218 -3.7147346 0.25928974
-26.13605 -2.1326892 21.830877 -37.72713 -9.629792 3.4329827 14.611839 19.491957
10.7090845 7.2138214 -1.3036991 1.2267164 -0.43760988 12.330098 -8.397014 11.073851
1.4170926 3.178327 12.053269 -13.008695 3.7685833 -25.013689 1.5620569 13.858092
0.21626016 27.962835 18.04346 -22.183844 -38.153095 30.914091 -31.454119 3.8067913
-2.4814095 9.563737 2.6500113 20.130615 4.812634 -4.77657 -0.083679214 21.252794
00000000: 851c 5c41 7c25 2542 f215 bb41 2eae 20be
00000010: 8cea 4140 b932 a8bd 18c6 9dbe 7d3a e641
00000020: 7be0 65c1 44ef 2bc1 4138 1941 5c7e 4dbf
00000030: 31a4 00c2 f84f 9341 e302 3b41 9fcb d540
00000040: 1a9b 5241 e2e0 1940 7bf1 c3c1 83e3 2140
00000050: 1281 6c41 0081 f541 d8b5 f2bf d623 c33d
00000060: c3df 7f41 1c06 5c41 906e 8f41 a2da 7ac0
00000070: a7ba 0842 a159 70c1 2b68 8441 02f3 d341
00000080: 0a9e 0541 669c 0442 fac7 ef3e eada f941
00000090: 7682 8b3f acf6 6841 2404 6b41 486b 113e
000000a0: 3b42 8d41 ba7a 96c0 321c 79bd cfe0 f241
000000b0: 9242 ee3f 63a2 6f40 c1fd ba41 83d4 863f
000000c0: da3d b3c0 b3ea b9bf 31e8 ccc1 f45b 0ec1
000000d0: ef85 4bc2 20a8 5c40 1853 0842 e6e1 8fc1
000000e0: 9e61 b5c1 e9c0 0341 b45b 9441 8ec7 0fc1
000000f0: 71b6 b5c0 4e52 3240 0775 a241 9a44 dac0
00000100: 4ea2 f140 d58a a640 552b d641 f030 8441
00000110: b2ed 8440 9b10 ef41 308c 2840 7906 4f3f
00000120: cc09 0b41 d481 4f41 9c5a 4e41 739d d6bf
00000130: 40f3 e8bf 4744 3e41 b03e 9b3d 5f90 c0c0
00000140: 9c84 9040 c7e6 0141 e4cb 8440 1cb7 2dc1
00000150: 54cc d041 e49b 17c0 f5ef 0cc2 0693 aa41
00000160: 4652 81c1 003f c241 dad1 b4c0 642d edc0
00000170: 0cab 34be c43f 1e41 f0a9 cfc1 b774 2ec1
00000180: ec2c 9040 3463 69c1 1bc8 c43f 52cf e1c1
00000190: db04 81c1 a247 c340 7a11 3441 a93e 5b41
000001a0: e7d9 90c0 f030 4440 3250 b4bf e0b1 aa3f
000001b0: e6a9 a4c1 2a6e 71c1 30d2 9541 2b71 ccc0
000001c0: 5e6c 69c1 3f06 4840 654f 86bf b921 cd41
000001d0: 281a 8a40 2056 9ec0 f51b 2940 fddc 79c1
000001e0: 4751 bdc1 1f73 e240 80eb 6941 bbbf 6e41
000001f0: aecc c641 13d0 8f40 d48a 94bf a4c5 de3f
00000200: 2e81 9e40 e1b4 ddc1 6060 6b3f c202 4b41
00000210: 5441 0742 f42a 62c1 59a8 dfbf e152 b040
00000220: c015 21c0 b31d fc41 5c69 7ec1 c53b 823f
00000230: 7856 4c40 423c 0bc1 f1b6 a8c1 d28a dac0
00000240: 0bd9 0742 7301 acc1 7233 bdbf a0a1 cabf
00000250: b49c b5c1 646b a4bf 538e 2540 669f 2f40
00000260: cb03 64c1 3a02 5740 cfbd 36c2 80f2 ecbf
00000270: 9fc9 0041 8e2f 1b41 3a76 bbbe 3fc1 d23f
00000280: 0a7a d0bf 46e0 dcc1 7217 80be fffb 72c0
00000290: c72c 8a41 5a41 c741 8e86 a7c0 befa f041
000002a0: 080d f0c1 1e6a ba41 9142 8f40 17e5 ae40
000002b0: 04a0 d83d 14ff 8241 aa11 1ac1 52ac 17c2
000002c0: d8a1 bdbf 3605 6e41 6525 0b40 c9ad 1441
000002d0: ab64 c5c0 5030 4342 6bc6 7b3f f19d 10c1
000002e0: 1d74 61c0 5ec4 3642 dbd7 dec0 542a 8b40
000002f0: 4ad1 fe41 afb5 6c3e b588 b4c1 69e2 cbc0
00000300: f771 53bf efed fc40 dd40 eabf 7e02 7bbd
00000310: 2df5 fcc1 04f3 6ac0 ec66 abc1 1c1b 16c2
00000320: 1880 e441 07a4 d1c1 c000 8bc1 4b16 c940
00000330: 5721 db40 532d 07c0 5f91 e9c1 d859 9541
00000340: cafd 4540 eee5 57c0 fd8f 2042 d5e4 2241
00000350: f146 67c0 c0fa 1041 36be 6dc0 a0c1 843e
00000360: a116 d1c1 fb7d 08c0 a3a5 ae41 95e8 16c2
00000370: a113 1ac1 fdb5 5b40 18ca 6941 87ef 9b41
00000380: 6958 2b41 a0d7 e640 9ddf a6bf 0b05 9d3f
00000390: 670e e0be 1548 4541 2b5a 06c1 7e2e 3141
000003a0: 4a63 b53f b669 4b40 31da 4041 9d23 50c1
000003b0: 7830 7140 091c c8c1 7bf1 c73f bfba 5d41
000003c0: 4e73 5d3e e3b3 df41 0259 9041 8378 b1c1
000003d0: c59c 18c2 0f50 f741 09a2 fbc1 78a2 7340
000003e0: 6acf 1ec0 1105 1941 c999 2940 800b a141
000003f0: 1901 9a40 a9d9 98c0 0260 abbd b905 aa41

bn1.running_var f4 [512]
153.86996 356.4471 99.02429 4.793253 536.36334 810.91626 42.069756 423.90533
642.78534 13.515904 88.425 382.38004 172.57982 384.5119 379.24408 4654.7886
81.79582 287.73703 149.64964 490.09967 285.25934 1158.2118 45.727806 16.725384
106.867065 997.0328 470.67816 320.81784 879.2638 197.39977 212.36696 149.6541
206.8851 149.48627 207.28008 216.04903 5.0717235 189.04752 1140.9526 10.938938
94.540436 222.97545 213.94035 455.8799 4.2266016 30.254831 129.56146 121.042595
133.61136 17.00194 729.801 131.15413 253.15823 43.121037 872.85486 51.404396
413.93082 410.15088 296.44217 127.22607 167.63766 61.04693 290.39194 294.54514
25.573643 165.31206 1506.457 287.58698 59.537292 450.7574 8.836123 13.973988
310.5475 125.01284 120.54845 798.46405 1162.517 957.6086 20.795849 540.27875
21.920734 94.547134 45.23169 299.0785 220.95757 129.24309 494.8318 348.80325
86.61677 557.95483 41.769787 104.67977 2.5655527 289.72437 221.78084 48.649853
334.935 31.486368 14.855024 481.27267 471.43143 826.47345 700.3832 204.71027
80.892746 8078.5664 19.817884 339.97018 288.65244 469.6415 272.01437 34.394608
332.49304 7.7811403 2.6300213 292.2824 259.36517 61.25528 52.202564 951.30426
249.23468 468.21747 365.0564 1043.2307 472.38602 22.547686 11.337888 11.960643
25.686539 141.4557 20.80907 102.23272 403.737 295.6212 23.625917 509.16675
49.73374 135.97873 169.14748 10.121399 221.5319 585.45984 161.38959 414.57736
265.9356 108.28682 17.653797 337.2923 903.3667 1.7978314 40.25196 174.51875
159.10466 36.347767 565.66656 29.21959 28.934805 59.841606 33.77234 13.213399
13.151291 119.803154 9.852571 1523.5126 669.20496 136.76541 63.442516 374.80576
167.27904 304.56824 83.85894 87.7512 56.949043 656.8949 146.54816 210.30809
25.467587 48.40421 13.984832 2183.4268 199.85094 207.85588 8.14501 227.94595
218.32738 317.94144 126.52285 115.31358 253.11848 2.052629 88.07469 132.44997
14.298025 385.61642 24.61506 11.001051 191.93279 11.455443 158.90294 92.13453
700.1447 176.03117 89.315384 186.61235 23.492361 216.99959 206.38101 329.36548
145.22673 279.53186 1949.0803 49.40317 14.480292 475.57123 28.685389 1.2613871
73.49117 11.088602 790.0161 174.35031 1864.6422 182.28737 293.28586 407.51202
37.64118 139.98369 671.15717 118.46097 232.20456 400.30997 1715.921 307.30554
389.07156 367.8691 1235.7059 270.38904 93.1921 190.38799 14.80433 30.37694
149.47505 110.97261 247.41397 773.1287 159.92155 332.3264 164.98604 38.90548
8.279996 320.58057 7.829134 262.74734 189.54938 160.41501 13.499272 659.4443
00000000: b6de 1943 3b39 b243 700c c642 5462 9940
00000010: 4117 0644 a4ba 4a44 6e47 2842 e2f3 d343
00000020: 43b2 2044 2541 5841 9ad9 b042 a530 bf43
00000030: 6f94 2c43 8641 c043 3e9f bd43 4f76 9145
00000040: 7697 a342 57de 8f43 4fa6 1543 c20c f543
00000050: 32a1 8e43 c7c6 9044 46e9 3642 96cd 8541
00000060: f0bb d542 1942 7944 ce56 eb43 af68 a043
00000070: e2d0 5b44 5766 4543 f15d 5443 73a7 1543
00000080: 96e2 4e43 7c7c 1543 b347 4f43 8d0c 5843
00000090: 8f4b a240 2a0c 3d43 7c9e 8e44 e405 2f41
000000a0: b414 bd42 b7f9 5e43 bbf0 5543 a1f0 e343
000000b0: 5240 8740 e509 f241 bc8f 0143 cf15 f242
000000c0: 829c 0543 f903 8841 4473 3644 7527 0343
000000d0: 8228 7d43 f17b 2c42 b636 5a44 1a9e 4d42
000000e0: 25f7 ce43 5013 cd43 9938 9443 bf73 fe42
000000f0: 3ea3 2743 0e30 7442 2b32 9143 c745 9343
00000100: d296 cc41 e34f 2543 a04e bc44 22cb 8f43
00000110: 3026 6e42 f260 e143 c360 0d41 7495 5f41
00000120: 1446 9b43 9306 fa42 ce18 f142 b39d 4744
00000130: 8b50 9144 f366 6f44 e65d a641 d711 0744
00000140: aa5d af41 2218 bd42 40ed 3442 0c8a 9543
00000150: 23f5 5c43 3b3e 0143 786a f743 d166 ae43
00000160: c93b ad42 1c7d 0b44 4314 2742 0b5c d142
00000170: 0432 2440 b8dc 9043 e5c7 5d43 7399 4242
00000180: ae77 a743 15e4 fb41 2eae 6d41 e7a2 f043
00000190: 39b7 eb43 4d9e 4e44 8618 2f44 d4b5 4c43
000001a0: 16c9 a142 8874 fc45 078b 9e41 2ffc a943
000001b0: 8353 9043 1dd2 ea43 d701 8843 1494 0942
000001c0: 1c3f a643 1aff f840 4552 2840 2624 9243
000001d0: beae 8143 6805 7542 6dcf 5042 79d3 6d44
000001e0: 143c 7943 d61b ea43 3887 b643 6267 8244
000001f0: 6931 ec43 a961 b441 fd67 3541 cb5e 3f41
00000200: 087e cd41 a974 0d43 fa78 a641 2777 cc42
00000210: 56de c943 83cf 9343 e101 bd41 5895 fe43
00000220: 5aef 4642 8efa 0743 c125 2943 40f1 2141
00000230: 2b88 5d43 6e5d 1244 bc63 2143 e749 cf43
00000240: c2f7 8443 da92 d842 fa3a 8d41 6aa5 a843
00000250: 78d7 6144 571f e63f 0202 2142 cd84 2e43
00000260: cb1a 1f43 1d64 1142 a96a 0d44 b8c1 e941
00000270: 7b7a e741 ce5d 6f42 e016 0742 156a 5341
00000280: b06b 5241 379b ef42 21a4 1d41 6770 be44
00000290: 1e4d 2744 f2c3 0843 23c5 7d42 2367 bb43
000002a0: 6f47 2743 bc48 9843 c7b7 a742 9d80 af42
000002b0: d2cb 6342 4639 2444 548c 1243 df4e 5243
000002c0: 9ebd cb41 e99d 4142 dfc1 5f41 d476 0845
000002d0: d7d9 4743 1bdb 4f43 f651 0241 2af2 6343
000002e0: cf53 5a43 81f8 9e43 b30b fd42 8ea0 e642
000002f0: 551e 7d43 465e 0340 3e26 b042 3173 0443
00000300: b6c4 6441 e7ce c043 a5eb c441 4e04 3041
00000310: cbee 3f43 7f49 3741 27e7 1e43 e144 b842
00000320: 4309 2f44 fb07 3043 7aa1 b242 c39c 3a43
00000330: 5bf0 bb41 e5ff 5843 8a61 4e43 c8ae a443
00000340: 0b3a 1143 14c4 8b43 92a2 f344 d99c 4542
00000350: 47af 6741 1ec9 ed43 ad7b e541 2275 a13f
00000360: 7bfb 9242 ea6a 3141 0881 4544 ae59 2e43
00000370: 8d14 e944 9149 3643 97a4 9243 8ac1 cb43
00000380: 9190 1642 d3fb 0b43 0fca 2744 04ec ec42
00000390: 5e34 6843 ad27 c843 797d d644 1ca7 9943
000003a0: 2989 c243 3fef b743 9776 9a44 cc31 8743
000003b0: 5b62 ba42 5363 3e43 89de 6c41 f903 f341
000003c0: 9d79 1543 faf1 dd42 fa69 7743 3d48 4144
000003d0: ebeb 1f43 c729 a643 6dfc 2443 369f 1b42
000003e0: dd7a 0441 504a a043 4488 fa40 a95f 8343
000003f0: a48c 3d43 3e6a 2043 05fd 5741 6fdc 2444

fc2.weight f4 [256, 514]
-0.0006170951 -0.0023868394 0.035354853 -0.0052089496 -0.027538989 -0.029014982 -0.053572334 -0.0031343692
0.027852941 0.023290554 0.027180571 0.0095998645 -0.055686645 0.0077254386 -0.044587765 -0.020374104
0.005151456 -0.078360565 -0.026863992 -0.00089532865 0.021175183 -0.06215941 -0.018021235 -0.01710804
0.013558192 0.0008626728 -0.042156126 -0.015481191 0.041045476 -0.06270103 -0.05272022 0.016815439
-0.10565529 -0.0029299122 0.04137554 -0.048749033 -0.0092952335 -0.03398599 0.025367465 0.05123338
0.027537908 -0.06725025 -0.029989047 0.05045672 -0.054340616 -0.060549907 -0.03226657 -0.020706058
-0.0011561813 0.006200642 0.027467763 -0.039920848 -0.032770447 -0.04295256 -0.09943938 0.033147093
-0.06783375 -0.029833207 -0.048747513 -0.023785595 0.007827859 -0.07198097 -0.08795588 -0.02929168
-0.0143426135 -0.06647939 0.020344902 0.032388724 -0.072530895 -0.076692425 -0.058346156 -0.043486964
-0.056043208 0.035767265 0.041544802 0.00086330983 0.00049077364 0.03163391 0.021690905 0.02719805
-0.030376563 -0.053470287 -0.061059643 0.024974553 -0.0062345373 -0.06546389 0.013732091 0.040038336
-0.050473914 0.016026953 -0.054591026 -0.012058351 -0.005444421 -0.00778252 0.002574321 -0.0100680785
-0.056544695 -0.009651884 -0.076230876 0.02195811 0.041251622 -0.008488545 -0.00010985444 -0.018313365
-0.04190028 -0.036855448 -0.06987308 0.039972264 0.042532507 0.02285988 0.003534528 0.032359418
-0.06254445 0.023271577 -0.015535485 0.013348541 -0.06534205 -0.043293558 0.045682184 0.011304432
-0.020071015 0.0025832516 0.0206882 -0.07738985 -0.021431293 -0.028597163 -0.07481847 0.03464318
-0.014043805 -0.041819233 -0.044279892 0.01119981 0.025204748 -0.01482918 0.027861118 -0.006734241
-0.066123314 -0.07296154 -0.005763562 -0.05262696 -0.07586678 0.035624083 -0.046800125 -0.055601157
-0.046465445 0.021494986 -0.018541656 -0.0008081749 0.025884436 0.0478332 -0.0431071 0.014264272
-0.11065898 0.030744331 -0.013979419 -0.037075087 -0.003615771 -0.0017586806 -0.008815325 -0.040974528
-0.014006564 0.02329305 -0.053133357 0.0046962895 0.019593222 -0.05565278 0.04600389 -0.054218303
-0.026430607 -0.06424889 -0.030893316 0.014144913 -0.015256361 0.018779313 -0.0027047128 -0.025673289
0.006485505 -0.0052068713 0.007881725 -0.055564925 -0.050296247 -0.009573682 -0.046858326 0.040442172
0.0154743325 0.04965724 0.027508784 -0.022853965 -0.05060008 -0.054469008 -0.023119388 0.049265664
-0.042209733 -0.03616278 0.034901664 -0.010373218 0.021277126 -0.02919589 -0.06791599 -0.034088448
-0.0028320495 0.043035984 0.017741164 -0.06396676 -0.032779127 -0.040355857 -0.056172356 0.026871216
-0.025728334 -0.041952416 0.012331048 -0.07436618 -0.03301719 0.001768487 -0.017367413 -0.05722175
-0.07242538 0.03379205 -0.074706584 0.027939742 -0.046382945 -0.06786243 -0.014072387 -0.030605901
0.008652452 0.014838178 -0.06078463 -0.06859553 0.045914914 -0.00064842874 -0.057397123 -0.05983743
-0.05207895 -0.034204964 -0.0032420729 0.037458465 -0.0707328 -0.07415595 -0.039117854 0.020618698
-0.0051351637 -0.020255359 0.012486501 -0.016782634 -0.023570092 -0.08422394 -0.009977287 -0.01600648
-0.05172261 0.010623501 -0.040360257 0.029950801 -0.02841377 0.031640176 -0.06375252 -0.065604605
00000000: 8dc4 21ba 856c 1cbb 40d0 103d d6af aabb
00000010: 7299 e1bc d4b0 edbc aa6e 5bbd fd69 4dbb
00000020: da2b e43c d5cb be3c caa9 de3c c048 1d3c
00000030: ae17 64bd ad25 fd3b a9a1 36bd 98e7 a6bc
00000040: 8ccd a83b 817b a0bd e011 dcbc 7db4 6aba
00000050: 9477 ad3c de9a 7ebd 45a1 93bc 2926 8cbc
00000060: 2e23 5e3c fe24 623a e7ab 2cbd d2a4 7dbc
00000070: 4d1f 283d 6669 80bd 28f1 57bd 88c0 893c
00000080: cd61 d8bd c503 40bb 6679 293d 11ad 47bd
00000090: 094b 18bc e534 0bbd 6ecf cf3c 18da 513d
000000a0: 2e97 e13c 80ba 89bd 97ab f5bc b5ab 4e3d
000000b0: 4494 5ebd 2e03 78bd f329 04bd c09f a9bc
000000c0: 028b 97ba c12e cb3b 1304 e13c 0b84 23bd
000000d0: 4e3a 06bd 06ef 2fbd e0a6 cbbd 3fc5 073d
000000e0: 6cec 8abd c564 f4bc 79ab 47bd 02da c2bc
000000f0: 6c40 003c c26a 93bd 3622 b4bd 1bf5 efbc
00000100: 48fd 6abc 5926 88bd 5aaa a63c 0aaa 043d
00000110: 148b 94bd eb10 9dbd 61fc 6ebd 631f 32bd
00000120: 908d 65bd b280 123d e22a 2a3d be4f 623a
00000130: 43a7 003a 8f92 013d 20b1 b13c 72ce de3c
00000140: 45d8 f8bc a903 5bbd ad19 7abd 6f97 cc3c
00000150: 174b ccbb ef11 86bd 90fc 603c 3dff 233d
00000160: bcbd 4ebd f54a 833c d79a 5fbd 6490 45bc
00000170: 1d67 b2bb 8204 ffbb f1b5 283b 95f4 24bc
00000180: 699b 67bd f022 1ebc ef1e 9cbd 7fe1 b33c
00000190: 76f7 283d 8a13 0bbc a761 e6b8 e905 96bc
000001a0: a19f 2bbd bdf5 16bd 9e19 8fbd f5b9 233d
000001b0: 9136 2e3d a544 bb3c 8aa3 673b 4f8b 043d
000001c0: 4e17 80bd 09a4 be3c 8c88 7ebc d7b3 5a3c
000001d0: 0dd2 85bd 9654 31bd 3e1d 3b3d 3936 393c
000001e0: f86b a4bc c54b 293b 4d7a a93c 927e 9ebd
000001f0: ae90 afbc 9944 eabc 6d3a 99bd 02e6 0d3d
00000200: fd17 66bc a54a 2bbd d55e 35bd 687f 373c
00000210: 307a ce3c 17f6 72bc 003d e43c e8aa dcbb
00000220: a96b 87bd dc6c 95bd 43dc bcbb 5e8f 57bd
00000230: 0b60 9bbd 8fea 113d 7db1 3fbd 0abe 63bd
00000240: 8d52 3ebd 4116 b03c ace4 97bc b3db 53ba
00000250: 990b d43c bfec 433d 1291 30bd b1b4 693c
00000260: 2da1 e2bd 89db fb3c ef09 65bc 0cdc 17bd
00000270: 92f6 6cbb 8783 e6ba 276e 10bc e8d4 27bd
00000280: ca7b 65bc 11d1 be3c 5da2 59bd 55e3 993b
00000290: f781 a03c 2bf4 63bd 936e 3c3d 0314 5ebd
000002a0: 0085 d8bc ec94 83bd fb13 fdbc 11c0 673c
000002b0: d1f5 79bc 13d7 993c 8d41 31bb ca50 d2bc
000002c0: 5c84 d43b 679e aabb 5a22 013c 0c98 63bd
000002d0: 7003 4ebd efda 1cbc 84ee 3fbd b1a6 253d
000002e0: 0e88 7d3c 6465 4b3d 1a5a e13c 3d38 bbbc
000002f0: 0842 4fbd e51a 5fbd df64 bdbc cbca 493d
00000300: 1de4 2cbd 6c1f 14bd 0cf5 0e3d 6ef4 29bc
00000310: 5e4d ae3c 382c efbc 8a17 8bbd 54a0 0bbd
00000320: e899 39bb 8046 303d eb55 913c 0101 83bd
00000330: 6843 06bd 2f4c 25bd fc14 66bd 0621 dc3c
00000340: 3ac4 d2bc 4cd6 2bbd 2a08 4a3c 4c4d 98bd
00000350: 083d 07bd 94cc e73a 1b46 8ebc 5b61 6abd
00000360: c253 94bd 8869 0a3d c4ff 98bd e3e1 e43c
00000370: 0bfc 3dbd 75fb 8abd de8f 66bc 3ab9 fabc
00000380: 04c3 0d3c d41b 733c 4ef9 78bd d07b 8cbd
00000390: 4711 3c3d 51fb 29ba 3f19 6bbd 1818 75bd
000003a0: bd50 55bd 811a 0cbd f578 54bb 0c6e 193d
000003b0: 5cdc 90bd 13df 97bd 0b3a 20bd 8be8 a83c
000003c0: e044 a8bb 91ee a5bc 2e94 4c3c bc7b 89bc
000003d0: 1116 c1bc 9a7d acbd c677 23bc 0620 83bc
000003e0: 16db 53bd 310e 2e3c cc50 25bd 625b f53c
000003f0: ffc3 e8bc 2199 013d ae90 82bd b55b 86bd

fc2.bias f4 [256]
-0.065112576 -0.021430708 1.6692739 0.012324913 0.2356104 -0.07964385 -0.23495184 2.0163677
-0.020625535 -0.06729239 -0.07152691 -0.010367799 -0.066771396 -0.05219255 -0.044653013 0.0076458165
-0.0069255605 -0.031810325 -0.041704804 -0.48334786 -0.08225805 -0.068195 -0.042793218 -0.04764735
-0.060075257 -1.2311914 -0.030050635 -0.0014702271 -0.083855666 -0.06243568 -0.0741933 -0.019349074
-0.06162043 0.02013922 1.5385686 0.024083832 0.0033159945 -0.072718665 -0.004994868 -0.006618202
-0.031356875 -0.07331602 -0.0058080074 0.001216015 0.5040677 0.016550118 -0.003617841 0.053834327
-0.027714774 1.7542117 -0.057589628 -0.067236535 -0.07012737 -0.012917445 -0.045497686 0.45902246
-0.017353633 -0.031663757 0.018155335 0.10728701 -0.0048850467 0.0074331267 0.95456505 0.0040743803
-0.027284538 -0.0074413903 -0.06141036 -0.023403758 -0.0028428147 -0.16274105 -0.009028799 -0.011860347
0.0045282794 -0.8067636 -0.0072020083 0.02456008 -0.071209334 1.7781056 -0.06506694 -0.0811553
-0.04013026 -0.0193807 -0.099863164 -0.042863607 0.012372994 -0.03973321 -0.05147367 0.001089827
0.005142192 -0.06042131 -1.410222 -0.084474675 -0.026751105 -0.018295737 -0.048168957 -0.08658284
-0.023232736 -0.022555804 -0.05734622 -0.007053654 -0.08653807 -0.07389101 -0.06662598 -0.03400151
-0.0024983177 -0.043059174 -0.057329364 2.5367556 0.005829605 -0.035423078 0.02424135 -0.06654313
-0.020382097 -0.06200804 1.7976441 -0.07190231 -0.030647544 1.941452 -0.055698898 -0.024577528
-0.002362922 -0.007869859 -0.07728913 -0.00663481 0.00017615852 -0.0075168936 0.10059027 0.010754546
0.011585812 0.008995103 0.028094767 -0.06559515 -0.06803924 0.023113053 1.4369185 -0.055296004
-0.06414544 -0.022789901 -0.044808272 -0.020191202 0.0008010549 -0.060220804 -0.06745 -0.061744228
-0.047840685 -0.041427866 -0.023126576 -0.01957621 -0.022246998 -0.029214067 -0.026166592 -0.027046835
-0.04327359 -0.032606285 -0.035118073 0.9684431 -0.075295545 0.0133477645 0.015639279 -0.075958796
-0.07789541 -0.005204986 -0.04800846 -0.070207566 -0.028124088 -0.07812194 -0.036267675 0.0008816545
-0.09299508 -0.06363773 -0.025898311 -0.02323487 -0.07025679 0.7475667 -0.016289601 -0.040046565
-0.015145387 -0.037516452 -0.041686516 -0.039142355 -0.08177192 0.9055202 -1.1444256 -0.05412457
2.0211544 -0.025386443 -0.04708782 -0.0027707855 -0.063650884 -0.009552981 1.815315 0.020851905
0.03265499 -0.07161258 -0.079144366 -6.8684116e-05 -0.02347335 -0.025106173 1.402348 -0.081612885
-0.010654208 -0.07026413 -0.050135717 1.7134893 0.011690431 0.016885484 -0.35674486 -0.071413085
0.024714636 -0.06742748 1.860917 0.00506091 0.0232789 -0.055308715 0.0030704106 -0.0005125652
-0.05045802 -0.066000365 -0.033441566 -0.05897233 0.028863277 -0.010634629 -0.053269565 -0.04252448
-0.03095602 -0.013072362 -0.070429474 -0.010461712 0.01060284 2.6129656 -0.051870197 0.570627
-0.090847835 -0.06648526 -1.4957099 0.0075916653 -0.02337047 0.005106409 -0.0061970386 -0.035439655
2.4379961 -0.004237936 -0.06678361 2.7741778 -0.0844984 -0.05944472 -0.033894792 -0.12783305
-0.029641561 -0.05322938 -0.0786399 2.2867947 0.020640235 -0.0403896 -0.076824 -0.07093749
00000000: be59 85bd 748f afbc c4aa d53f 6fee 493c
00000010: da43 713e 511c a3bd 3797 70be 2b0c 0140
00000020: e2f6 a8bc 98d0 89bd b37c 92bd b3dd 29bc
00000030: 71bf 88bd dbc7 55bd 14e6 36bd c289 fa3b
00000040: d0ef e2bb 8b4b 02bd a8d2 2abd 5f79 f7be
00000050: e976 a8bd d2a9 8bbd f147 2fbd de29 43bd
00000060: 7911 76bd ae97 9dbf c02c f6bc a3b4 c0ba
00000070: 85bc abbd 8ebc 7fbd a8f2 97bd f381 9ebc
00000080: b465 7cbd 01fb a43c d1ef c43f 754b c53c
00000090: 2851 593b 86ed 94bd fdab a3bb 81dd d8bb
000000a0: 1170 00bd b626 96bd 1951 bebb b162 9f3a
000000b0: 950a 013f 1d94 873c 4d19 6dbb 6281 5c3d
000000c0: 180a e3bc 028a e03f 1ae3 6bbd 4fb3 89bd
000000d0: f09e 8fbd b1a3 53bc c85b 3abd fe04 eb3e
000000e0: 3529 8ebc dbb1 01bd 7fba 943c 4bb9 db3d
000000f0: be12 a0bb 9691 f33b 605e 743f 6182 853b
00000100: d383 dfbc e8d6 f3bb 6e89 7bbd 3db9 bfbc
00000110: 844e 3abb 97a5 26be 87ed 13bc e751 42bc
00000120: f661 943b 0f88 4ebf d3fe ebbb 3932 c93c
00000130: 33d6 91bd f798 e33f d141 85bd c034 a6bd
00000140: a15f 24bd 46c4 9ebc 0f85 ccbd c091 2fbd
00000150: 19b8 4a3c 4abf 22bd 0ed6 52bd 87d8 8e3a
00000160: d57f a83b 567c 77bd 2882 b4bf 0f01 adbd
00000170: 2225 dbbc f1e0 95bc d04c 45bd 5852 b1bd
00000180: 9452 bebc f3c6 b8bc dfe3 6abd 5722 e7bb
00000190: df3a b1bd 2b54 97bd 3473 88bd 2b45 0bbd
000001a0: d1ba 23bb d15e 30bd 32d2 6abd 345a 2240
000001b0: 4506 bf3b ca17 11bd cc95 c63c c447 88bd
000001c0: 5bf8 a6bc 24fc 7dbd 3419 e63f 8541 93bd
000001d0: 8f10 fbbc 8081 f83f 8724 64bd d056 c9bc
000001e0: 41db 1abb 95f0 00bc c349 9ebd d268 d9bb
000001f0: 31b7 3839 4650 f6bb 4502 ce3d d633 303c
00000200: 6bd2 3d3c 3260 133c ff26 e63c c056 86bd
00000210: 2858 8bbd 9657 bd3c f2ec b73f 107e 62bd
00000220: af5e 83bd e3b1 babc e188 37bd 0568 a5bc
00000230: e2fd 513a 17aa 76bd 3a23 8abd 84e7 7cbd
00000240: 98f4 43bd 44b0 29bd f273 bdbc 4a5e a0bc
00000250: 563f b6bc 5752 efbc 525b d6bc 5391 ddbc
00000260: a63f 31bd 2b8e 05bd f8d7 0fbd e3eb 773f
00000270: 8d34 9abd 95b0 5a3c f21d 803c 4990 9bbd
00000280: a187 9fbd 968e aabb 85a4 44bd fcc8 8fbd
00000290: 7d64 e6bc 65fe 9fbd 6a8d 14bd d51e 673a
000002a0: 3474 bebd 8054 82bd b228 d4bc 0e57 bebc
000002b0: cbe2 8fbd 8860 3f3f c571 85bc de07 24bd
000002c0: 5b24 78bc daaa 19bd 7bbf 2abd bc53 20bd
000002d0: 0978 a7bd 2cd0 673f 8a7c 92bf bab1 5dbd
000002e0: 985a 0140 3bf7 cfbc 28df 40bd 1196 35bb
000002f0: 655b 82bd 1b84 1cbc 3e5c e83f 9dd1 aa3c
00000300: 3dc1 053d 9ea9 92bd 7116 a2bd 810a 90b8
00000310: 2f4b c0bc 76ab cdbc 2480 b33f a824 a7bd
00000320: fd8e 2ebc a4e6 8fbd 1c5b 4dbd 9e53 db3f
00000330: 3989 3f3c 6d53 8a3c 43a7 b6be 0641 92bd
00000340: 5976 ca3c 6b17 8abd 8732 ee3f fdd5 a53b
00000350: 64b3 be3c 648b 62bd f138 493b ab5d 06ba
00000360: 12ad 4ebd 332b 87bd 06fa 08bd f88c 71bd
00000370: ae72 ec3c de3c 2ebc 3031 5abd 262e 2ebd
00000380: 7b97 fdbc 762d 56bc 543d 90bd 9a67 2bbc
00000390: 89b7 2d3c d43a 2740 d875 54bd 9c14 123f
000003a0: 6e0e babd 6d29 88bd 6c73 bfbf 81c3 f83b
000003b0: 6e73 bfbc aa53 a73b 8710 cbbb 2c29 11bd
000003c0: 2108 1c40 62de 8abb d8c5 88bd 218c 3140
000003d0: 7f0d adbd 4f7c 73bd 44d5 0abd abe6 02be
000003e0: dcd2 f2bc 0d07 5abd f50d a1bd d85a 1240
000003f0: b615 a93c 916f 25bd e755 9dbd ad47 91bd
