critic_model.pth (torch_old, 589302 bytes, 9 tensors)

fcs1.weight f4 [512, 24]
0	0xbe49d6cb	-0.19710843
1	0x3e6a05e2	0.22853807
2	0x3b706604	0.00366819
3	0x3d812ae7	0.06307011
4	0x3c833ac3	0.01601923
5	0xbd9b1c7e	-0.07573794
6	0xbd5e3c8e	-0.05425697
7	0x3d850228	0.06494552
8	0xbe0d023c	-0.13770384
9	0x3e22dc74	0.15904409
10	0x3d05fd48	0.03271225
11	0x3e779e03	0.2418137
12	0x3f6e11a8	0.9299569
13	0xbeaa7cd6	-0.33298367
14	0x3d829484	0.06375983
15	0x3e61fe5e	0.2206969
16	0xbe488252	-0.19580963
17	0xbd01b147	-0.031663205
18	0x3cb82dbe	0.02248275
19	0x3df6004f	0.120117776
20	0x3f5e0e32	0.8674041
21	0x3f60876c	0.8770664
22	0x3cc81208	0.02442266
23	0x3dbf1b09	0.093313284
24	0x3ee064d2	0.4382692
25	0xbe2c84aa	-0.16847482
26	0xbc217382	-0.009854199
27	0x3e1b2c3c	0.15153593
28	0x3ea14bc6	0.31503123
29	0x3ef4bb47	0.4779913
30	0xbd51b633	-0.05119915
31	0x3e170ba8	0.1475054
32	0x3e93000d	0.28710976
33	0xbdf58dd4	-0.11989942
34	0xbd4335f8	-0.04765889
35	0x3d2083e8	0.039188296
36	0xbf9e568b	-1.2370161
37	0x3d751bb7	0.059840884
38	0xbd6434de	-0.05571448
39	0x3c8f5468	0.017496303
40	0x3eca9d6e	0.39573234
41	0xbc8a095d	-0.016850168
42	0xbdcc55e5	-0.099773206
43	0x3c02dfab	0.007987897
44	0xc000ddc4	-2.0135355
45	0x3ea2372c	0.31682718
46	0xbdd0ec09	-0.1020127
47	0x3c975443	0.018472796
48	0x3e1b4bf2	0.1516569
49	0xbe203b49	-0.15647615
50	0x3d1c379f	0.038138982
51	0x3e301875	0.1719683
52	0xbe80b896	-0.25140828
53	0x3f28917d	0.65847
54	0x3cd2f2bc	0.02575051
55	0x3e083ffd	0.1330566
56	0xbd1b2fb0	-0.037887275
57	0xbecd4135	-0.40088812
58	0xbe40d7b9	-0.18832292
59	0xbe2c7616	-0.16841921
60	0xbef657cb	-0.48113856
61	0x3f19ab47	0.60026973
62	0xbe6c90e5	-0.23102148
63	0xbe2f6284	-0.17127424
64	0x3d1bc01b	0.038025003
65	0xbf05a88a	-0.52210295
66	0x3dceeda9	0.10103924
67	0x3e94a22c	0.29029977
68	0xbeacd1d2	-0.3375383
69	0x3f7d1fd4	0.9887669
70	0x3d5d09e8	0.053964525
71	0x3e9374ec	0.28800142
72	0x3d07fe42	0.033201464
73	0xbc859412	-0.016305957
74	0x3d6ea96c	0.058267042
75	0x3cb8cabe	0.022557613
76	0x3d3714c1	0.044697527
77	0xbb7543a7	-0.0037424357
78	0x3c239fbd	0.009986815
79	0x3d1defa5	0.03855862
80	0xbd643eea	-0.055724062
81	0xbcd055a2	-0.025431458
82	0xba42141d	-0.000740351
83	0xba8c118c	-0.0010686382
84	0x3d80098d	0.06251822
85	0x3bcc1bb0	0.0062288865
86	0xbcf138a6	-0.029445957
87	0x3d3057fd	0.043052662
88	0xbdf172d3	-0.11789479
89	0xbd8d16f0	-0.068891406
90	0xbca07a0a	-0.019589443
91	0x3d4a0dad	0.04932945
92	0x3d5c28db	0.0537499
93	0x3cbcacf7	0.023031695
94	0xbd2d49cc	-0.042306706
95	0x3bad5ede	0.00529085
96	0xbea5cdc0	-0.32383537
97	0x3ea22642	0.31669813
98	0x3cb46ae2	0.022023622
99	0x3e2a1cf3	0.16612606
100	0xbe9bb066	-0.3040802
101	0x3ea06e53	0.3133417
102	0x3dbbaded	0.09164033
103	0x3ded0805	0.11573795
104	0x3e659f26	0.22423992
105	0x3f10bc2a	0.56537116
106	0x3aea254f	0.0017863902
107	0x3dcfa633	0.10139122
108	0xbe2bc5b0	-0.1677463
109	0x3e0d7c3f	0.13816927
110	0xba5538c4	-0.0008133764
111	0x3d99b083	0.0750437
112	0x3ec0b337	0.3763673
113	0x3ea77940	0.32709694
114	0xbc10f65e	-0.008847801
115	0x3d11778f	0.03551441
116	0xbf7f3a57	-0.99698395
117	0x3e83999f	0.2570314
118	0xbd15794f	-0.036492642
119	0x3c1d32d2	0.009594636
120	0xbd1053b5	-0.03523608
121	0x3ec7de9a	0.3903702
122	0xbdce41a4	-0.10071114
123	0x3cd5e62b	0.02611073
124	0xbea8b713	-0.32952175
125	0x3e1c44f0	0.15260673
126	0xbdac6e2e	-0.084194526
127	0xbaa45624	-0.0012537879
128	0x3ddbdc2a	0.10735352
129	0x3eeef44a	0.46670753
130	0x3d87c965	0.0663021
131	0x3dc2dcc3	0.09514763
132	0xbeaf07a8	-0.3418553
133	0x3f2a6527	0.66560596
134	0x3dc5280d	0.0962678
135	0x3e0f77ea	0.14010587
136	0x3e798e32	0.2437065
137	0x3f175506	0.5911411
138	0x3e0d7573	0.13814335
139	0x3e890554	0.26761878
140	0x3fb7fdcf	1.4374331
141	0x3e3e0c87	0.18559466
142	0x3e13337d	0.1437511
143	0x3e716fde	0.2357783
144	0xbd23ed66	-0.040021323
145	0xbda71887	-0.08158975
146	0xbca51753	-0.020152723
147	0xbce15da5	-0.027510474
148	0x3d756576	0.059911214
149	0x3d87a305	0.066228904
150	0xbd78ef70	-0.06077522
151	0x3d471e01	0.0486126
152	0xbd8c6071	-0.06854332
153	0xbddcbf90	-0.10778725
154	0xbd19c9db	-0.03754602
155	0xbd935c85	-0.07195381
156	0x3d30f6ef	0.043204244
157	0x3b6c9e8e	0.0036105248
158	0xbd311701	-0.04323483
159	0xbc552b40	-0.0130108
160	0xbe29f160	-0.16595984
161	0xbd3b33ff	-0.045703884
162	0xbc0aed38	-0.008479409
163	0xbc83b9e0	-0.016079843
164	0x3df0269d	0.11726115
165	0xb9451468	-0.00018794986
166	0xbd7d9526	-0.061909817
167	0xbd82e513	-0.06391349
168	0x3f32a09b	0.69776314
169	0xbf47224e	-0.7778672
170	0x3c919e25	0.017775605
171	0x3eab4cc6	0.3345701
172	0xbd0245b1	-0.031804744
173	0x3ecdf7c2	0.40228087
174	0xbccb36c4	-0.024806388
175	0x3eccb9ec	0.39985597
176	0x3e8fe486	0.28104037
177	0xbf9cda93	-1.2254204
178	0x3d026db8	0.031842917
179	0xbe195841	-0.14975072
180	0x3d9237c3	0.07139542
181	0x3f5b0be7	0.85565037
182	0x3c3e8813	0.011629122
183	0xbdf12535	-0.11774675
184	0x3ed0eb48	0.40804505
185	0xbfa0ad83	-1.2552952
186	0x3d8593b0	0.0652231
187	0xbe8b97c3	-0.27264223
188	0x3de38850	0.11109984
189	0xbdf3f99c	-0.119128436
190	0x3dbde7a8	0.092727005
191	0xbe93b58c	-0.28849447
192	0x3daa1b9e	0.08306049
193	0xbd6d1f7b	-0.05789135
194	0x3c8aff56	0.016967457
195	0xbcc3f422	-0.023920123
196	0x3d5dd438	0.054157466
197	0x3c98562c	0.018595777
198	0x3d05fe6a	0.03271333
199	0xbd15854f	-0.036504086
200	0x3d810398	0.062995136
201	0xbd5af164	-0.053452864
202	0x3c8bc4e6	0.017061662
203	0xbd4fb53d	-0.05070995
204	0x3c8bbe6b	0.017058572
205	0xbc590267	-0.013245202
206	0x3c79fa48	0.015257426
207	0x3ccc0a62	0.024907295
208	0x3cc8cd5b	0.024511984
209	0xbd9f45e2	-0.07777001
210	0x3d6d92cf	0.058001336
211	0x3d28e502	0.041234024
212	0x3ca9f7aa	0.020747978
213	0xbcb17ec2	-0.021666888
214	0x3d872ab3	0.06599941
215	0xbc1d0f53	-0.009586173
216	0x3c3a866b	0.011384587
217	0xbdf08bef	-0.1174544
218	0x3d035194	0.03206022
219	0xbd4be8ec	-0.04978268
220	0xbe08108b	-0.1328756
221	0x3d3b1c14	0.045681074
222	0x3c491611	0.012273327
223	0xbcde097c	-0.027104132
224	0x3d5f9c47	0.054592397
225	0x3e22285b	0.15835707
226	0xbca4f822	-0.02013785
227	0xbbb3e3fd	-0.005489825
228	0xbdc7cf03	-0.09756281
229	0x3f04cba2	0.5187322
230	0x3d6b9abc	0.057520613
231	0xbda5ccca	-0.08095701
232	0x3dcc1f60	0.09966922
233	0x3e84c56f	0.2593188
234	0x3d09ea11	0.03367049
235	0xbc90f9a0	-0.017697155
236	0x3f9fdc63	1.2489132
237	0xbde05897	-0.10954397
238	0x3c346cbe	0.011012254
239	0xbd87a0ed	-0.06622491
240	0xbda071c5	-0.078342
241	0xbe8d73a1	-0.2762728
242	0x3c26693a	0.010156924
243	0xbca44df9	-0.020056712
244	0xbe8182f8	-0.25295234
245	0x3ddec0e3	0.10876634
246	0x3b9e6854	0.004834214
247	0xbd1c4d47	-0.038159635
248	0x3e071a5f	0.13193654
249	0x3dc41c5c	0.095757216
250	0xbb685268	-0.0035449509
251	0xbd90369c	-0.07041666
252	0xbe16a335	-0.14710696
253	0x3edae1a6	0.4275028
254	0xbd324a4b	-0.043527883
255	0xbd6872dd	-0.056750167

fcs1.bias f4 [512]
0	0x3d9de4c6	0.07709651
1	0xbacf3066	-0.001580727
2	0xbd2875ec	-0.041128084
3	0x3e0fc2f8	0.14039218
4	0x3e657ed8	0.22411668
5	0xbb3098ae	-0.0026946473
6	0x3e334e62	0.1751037
7	0x3cde76a1	0.027156176
8	0xbdaaf5cd	-0.08347664
9	0x3d9bc902	0.076066986
10	0x3e635822	0.22201589
11	0x3dbb8280	0.0915575
12	0xbe560891	-0.20901705
13	0xbe06f4c4	-0.13179308
14	0xbd9bb4aa	-0.07602818
15	0x3df2cd37	0.11855548
16	0xbc596238	-0.013268046
17	0x3e0e5d40	0.1390276
18	0x3e816d67	0.2527878
19	0x3db8794c	0.090075105
20	0xbcce2b4a	-0.025167126
21	0x3df6df1a	0.12054272
22	0x3dea0f05	0.11428646
23	0xbdff6fab	-0.12472471
24	0xbe105a20	-0.1409688
25	0xbe4cbe60	-0.19994497
26	0xbdcc3412	-0.09970869
27	0x3dea74d4	0.114480644
28	0xbe28dac9	-0.1648971
29	0x3c27685a	0.01021775
30	0xbe199e25	-0.15001734
31	0xbd9445d2	-0.0723988
32	0xbdfa7970	-0.122301936
33	0xbe30a1f9	-0.17249288
34	0x3d865035	0.06558267
35	0xbdcc8791	-0.09986795
36	0x3cf87b0f	0.030332116
37	0xbe6e6701	-0.2328148
38	0x3d228eed	0.039687086
39	0x3caedfa7	0.02134688
40	0xbec591d4	-0.3858782
41	0x3c3a9ac2	0.011389436
42	0xbdd01c7e	-0.101616845
43	0x3d4700a0	0.04858458
44	0x3e0c0f02	0.136776
45	0xbe7a699c	-0.2445435
46	0xbe51b2b2	-0.20478323
47	0xbe08c1fc	-0.13355249
48	0x3e089215	0.13336976
49	0x3d8e57ff	0.06950378
50	0x3e07f049	0.13275255
51	0xbd35770d	-0.04430299
52	0x3e08a69b	0.13344805
53	0x3e733333	0.2375
54	0x3e480a4e	0.19535181
55	0xbe8e4615	-0.27787843
56	0x3e37c885	0.17947586
57	0xbeb0167e	-0.3439216
58	0xbde75d8a	-0.11297138
59	0x3e1aa94d	0.15103646
60	0x3da4ed47	0.080530696
61	0x3dd06be9	0.10176832
62	0x3ec6e999	0.38850096
63	0xbe86941c	-0.26284873
64	0xbe599097	-0.21246563
65	0xbde4e76f	-0.11176955
66	0xbe962618	-0.29325938
67	0xbd559b11	-0.052149836
68	0xbc6e3fe1	-0.014541597
69	0x3e1e7979	0.15476026
70	0xbe8e0db6	-0.27744836
71	0x3e36d5d5	0.17855008
72	0xbe9709cd	-0.29499665
73	0x3e00ea24	0.12589318
74	0xbdc7a3c5	-0.097480334
75	0x3ce54fcc	0.027992152
76	0x3e1ce1fa	0.15320578
77	0xbe42a37d	-0.19007678
78	0x3d95fe70	0.07323921
79	0x3c0ba5a3	0.008523378
80	0x3d8c7862	0.06858899
81	0xbdf210a4	-0.1181958
82	0xbe4c74c8	-0.19966424
83	0xbddc2fdf	-0.10751318
84	0x3e663d9c	0.2248444
85	0x3e3d217e	0.18469808
86	0xbdb0ddd7	-0.086360626
87	0xbe818691	-0.2529798
88	0x3e4d1e67	0.20031129
89	0x3e935256	0.28773755
90	0xbe03b492	-0.12861851
91	0xbe3c2092	-0.183718
92	0xbdb8507c	-0.08999726
93	0x3dff87e1	0.12477089
94	0x3cea067d	0.028567547
95	0x3d87c0aa	0.06628545
96	0xbd06f550	-0.032948792
97	0x3e1fb672	0.15596941
98	0xbd7a55e8	-0.061117083
99	0x3db6f28a	0.089329794
100	0x3defe71c	0.117140025
101	0x3d48697e	0.04892873
102	0xbe3d9812	-0.18515041
103	0xbe485d44	-0.19566828
104	0x3d0047fc	0.03131865
105	0xbd9ea9fd	-0.077472664
106	0xbe1fd909	-0.15610136
107	0xbe257f0b	-0.16161744
108	0xbe19e817	-0.15029941
109	0xbe0f6718	-0.14004171
110	0xbe12bf48	-0.1433078
111	0x3e6ef732	0.23336485
112	0x3e2f3cd8	0.17113054
113	0xbd317878	-0.04332778
114	0x3e01339c	0.12617344
115	0xbc915f35	-0.017745594
116	0x3e9b1cc9	0.302954
117	0x3c82ce68	0.015967563
118	0x3e001623	0.12508444
119	0x3d95948c	0.07303724
120	0x3b0adf29	0.0021190143
121	0xbe2de062	-0.16980127
122	0x3ea2b777	0.31780598
123	0x3d030741	0.03198934
124	0x3c92f239	0.017937766
125	0x3de77ed6	0.11303489
126	0xbd0c313e	-0.03422665
127	0x3deab874	0.11460963
128	0xbd9f9c81	-0.077935226
129	0xbd89528f	-0.067052
130	0xbbe3f087	-0.0069561633
131	0x3e009645	0.12557323
132	0xbd88bc3f	-0.0667653
133	0x3e2a20eb	0.1661412
134	0xbe3a617f	-0.18201254
135	0x3e4afbf1	0.1982267
136	0xbe68b097	-0.22723614
137	0x3d21dc23	0.03951658
138	0x3e3eb5f9	0.18624105
139	0xbd9fadcc	-0.07796821
140	0xbbfcc169	-0.007713486
141	0xbe2af1c7	-0.16693793
142	0xbabf2f0a	-0.0014586162
143	0x3d9b7b18	0.07591838
144	0xbd253b62	-0.040339835
145	0xbea9c4fc	-0.331581
146	0x3dbf9e18	0.09356326
147	0x3dab8668	0.08375245
148	0x3dbeb7c4	0.09312394
149	0xbdee5e1b	-0.11639043
150	0xbdf82467	-0.12116318
151	0xbc73e25f	-0.014885514
152	0x3e8c5aed	0.2741312
153	0x3e49ff32	0.19726256
154	0xbd0209d9	-0.031747673
155	0xbcf4bbc8	-0.029874697
156	0xbe3664bb	-0.17811863
157	0x3eb53898	0.3539474
158	0xbe2fe9f9	-0.17179097
159	0xbdb2bc54	-0.08727327
160	0x3e64ec40	0.22355747
161	0x3e9c8887	0.30572912
162	0xbde2ec10	-0.110801816
163	0x3e4a7989	0.19772924
164	0xbdbe3a7e	-0.092885
165	0x3e41eaea	0.18937269
166	0x3e34e614	0.17665893
167	0xbbdd8f97	-0.006761502
168	0x3e255c57	0.16148506
169	0x3da88e24	0.08230236
170	0x3e964947	0.2935278
171	0xbd6f586e	-0.058433942
172	0x3e7e7dc8	0.24852669
173	0xbe146dbe	-0.14494988
174	0xbd8a6d3b	-0.06759115
175	0xbe71ca43	-0.23612313
176	0xbe84b0c1	-0.25916103
177	0x3dc8ce97	0.09805029
178	0x3dc4b851	0.09605468
179	0xbdfc9f13	-0.123350285
180	0xba3a5ce4	-0.00071091787
181	0x3d56f9a7	0.05248418
182	0x3e8bb6a8	0.27287793
183	0x3e1e53bc	0.1546163
184	0x3e4f41ab	0.20239894
185	0x3dc5763c	0.09641692
186	0x3eb3bd5e	0.35105413
187	0x3e653d7f	0.2238674
188	0x3eb161cd	0.3464493
189	0x3e21f3b8	0.15815628
190	0x3d1bd6f8	0.038046807
191	0xbe283769	-0.16427387
192	0xbe5dd089	-0.21661581
193	0x3e223217	0.1583942
194	0xbd927c19	-0.07152576
195	0xbca1d75e	-0.019756015
196	0x3dd24d79	0.10268683
197	0x3db4624d	0.08807812
198	0xbc962cc2	-0.018331889
199	0xbe0f48c5	-0.13992603
200	0xbe533294	-0.20624763
201	0x3e2f8230	0.17139506
202	0xbd8854c2	-0.06656791
203	0x3e499267	0.19684754
204	0x3d487bb1	0.048946086
205	0x3e93d6da	0.28874856
206	0xbda749c2	-0.08168365
207	0xbe16cafe	-0.14725873
208	0x3dd8dc8b	0.1058894
209	0x3e0135e9	0.12618221
210	0xbbb1d67a	-0.005427179
211	0xbe14a0b9	-0.14514436
212	0x3d5bde73	0.05367894
213	0xbe006c99	-0.12541427
214	0x3e5d35a4	0.21602494
215	0x3da8e2a0	0.0824635
216	0xbd1b2a06	-0.037881874
217	0xbdc1cf80	-0.094634056
218	0xbaf15869	-0.0018413189
219	0xbe7753b7	-0.24153028
220	0xbc41ef14	-0.011836786
221	0x3db9effc	0.090789765
222	0x3e8fa2d5	0.28053918
223	0x3dd9d6ea	0.10636695
224	0x3e88adcb	0.26695094
225	0x3d26a45c	0.04068409
226	0xbe1301e1	-0.14356185
227	0xbd568076	-0.052368604
228	0xbd84581c	-0.06462118
229	0xbe2bca32	-0.1677635
230	0xbd823447	-0.06357627
231	0x3e21e78b	0.15810983
232	0x3e7b77bf	0.24557398
233	0x3d807515	0.062723316
234	0x3d9a230e	0.075262174
235	0xbd88d5db	-0.06681415
236	0x3e1cf0e5	0.15326269
237	0x3e880d3f	0.26572606
238	0x3df6556c	0.12028012
239	0xbea52925	-0.32257953
240	0x3eae5609	0.34050015
241	0x3e3d6e51	0.18499114
242	0x3e9d239a	0.30691224
243	0x3dda40be	0.1065688
244	0x3e21786f	0.15768598
245	0x3d29f60f	0.041494425
246	0x3da7c4a2	0.081918016
247	0xbe4c7cd1	-0.19969489
248	0x3dfa4731	0.1222061
249	0x3e4950aa	0.19659677
250	0x3e821ba8	0.25411725
251	0xbd89f407	-0.06735998
252	0xbd8a0efa	-0.06741138
253	0x3e466d44	0.19377619
254	0xbe05a02b	-0.1304938
255	0xbe510463	-0.2041183

bn1.weight f4 [512]
0	0x3f224ef3	0.63401717
1	0x3fd1cc39	1.6390449
2	0x3f87b58e	1.0602281
3	0x3caae856	0.02086274
4	0x3f391b89	0.7230764
5	0x3f61a5f3	0.88143843
6	0xbc2f1119	-0.010685229
7	0x3ef7fac4	0.48433506
8	0xbb995854	-0.004679719
9	0x3f09e392	0.5386287
10	0x3f2fa799	0.6861511
11	0x3fa3dc05	1.280152
12	0x3f850056	1.0390728
13	0x3f8f9bc5	1.1219412
14	0x3f9961c4	1.1982961
15	0x3f4bf617	0.7967238
16	0x3f45105e	0.769781
17	0x3f2c37e0	0.6727276
18	0x3f78032d	0.96879846
19	0x3fc6cd55	1.5531412
20	0x3f144b5d	0.57927495
21	0x3f11e622	0.5699178
22	0x3fab05aa	1.3361104
23	0x3f127be9	0.5722032
24	0x3f9cb0aa	1.2241414
25	0x3eacafcf	0.3372788
26	0x3f77617f	0.9663314
27	0x3fc160fb	1.5107721
28	0x3f60c96b	0.8780734
29	0x3fc3d807	1.5300301
30	0x3dcf9029	0.10134918
31	0x3f068105	0.5254062
32	0x3f645f41	0.89207846
33	0x3f5c1462	0.859686
34	0x3d7b3370	0.06132835
35	0x3f5a0a88	0.8517232
36	0x3e25125a	0.16120282
37	0x3fd2de26	1.6474044
38	0x3f09496e	0.5362767
39	0xba8b634d	-0.0010634452
40	0x3f927f32	1.1445067
41	0x3fb1e26b	1.3897222
42	0x3f0f2345	0.5591319
43	0x3ed9c276	0.42531174
44	0x3ba5b45e	0.005056902
45	0x3f8af375	1.0855547
46	0x3fa23849	1.2673427
47	0x3c1e430b	0.009659539
48	0x3f332d29	0.69990784
49	0x3c2f32a7	0.010693229
50	0x3f3632d4	0.7117131
51	0x3f27aae5	0.6549514
52	0x3f399cb8	0.7250476
53	0x3f6cd788	0.92516375
54	0x3fa04ec7	1.2524041
55	0x3f34257a	0.70369685
56	0x3e06e704	0.13174063
57	0x3f0b8763	0.5450346
58	0x3fab1e1f	1.3368567
59	0x3fe3902b	1.7778372
60	0x3f8dd6e2	1.1081202
61	0x40162ec4	2.3466043
62	0x3f5b8600	0.8575134
63	0x40160bdb	2.3444736
64	0x3f53eb22	0.8278066
65	0x3f3bd5db	0.7337319
66	0x3f33de35	0.70260936
67	0x3f4c54a7	0.7981667
68	0x3d051db5	0.032499034
69	0x3f92d4d1	1.1471196
70	0x3f3a5f02	0.7280122
71	0x3f1ed986	0.62050664
72	0x3f2871d8	0.6579871
73	0x3f83ddce	1.0302064
74	0x3f5bb820	0.8582783
75	0x3f2a15d4	0.6643956
76	0x40149ae9	2.321955
77	0x3f988ada	1.1917374
78	0x3afe553e	0.0019404066
79	0x3faf7051	1.3706151
80	0x3fb362f1	1.401457
81	0x3f25d7c8	0.6478238
82	0x3e627922	0.22116521
83	0x4001ce8b	2.0282314
84	0x3f28f93a	0.6600529
85	0x3f16fbd3	0.58978003
86	0x3f9be323	1.2178692
87	0x3f1d4b05	0.61442596
88	0x3ef39fa2	0.47582728
89	0x4011a362	2.275597
90	0x409907b9	4.7821927
91	0x3f6c9863	0.92420024
92	0xbbea71eb	-0.0071546934
93	0x3fdc68cf	1.7219485
94	0x3f344465	0.7041686
95	0x3fbc7ae5	1.4725004
96	0x3eff914e	0.49915546
97	0x3faa28c4	1.3293691
98	0x3fa37107	1.2768868
99	0x3ed62e58	0.41832232
100	0x3ed25e60	0.41087627
101	0x3f7c47b4	0.9854691
102	0x3d9ba5b5	0.075999655
103	0x3f89d8f5	1.0769335
104	0x3f65e225	0.89798194
105	0x3f4f3782	0.80944073
106	0x3f3d05e1	0.73837095
107	0x3f0f9b0e	0.5609597
108	0x3caddb35	0.02122269
109	0x3f06b60c	0.5262153
110	0x3f09c701	0.5381928
111	0x3f58c40e	0.84674156
112	0x3f77ea1c	0.968416
113	0x3aae3d89	0.0013293485
114	0xbb801b3c	-0.0039094966
115	0x3eb8c5eb	0.360885
116	0x3f1cef99	0.61303097
117	0x3f6fa0d2	0.9360477
118	0x3f24d8f2	0.6439353
119	0x3fa0eddd	1.257259
120	0x3f4be8c7	0.79652065
121	0x3cd1c983	0.025608784
122	0x3f350734	0.70714116
123	0x3fd0ebc3	1.6321949
124	0x3fc708e9	1.5549594
125	0x3fc3f7f7	1.5310048
126	0x4027853c	2.617507
127	0x3f7c0380	0.9844284
128	0x3fbb0d19	1.4613372
129	0x3fa1ebe1	1.265011
130	0xbbfde271	-0.007747941
131	0x3f491f64	0.78563523
132	0x3f469a35	0.7757905
133	0x3c4b8e12	0.012424009
134	0x3d2483a5	0.04016461
135	0x3f8a5994	1.0808587
136	0x3f309314	0.68974423
137	0x3f3c2df0	0.73507595
138	0x3f3f06d9	0.74619824
139	0x3f13cd84	0.57735467
140	0x3f0210bb	0.5080678
141	0x3fce9c75	1.6141497
142	0x3ee629ef	0.44953868
143	0x3fc9f263	1.5777096
144	0x3f16b75c	0.58873534
145	0x3f9394e9	1.1529819
146	0x3f6b940f	0.92022794
147	0x3f07453d	0.52840024
148	0x3f2d53bd	0.677059
149	0x3f39cabc	0.72574973
150	0x3f4e606b	0.8061587
151	0x3f22fcee	0.6366719
152	0x3f382c7d	0.71942884
153	0x3c88617e	0.01664805
154	0x3f6c66dc	0.9234445
155	0x3cb13fd3	0.02163688
156	0x3eb2c568	0.34916234
157	0x3fa7a4b2	1.3097136
158	0x3f66008c	0.89844584
159	0x3f3f5b28	0.7474847
160	0x3f53f2aa	0.8279215
161	0x3f2277dd	0.63464147
162	0x3b8b6c01	0.0042548184
163	0x3fae8c98	1.3636656
164	0x3d38b509	0.045094524
165	0x3fe0ca02	1.7561648
166	0x3c704657	0.014665208
167	0x3f387f24	0.72069
168	0x3d9aa874	0.07551661
169	0x3f8d64bb	1.1046365
170	0x3f46f952	0.7772418
171	0x3fa44a23	1.2835125
172	0x3f26a8e7	0.65101475
173	0x3d23d6f2	0.03999991
174	0x3d892c25	0.06697873
175	0x3ec9c6e4	0.39409554
176	0x3f8f2b9c	1.1185184
177	0x3f88871e	1.0666234
178	0x3f088156	0.5332235
179	0x3fce5705	1.6120306
180	0x3ecca527	0.3996975
181	0x3f13cfc8	0.57738924
182	0x3f1af9d4	0.6053746
183	0x3a758735	0.0009366156
184	0x3fc4707a	1.5346825
185	0x3f15df0f	0.58543485
186	0x3f63ce81	0.88986975
187	0x3f98d87f	1.1941069
188	0x3fb047eb	1.3771948
189	0x3c1de297	0.009636543
190	0x3fb513bb	1.4146646
191	0x3d238e98	0.03993091
192	0x3fba8076	1.4570453
193	0x3f1d659c	0.6148317
194	0xbbe60eec	-0.007020822
195	0x3f197557	0.5994467
196	0x3d800a17	0.062519245
197	0x3eab3ca5	0.33444706
198	0x3f82407f	1.0175933
199	0x3f327cf9	0.69721943
200	0x3ef830c7	0.48474714
201	0x3cbfa13c	0.023392312
202	0x3f48a66e	0.7837895
203	0x3ec482f2	0.38381153
204	0x3ef49ba2	0.47774988
205	0x3f675e02	0.9037782
206	0x3f82bb06	1.0213325
207	0x3f1c05cc	0.60946345
208	0x3fa2ac25	1.2708784
209	0x3f515da7	0.8178353
210	0x3f5d2bb2	0.863948
211	0x3f955e7e	1.1669462
212	0x3efbc1fe	0.49171442
213	0x3d6d454f	0.057927426
214	0x3f9f2a0e	1.2434709
215	0x39ecac07	0.00045141598
216	0x3f132fd9	0.57494885
217	0x3f554a5f	0.83316606
218	0x3ff9cdc4	1.951592
219	0xbb02af2a	-0.0019940832
220	0x3f271099	0.652597
221	0x3fd7999d	1.6843754
222	0x3f2c3a1f	0.67276186
223	0x3fd33e4f	1.650339
224	0x405fea01	3.4986575
225	0x3d1d0521	0.03833497
226	0x3f45d419	0.7727676
227	0x3f05ad65	0.52217704
228	0x3f695963	0.9115202
229	0x3f1a43c0	0.6025963
230	0x3f870374	1.0547929
231	0x3efb0e5e	0.490344
232	0x3f30972d	0.68980676
233	0x3f5eabb0	0.86980724
234	0x3f809242	1.0044634
235	0x402bb7df	2.6830976
236	0x3f4c8817	0.79895157
237	0x3f8d877e	1.1056974
238	0xbc04a010	-0.0080948025
239	0x402966eb	2.6469066
240	0x3c9261dd	0.01786893
241	0x3f8a51e2	1.0806239
242	0x3f4835c3	0.78207034
243	0x3e98cc3b	0.29843315
244	0x3d938f34	0.07205048
245	0x3f121989	0.57070214
246	0x3f36ec40	0.7145424
247	0x4017ca28	2.3717136
248	0x3d117fab	0.035522144
249	0x3f818456	1.0118511
250	0x3f9ab483	1.2086338
251	0x3d2098ec	0.039208338
252	0x3f161ea6	0.58640516
253	0x39fa3daa	0.0004772966
254	0x3f350b31	0.707202
255	0x3f472214	0.77786374

bn1.bias f4 [512]
0	0x3f1a654e	0.6031083
1	0x3f56455a	0.8369957
2	0x3edee3d0	0.43533182
3	0xbdc4d4f3	-0.09610929
4	0xbf069d66	-0.5258392
5	0xbec24faa	-0.37951404
6	0xbda255ca	-0.07926519
7	0xbed85ea8	-0.42259717
8	0xbd829ea4	-0.063779145
9	0xbf1f8dc6	-0.62325704
10	0xbf34ff66	-0.7070221
11	0x3f99601c	1.1982455
12	0xbf0d633b	-0.5522954
13	0xbf35f5af	-0.7107801
14	0xbf14d105	-0.5813144
15	0xbdcfb3f3	-0.101417445
16	0xbf116172	-0.56789315
17	0xbf2862ad	-0.6577557
18	0x3e67afd5	0.22625668
19	0x3f705257	0.9387564
20	0xbf091b55	-0.5355733
21	0xbe8249f7	-0.25447056
22	0x3f349789	0.70543724
23	0xbec269ec	-0.37971437
24	0xbf2d4a07	-0.6769108
25	0xbee7e0b2	-0.45288616
26	0x3f25ab8b	0.6471488
27	0x3f362edb	0.71165246
28	0xbed2a34f	-0.4114022
29	0xbf348ea0	-0.7053013
30	0xbed382c3	-0.413107
31	0xbebf98ea	-0.37421352
32	0xbef8480b	-0.48492464
33	0xbeb9d71d	-0.3629693
34	0xbe87c6a8	-0.2651875
35	0xbedbd99c	-0.4293946
36	0xbe2955a6	-0.16536579
37	0x3f8c14b7	1.0943822
38	0xbf21dfc3	-0.6323206
39	0xbbcee085	-0.006313386
40	0xbee2a800	-0.442688
41	0x3d8a0b12	0.06740393
42	0xbeda9f49	-0.4269965
43	0xbebe7c7f	-0.37204358
44	0xbca54570	-0.020174712
45	0xbef2ddfe	-0.47434992
46	0xbf0c5103	-0.54811114
47	0x3f86570a	1.0495312
48	0xbf0b775e	-0.54479015
49	0xbe663613	-0.22481565
50	0xbf3e9684	-0.7444842
51	0xbf1afecb	-0.60545033
52	0xbf1fe356	-0.6245626
53	0xbf1da6a5	-0.61582404
54	0xbdca2892	-0.098710194
55	0xbefbd9c8	-0.4918959
56	0xbf02d680	-0.5110855
57	0xbf011208	-0.5041814
58	0xbf4e36c7	-0.80552334
59	0xbea75fbc	-0.32690227
60	0xbeb55ba2	-0.35421473
61	0xbeb69ab4	-0.35664904
62	0xbf1c2de5	-0.6100753
63	0x3ea2bf40	0.31786537
64	0xbeec42e3	-0.4614478
65	0xbefddb80	-0.49581528
66	0xbeb9f398	-0.3631866
67	0x3f5289f8	0.82241774
68	0xbe9126a4	-0.28349793
69	0xbee54f34	-0.4478699
70	0xbeda2dd5	-0.42613092
71	0xbf117c13	-0.5682995
72	0xbf02f2d1	-0.5115176
73	0x3ec2393b	0.37934288
74	0xbedd7071	-0.43249848
75	0xbeb70436	-0.357454
76	0xbeb88eae	-0.36046356
77	0x3f6f2ec5	0.9343074
78	0xbc717813	-0.014738101
79	0x3e883a91	0.26607183
80	0x3e8b9b90	0.27267122
81	0xbef239fd	-0.47309867
82	0x3fa4ce99	1.2875549
83	0x3e3b26b6	0.18276486
84	0xbeff91d1	-0.49915937
85	0xbeee4ddd	-0.4654378
86	0xbf3e92b9	-0.7444263
87	0xbf066ab8	-0.5250659
88	0xbf0bb468	-0.54572153
89	0x3f04b705	0.51841766
90	0x3f9442ec	1.1582923
91	0xbf522b15	-0.8209699
92	0xbcde432e	-0.027131643
93	0x3ec54852	0.3853174
94	0xbe7a3db5	-0.24437602
95	0x3f308e74	0.68967366
96	0xbf043e39	-0.51657444
97	0x3f517672	0.8182136
98	0x3f93f945	1.1560446
99	0xbed6ad0d	-0.41928902
100	0xbed99a34	-0.4250046
101	0xbf004572	-0.50105965
102	0xbe898e33	-0.26866302
103	0xbf037897	-0.5135588
104	0xbe3519f7	-0.17685686
105	0xbec7938e	-0.38979763
106	0xbf316392	-0.6929256
107	0xbed59208	-0.41712976
108	0xbe6b4fe9	-0.22979702
109	0xbf0fbf3e	-0.5615119
110	0xbf08a8fa	-0.5338284
111	0x3edc83af	0.43069217
112	0xbf27b6bd	-0.6551321
113	0xbbd4eb26	-0.0064977584
114	0xbcac8b39	-0.02106248
115	0xbecb376e	-0.39690727
116	0xbef64406	-0.48098773
117	0xbe89ffba	-0.26952916
118	0xbee9e6fd	-0.45684043
119	0xbc25b3cc	-0.010113668
120	0xbf27d0f0	-0.6555319
121	0xbe30aa54	-0.17252475
122	0xbebf785d	-0.37396517
123	0xbd6f965d	-0.058493007
124	0x3f8b60a9	1.0888873
125	0xbef74267	-0.48292848
126	0x3f6d314a	0.92653334
127	0xbea0fda5	-0.31443515
128	0x3e35f773	0.17770176
129	0x3ef00a69	0.46882942
130	0xbd3d2797	-0.046180334
131	0x3f68426a	0.9072634
132	0xbefd9a95	-0.49532
133	0xbd87583f	-0.066086285
134	0xbe6396cb	-0.22225492
135	0x3e72d113	0.23712568
136	0xbea6f92a	-0.32611972
137	0xbf377541	-0.7166329
138	0xbf412b13	-0.7545635
139	0xbefde4f1	-0.4958873
140	0xbea9b709	-0.33147457
141	0x3ee08129	0.4384854
142	0xbef53768	-0.47893834
143	0xbe7cd549	-0.24690737
144	0xbf250117	-0.6445479
145	0x3dcbeaa7	0.09956866
146	0x3da236c0	0.07920599
147	0xbf058d5d	-0.5216883
148	0xbf323c6f	-0.69623464
149	0xbbc8de7c	-0.006130038
150	0xbf00a528	-0.5025201
151	0xbeadcd9d	-0.33945933
152	0xbf0a0a7d	-0.53922254
153	0xbdf639bf	-0.12022733
154	0xbebdc444	-0.370638
155	0xbdfdde2b	-0.12395891
156	0xbec99725	-0.39373127
157	0x3eb88b18	0.3604362
158	0x3f43d853	0.7650196
159	0xbe873e4f	-0.26414725
160	0xbf036fa7	-0.5134224
161	0xbed5c7fe	-0.41754144
162	0xbcbd64cb	-0.02311935
163	0x3f15b230	0.5847502
164	0xbe68f7b9	-0.22750749
165	0x3ee00078	0.43750358
166	0xbe093b87	-0.13401614
167	0xbee4746e	-0.4462008
168	0xbec2666b	-0.37968764
169	0x3df7ae37	0.12093776
170	0x3f659ffa	0.8969723
171	0x3f63584e	0.8880662
172	0xbec00a26	-0.37507743
173	0xbe6484ec	-0.2231633
174	0xbe75e21f	-0.2401204
175	0xbeea1033	-0.45715484
176	0xbedf2bbf	-0.43588063
177	0xbf042780	-0.5162277
178	0xbf09bf3f	-0.53807443
179	0x3f79e32b	0.97612256
180	0xbee32fd4	-0.44372427
181	0x3f6cd01d	0.92505056
182	0xbf04b777	-0.51842445
183	0xbbb07438	-0.005384948
184	0x3f33ec5b	0.70282525
185	0xbed252a2	-0.4107867
186	0xbec15d67	-0.37766573
187	0x3e14222b	0.14466159
188	0x3f7deffe	0.99194324
189	0xbd3ea404	-0.046543136
190	0xbe98f036	-0.29870766
191	0xbde8f3e7	-0.11374646
192	0xbe8483a5	-0.25881687
193	0xbef143d5	-0.47122064
194	0xbe212278	-0.15735805
195	0xbf2e5251	-0.68094355
196	0xbe8bfa9e	-0.27339643
197	0xbec5756b	-0.38566145
198	0xbf1fb7bd	-0.6238974
199	0xbec7ca16	-0.39021367
200	0xbf09e410	-0.5386362
201	0xbe4d0e4c	-0.20024985
202	0xbee49799	-0.4464691
203	0xbea099eb	-0.3136743
204	0xbe9a6103	-0.3015214
205	0xbed42781	-0.4143639
206	0x3f2e722b	0.68142956
207	0xbe8cc95c	-0.27497375
208	0x3f1de2b0	0.6167402
209	0xbf07d254	-0.5305531
210	0x3f2f2e15	0.6842969
211	0x3eda5d9c	0.42649543
212	0xbeefd207	-0.46839926
213	0xbe907313	-0.28212795
214	0xbf1858e4	-0.59510636
215	0xbd8324d4	-0.06403509
216	0xbf21d130	-0.6320982
217	0xbf0be4e8	-0.5464616
218	0x3f30a36a	0.6899935
219	0x3fa15dcf	1.2606753
220	0xbf35b0aa	-0.7097269
221	0xbd4b226b	-0.04959337
222	0xbf247d51	-0.6425372
223	0x3ee439ff	0.44575498
224	0x3f507e1e	0.8144244
225	0xbe0e200a	-0.1387941
226	0xbf14c51b	-0.5811326
227	0xbf051afe	-0.5199431
228	0xbec695f6	-0.38786286
229	0xbee8fea2	-0.4550677
230	0x3f2537c2	0.64538205
231	0xbed07c96	-0.40720052
232	0xbee1d7d7	-0.44109985
233	0xbf5c1fe9	-0.8598619
234	0xbe98517f	-0.29749677
235	0x3e1c345a	0.15254346
236	0xbf0a1028	-0.539309
237	0x3f45c2fd	0.77250654
238	0xbd4154eb	-0.047200125
239	0xbd0c30f2	-0.034226365
240	0x3fab8050	1.3398533
241	0xbee5d08f	-0.4488568
242	0x3f0526d4	0.5201237
243	0xbe86492d	-0.26227704
244	0xbe8fe5dd	-0.2810506
245	0xbebff5d0	-0.37492228
246	0xbf1b6196	-0.6069578
247	0x3f12a192	0.57277787
248	0xbe1bab97	-0.15202175
249	0x3dd27e1f	0.10277962
250	0x3ef8ea82	0.48616415
251	0xbe786da3	-0.24260573
252	0xbedf77d7	-0.43646118
253	0x3f97f72c	1.1872306
254	0xbf00868f	-0.5020532
255	0xbf015678	-0.50522566

bn1.running_mean f4 [512]
0	0x40ccf248	6.4045753
1	0xc0d451cf	-6.6349864
2	0x40f6e10f	7.714973
3	0x3fc7aae2	1.5599024
4	0xbf250e3d	-0.6447485
5	0x3e387a96	0.18015513
6	0x4037a3fd	2.869384
7	0xc0a17a38	-5.0461693
8	0xbfaae640	-1.3351517
9	0x3e9857aa	0.29754382
10	0xc065afdf	-3.5888593
11	0x401d81f9	2.461058
12	0x40d0826f	6.515922
13	0xc05e835a	-3.476767
14	0xbff5efe2	-1.9213831
15	0x407e2a60	3.9713364
16	0xc0bbc52a	-5.867818
17	0xc0cdbfaa	-6.4296465
18	0x41224947	10.14289
19	0x41455a3b	12.334529
20	0x400eee1c	2.233283
21	0x418da5a1	17.705873
22	0xbeb0e2cf	-0.3454804
23	0x40fd57cf	7.916969
24	0xc05da612	-3.4632611
25	0xc0b3f7a0	-5.6239777
26	0x40255c48	2.5837574
27	0x410bca3c	8.736874
28	0x405f5cc1	3.4900362
29	0xc0a1f1bb	-5.060758
30	0xbf5ad42a	-0.85479987
31	0xbeca40fe	-0.3950271
32	0xbf796c1a	-0.97430575
33	0x404739e8	3.1129093
34	0xbf93c7a1	-1.1545297
35	0x3e0141e2	0.12622789
36	0x40ac8366	5.39104
37	0x40971daa	4.722371
38	0xc00f36cb	-2.2377193
39	0xbf7f56e6	-0.9974197
40	0x410e54c8	8.895699
41	0x41447df0	12.280746
42	0xc064c18e	-3.5743136
43	0x3f382494	0.71930814
44	0x3f7a2c0b	0.97723454
45	0x4039631b	2.896674
46	0x40b09556	5.5182295
47	0xc1ab2d98	-21.397263
48	0xc0ab8dfd	-5.3610826
49	0xc009c8ad	-2.1528733
50	0x3fde99bc	1.7390666
51	0xc1146490	-9.274551
52	0xc01ec30b	-2.4806545
53	0xc1442e98	-12.261375
54	0xc092a732	-4.5829096
55	0x3fcde915	1.6086756
56	0x4087d8a9	4.245198
57	0xc10008d7	-8.002158
58	0xc09c4d4b	-4.884435
59	0x408568de	4.169051
60	0x4100201d	8.00784
61	0xc085d53b	-4.182279
62	0xc00201fd	-2.0313714
63	0x3eb6c16e	0.3569445
64	0xc106376e	-8.388533
65	0x3d1e6b39	0.038676474
66	0x3fbbecf8	1.4681692
67	0xc111fde1	-9.124482
68	0x408d7655	4.420695
69	0x3fd30558	1.6486006
70	0xbf1cae71	-0.61203676
71	0xc04424e2	-3.0647511
72	0x40bd669f	5.918777
73	0x408a5b99	4.3236814
74	0xc12080a7	-10.031409
75	0x4054a3ca	3.322497
76	0x406db6c7	3.7142808
77	0x40afbab4	5.491541
78	0x3f47891c	0.7794359
79	0x40c1878c	6.0477962
80	0x40a20df9	5.0642056
81	0xc1b7cde4	-22.975533
82	0xbfd2eaf1	-1.6477948
83	0x4159da8d	13.615857
84	0xc0385155	-2.879964
85	0x408ebc10	4.460457
86	0xc1758698	-15.34536
87	0xc04442a4	-3.0665674
88	0xc0c81628	-6.2527046
89	0x407d04f1	3.9534266
90	0x3ef084e1	0.4697638
91	0xc10b0824	-8.689487
92	0xbded9a02	-0.1160164
93	0x4051a961	3.275963
94	0xc0cf6513	-6.481088
95	0x3ffc78e1	1.9724389
96	0xc039a695	-2.9007924
97	0x41a0138d	20.009546
98	0x40fdd4df	7.9322352
99	0xbff27f9c	-1.8945193
100	0xc07545cc	-3.832385
101	0x404c100f	3.1884801
102	0x40620567	3.5315797
103	0x406f990e	3.7437167
104	0x40f7bec2	7.742036
105	0x3fad7062	1.3549922
106	0xc0b46f5f	-5.638595
107	0x408dc2f0	4.430046
108	0xc08122a7	-4.03548
109	0xc10c3509	-8.762948
110	0xbf63386b	-0.8875796
111	0x41421d09	12.132089
112	0x4029c50d	2.652652
113	0x4003f64a	2.0619073
114	0xbf46db6b	-0.77678555
115	0xc1558088	-13.34388
116	0xbf91ba9c	-1.1385074
117	0xc080eafc	-4.0286846
118	0x40c429dc	6.13011
119	0x412ba9aa	10.728922
120	0xc0ab3683	-5.3504043
121	0xbfa77465	-1.3082396
122	0x402859b6	2.6304755
123	0x410d5e22	8.835482
124	0x4089e429	4.3091016
125	0x3f071a72	0.5277473
126	0x408e513c	4.4474163
127	0xc093b28f	-4.6155467
128	0xc0a7dbbb	-5.2455726
129	0x40be1ca9	5.9409986
130	0x3e36e245	0.17859752
131	0x3cf1fb46	0.029538762
132	0x417c1bb2	15.756762
133	0xbdda4af2	-0.10658826
134	0x40e6b779	7.2098966
135	0xc0459e5f	-3.0877912
136	0x4073764b	3.804095
137	0xc0e8ccf6	-7.2750196
138	0xc098d510	-4.7760086
139	0xc0d732f9	-6.7249722
140	0x40d90b4d	6.7826295
141	0xc13478ab	-11.27946
142	0xbfb241f3	-1.3926376
143	0x400d0e4c	2.2039976
144	0xc11b0f19	-9.691186
145	0xc0dfb682	-6.991029
146	0x41a07224	20.055733
147	0x3fe45ac1	1.7840196
148	0x3f716b1f	0.9430408
149	0xc18a40d3	-17.281652
150	0xbfd91730	-1.6960201
151	0x40d903af	6.7816997
152	0xc0978173	-4.734552
153	0x409f9ef3	4.988153
154	0x41056764	8.337742
155	0xbf2ea930	-0.6822691
156	0x40392efa	2.8934922
157	0xbf22f4fd	-0.6365507
158	0xc135bd5e	-11.358732
159	0xc094055b	-4.6256537
160	0xc15e97cc	-13.91206
161	0x40775e1d	3.8651192
162	0x3f912b9c	1.1341434
163	0x4163dff2	14.242174
164	0xbfebd96c	-1.8425727
165	0x40801186	4.002139
166	0x3fdf89ef	1.7463969
167	0xbf11e2e3	-0.56986827
168	0xc0d44fae	-6.6347265
169	0xbf88fb6d	-1.0701729
170	0xc1a8d32c	-21.103111
171	0x3ff8b994	1.9431634
172	0x40d516a0	6.659012
173	0xc0aa93b6	-5.330531
174	0x4076bf75	3.8554356
175	0xc03a16a8	-2.9076328
176	0x3fa94d24	1.3226666
177	0x4108a490	8.540176
178	0x408efc65	4.46831
179	0xbf7ee198	-0.9956298
180	0xc0234a79	-2.5514205
181	0x4095aa34	4.6770267
182	0xc063fc22	-3.562264
183	0x3f2e28dc	0.68031096
184	0xc0d00202	-6.500245
185	0x40197af1	2.3981287
186	0x406495b0	3.5716362
187	0x40cd46ac	6.414877
188	0x411a487d	9.642697
189	0x3f05b316	0.5222639
190	0x4032ad67	2.7918336
191	0x3fe52d7f	1.7904509
192	0x40376ba4	2.8659449
193	0x3f1a3822	0.602419
194	0xc0a32724	-5.098528
195	0x3feb0231	1.8360044
196	0xc0c8c641	-6.274201
197	0xbfd2cf15	-1.6469446
198	0x3fb49c58	1.4110212
199	0xc023e80f	-2.5610387
200	0x4029ad83	2.6512153
201	0x407163de	3.7717204
202	0xc19801f0	-19.000946
203	0xc0ab9a4c	-5.362585
204	0xbf196409	-0.59918267
205	0x408acb9d	4.337355
206	0x3e9e9a89	0.30977276
207	0x4004c16d	2.0743058
208	0x40c9b476	6.303279
209	0x3f17f024	0.593508
210	0x40fe609a	7.949292
211	0x40a06576	5.0123854
212	0x3edaf915	0.4276816
213	0x4005f7f1	2.0932581
214	0x3f2b0f93	0.6682064
215	0x3ffb873c	1.9650645
216	0xc104d7ba	-8.302668
217	0x4087ee9a	4.247876
218	0xc0e8abcf	-7.2709727
219	0xc1368f08	-11.40992
220	0xc17f1b0d	-15.944104
221	0xbe12131a	-0.14265099
222	0xc0236790	-2.553196
223	0x4150fffe	13.062498
224	0x40502017	3.2519586
225	0x408daf99	4.4276853
226	0x40b0ccc1	5.5249944
227	0x405da6c2	3.463303
228	0xbeb227b8	-0.34795928
229	0xc0f0b226	-7.5217466
230	0x3ec02585	0.37528625
231	0xc0bfcfde	-5.9941244
232	0xc0d269f2	-6.575433
233	0xc152b0f9	-13.168206
234	0x3f6bafa3	0.92064875
235	0x4038cec8	2.887621
236	0x3e818b6e	0.2530169
237	0x3e2bf3aa	0.16792169
238	0x3e716c97	0.2357658
239	0x4008419b	2.1290042
240	0x4036f499	2.858679
241	0x412e61e2	10.898897
242	0x40b6709c	5.7012463
243	0xbf417faa	-0.75585425
244	0xc05e8b9c	-3.477271
245	0x40c252b5	6.072596
246	0xc1f41fec	-30.515587
247	0x3f73ab1d	0.95182973
248	0x3e8fb962	0.28071123
249	0x411008f5	9.002187
250	0xbf6b683a	-0.9195591
251	0xc081bff0	-4.05468
252	0xc0db9f77	-6.863216
253	0xc100224f	-8.008376
254	0xc0ae424b	-5.4455924
255	0x40b79c46	5.7378263

bn1.running_var f4 [512]
0	0x42ec81e1	118.25367
1	0x43ae12b4	348.14612
2	0x42a5dd77	82.93255
3	0x40136c40	2.303482
4	0x42bd74d3	94.72817
5	0x42365ac2	45.58863
6	0x40ff16d3	7.971536
7	0x4210759c	36.114853
8	0x40973878	4.725643
9	0x4226954f	41.64581
10	0x4185177f	16.636473
11	0x412d795c	10.842129
12	0x421cd280	39.205566
13	0x421f2032	39.78144
14	0x411d8dbd	9.847104
15	0x422b70f8	42.86032
16	0x42a41eeb	82.06039
17	0x4274e383	61.22218
18	0x422ed192	43.70466
19	0x429e1b91	79.05384
20	0x42942d1c	74.088104
21	0x42fbdc0d	125.92979
22	0x41d7407f	26.906492
23	0x42832f2b	65.592125
24	0x42422bd9	48.54282
25	0x427db2e0	63.424683
26	0x42d1f183	104.9717
27	0x42826e5f	65.21557
28	0x41f9501b	31.164114
29	0x411e2d69	9.886086
30	0x421df1cc	39.48613
31	0x42608f2b	56.139812
32	0x420e15b9	35.521214
33	0x41adda25	21.731516
34	0x42508ca5	52.13735
35	0x41d86521	27.04938
36	0x421cb0ef	39.172787
37	0x413ef39b	11.934474
38	0x423f6804	47.851578
39	0x4136eb29	11.432412
40	0x422faceb	43.918865
41	0x4223c29b	40.940044
42	0x42babfcc	93.3746
43	0x412936b5	10.575856
44	0x40860f01	4.1893315
45	0x424fe12b	51.96989
46	0x4170d53c	15.052059
47	0x4256b3c4	53.675552
48	0x4296d5b0	75.41736
49	0x41a3ad07	20.459486
50	0x414272a8	12.152992
51	0x42cff0a5	103.97001
52	0x428c9913	70.29897
53	0x41ea3464	29.275581
54	0x40dc39ba	6.8820467
55	0x40f73c3c	7.726103
56	0x421d2431	39.285343
57	0x42e9c84d	116.89121
58	0x4251aaca	52.416786
59	0x418771fa	16.930653
60	0x422c3cef	43.059505
61	0x419ff8a0	19.996399
62	0x4158c564	13.548191
63	0x408d363d	4.412871
64	0x42835b05	65.67777
65	0x40ec481f	7.383804
66	0x4138d18c	11.551159
67	0x43101ba5	144.10799
68	0x41dd22c6	27.64198
69	0x4252e42b	52.72282
70	0x41cea07a	25.828358
71	0x41dbcc11	27.474642
72	0x4211ffe3	36.49989
73	0x4303bcec	131.73798
74	0x41df949c	27.947563
75	0x4346af4c	198.68475
76	0x4055aae0	3.3385544
77	0x42df8c38	111.773865
78	0x402962f7	2.6466653
79	0x41a7e0c1	20.984743
80	0x40af5c32	5.4800043
81	0x42547a73	53.11958
82	0x4380f433	257.9078
83	0x42086a40	34.10376
84	0x433ac848	186.78235
85	0x4245178c	49.272995
86	0x4178f469	15.55967
87	0x427f7868	63.867584
88	0x42c380e6	97.751755
89	0x41d4283c	26.519646
90	0x40807336	4.014064
91	0x42ba4890	93.14172
92	0x40c1c640	6.0554504
93	0x41da3193	27.274206
94	0x41d47d7c	26.561272
95	0x418cc908	17.59816
96	0x42849bef	66.30456
97	0x42c2d925	97.42411
98	0x42f9933d	124.787575
99	0x422dd9a6	43.462547
100	0x42cfdadd	103.92747
101	0x40fbed47	7.8727145
102	0x428dec6c	70.96176
103	0x42ddab66	110.83476
104	0x427a7fbb	62.624737
105	0x418f0d11	17.88138
106	0x423ad3ef	46.706966
107	0x41f76e89	30.928972
108	0x41a7095b	20.879568
109	0x42b59ca6	90.805954
110	0x41e7c572	28.971409
111	0x42a857e4	84.17166
112	0x411290b7	9.160331
113	0x40342dde	2.8152995
114	0x3f8eeed4	1.1166635
115	0x42d591ad	106.78452
116	0x41944ca9	18.537432
117	0x42260e23	41.513805
118	0x41cd3de1	25.655214
119	0x41b758eb	22.918417
120	0x4232ea85	44.729023
121	0x40ec66c7	7.387546
122	0x425f61ee	55.845634
123	0x420685fb	33.63084
124	0x42082a92	34.041573
125	0x424f6104	51.84474
126	0x40e207a6	7.0634336
127	0x42132905	36.79006
128	0x4229f1bd	42.486073
129	0x4199fe72	19.24924
130	0x41467b28	12.405067
131	0x42d3abc7	105.8355
132	0x42fc96a8	126.29425
133	0x415ff639	13.997613
134	0x41422996	12.135153
135	0x428e24ce	71.071884
136	0x4278896b	62.134197
137	0x428ee757	71.451836
138	0x4227d9c8	41.962677
139	0x425f0203	55.751965
140	0x4292276d	73.077
141	0x42db968f	109.79406
142	0x429cc1ed	78.37876
143	0x414b3d65	12.702489
144	0x41a6e8ff	20.863768
145	0x41fc46e6	31.534618
146	0x4254f75f	53.241573
147	0x41627ee4	14.155979
148	0x41ec75f5	29.557596
149	0x427a1f70	62.5307
150	0x423a3f58	46.56186
151	0x41960338	18.751572
152	0x424dd1cc	51.45488
153	0x4197ca10	18.973663
154	0x42205cd4	40.090652
155	0x417d624d	15.836499
156	0x421b9920	38.899536
157	0x42b78117	91.75213
158	0x42962333	75.06875
159	0x42285303	42.081066
160	0x4285316a	66.59651
161	0x421eed34	39.731644
162	0x409e3cfd	4.944945
163	0x42021375	32.519
164	0x40e2340f	7.068855
165	0x40f72369	7.7230725
166	0x40c1aedd	6.0525956
167	0x41d251c0	26.289917
168	0x41b412db	22.509207
169	0x41800630	16.003021
170	0x42e8092e	116.01793
171	0x421d254b	39.28642
172	0x4245212c	49.282394
173	0x41b5e355	22.736002
174	0x4225cbf0	41.449158
175	0x42be6f50	95.21741
176	0x424f1995	51.774982
177	0x4273787d	60.867664
178	0x41b6f402	22.869144
179	0x411f2136	9.945608
180	0x427db7fc	63.429672
181	0x42502e6e	52.04534
182	0x41d5f269	26.743364
183	0x400baf4b	2.182574
184	0x42a70759	83.51435
185	0x4266b86c	57.6801
186	0x42daca5a	109.39522
187	0x4242078d	48.507374
188	0x42e037e7	112.109184
189	0x40a93ac1	5.288422
190	0x414adc6d	12.678815
191	0x4100c43c	8.047909
192	0x4128a20e	10.539564
193	0x403b97dc	2.9311438
194	0x413a478d	11.642468
195	0x422603f0	41.503845
196	0x424a024c	50.502243
197	0x42a8cf75	84.40519
198	0x41a8ebf7	21.115217
199	0x43188448	152.51672
200	0x4346119c	198.06879
201	0x4266d3aa	57.706703
202	0x4216d95b	37.71226
203	0x42350f12	45.264717
204	0x418a391a	17.277882
205	0x41c9aa31	25.208101
206	0x4355a290	213.63501
207	0x429dd8f4	78.92374
208	0x425fb4dc	55.92662
209	0x41cbe1c0	25.48523
210	0x41c6de1e	24.858456
211	0x43b75862	366.6905
212	0x427fdcfd	63.96581
213	0x428a9a49	69.30134
214	0x4244f486	49.238792
215	0x408bee7e	4.372863
216	0x41623e9c	14.1402855
217	0x418bdf9a	17.48418
218	0x42ec815f	118.25268
219	0x438d06b0	282.05225
220	0x4317e73b	151.90324
221	0x420902e9	34.252842
222	0x42d01fcd	104.06211
223	0x423855f6	46.083946
224	0x4048a843	3.1352699
225	0x41e6732a	28.806232
226	0x418c3f10	17.530792
227	0x419b0cad	19.38119
228	0x42031ed5	32.78011
229	0x417411d8	15.254356
230	0x43651fda	229.12442
231	0x4234033b	45.003155
232	0x42947d16	74.24431
233	0x4161d4f1	14.114488
234	0x418c6832	17.550877
235	0x41164ec3	9.394229
236	0x41cc9e32	25.577244
237	0x423ca808	47.164093
238	0x404b1e80	3.1737366
239	0x40361e6c	2.8456068
240	0x4311dd29	145.8639
241	0x41d6d746	26.855114
242	0x41f86b6c	31.052452
243	0x41f3fd57	30.498701
244	0x426018c5	56.02419
245	0x4347ccf4	199.8006
246	0x4295f63b	74.98092
247	0x409dafaf	4.9276958
248	0x41ce7b7e	25.810299
249	0x417e61b6	15.898855
250	0x4342cb34	194.79376
251	0x41b4b4d8	22.588303
252	0x424154a7	48.33267
253	0x42da8b57	109.27215
254	0x42da8d99	109.27656
255	0x4199d940	19.23108

fc2.weight f4 [256, 514]
0	0x3d77707a	0.06041
1	0x3f5c833a	0.86137736
2	0x3edeadfb	0.43492112
3	0xbda8f0f4	-0.08249083
4	0xbed84f32	-0.4224792
5	0xbf6e8592	-0.9317256
6	0xbcea88d7	-0.028629703
7	0xb822d158	-3.8818776e-05
8	0x3c546ed2	0.012965875
9	0xbef5aadf	-0.47981927
10	0xbf4e79ad	-0.8065441
11	0x3f4a59e9	0.7904344
12	0x3f08cd24	0.5343802
13	0xbf169ca3	-0.5883276
14	0xbf235d89	-0.638146
15	0x3e8bec0e	0.27328533
16	0xbf0e6d9b	-0.55635995
17	0xc03b583b	-2.9272602
18	0x3de1c94c	0.110247225
19	0x3eeee85a	0.46661645
20	0xbeeac277	-0.4585149
21	0xbe8ce9cb	-0.2752212
22	0x3dec42dc	0.1153619
23	0xbef2d5b3	-0.47428665
24	0xbe2751ba	-0.1633977
25	0xbe09de56	-0.1346372
26	0x3f0b3b40	0.54387283
27	0x3f38779e	0.7205752
28	0x3eba81a3	0.3642703
29	0x3e1e875e	0.15481326
30	0xbd19b082	-0.037521847
31	0xbe15aeb1	-0.1461742
32	0x3e8f6f24	0.2801448
33	0xbe1fb9c7	-0.15598212
34	0xbd1175d5	-0.035512764
35	0xbd8b6af1	-0.06807507
36	0xbd23dc4c	-0.040005013
37	0x3f1d05f6	0.6133722
38	0xbeda364b	-0.42619547
39	0x3d7673e2	0.06016911
40	0xbfab3ddd	-1.3378254
41	0xbe7c899d	-0.2466187
42	0xbe11c5f5	-0.14235671
43	0x3d9bddae	0.076106414
44	0xbd5b7e24	-0.053587094
45	0xbfa18935	-1.2619997
46	0xbe1d6927	-0.15372144
47	0x3f918cd0	1.1371098
48	0xbf8f17b3	-1.1179107
49	0x3c72808a	0.014801154
50	0xbd51bb5a	-0.051204063
51	0xbf911aae	-1.1336267
52	0xbe5fd5a9	-0.21858849
53	0x3b1bf60e	0.0023797783
54	0xbea8de6d	-0.32982197
55	0x3f470d7a	0.7775494
56	0x3c474afb	0.012163873
57	0xbf6b7f33	-0.91990966
58	0x3e157466	0.14595184
59	0x3ef0ccca	0.47031242
60	0x3b258d31	0.0025261159
61	0xbea8318d	-0.32850304
62	0xbfa7ce1c	-1.3109775
63	0x3f28f891	0.6600428
64	0x3df3b60e	0.118999586
65	0x3f237f46	0.6386608
66	0x3cf54129	0.029938297
67	0x3f75ca29	0.96011597
68	0x3b882d7e	0.0041558137
69	0x3d49ffe1	0.04931629
70	0xbf13a10e	-0.57667625
71	0xbf725b28	-0.94670343
72	0xbf99c7fd	-1.2014157
73	0x3f2b10d8	0.66822577
74	0xbe47f58c	-0.19527262
75	0x3dfa7fb7	0.12231391
76	0x3e1cf4e5	0.15327795
77	0x3f10cd4e	0.5656327
78	0x3d32435f	0.04352128
79	0x3f298a09	0.6622625
80	0xbd3a8917	-0.045540895
81	0x3f05d13a	0.5227238
82	0x3f9e1e8a	1.235307
83	0x3e625a34	0.22104722
84	0xbf04e025	-0.5190452
85	0xbead016f	-0.33790156
86	0xbe3c12cc	-0.18366545
87	0xbf4ecd6c	-0.807822
88	0x3e6ffe7f	0.23436926
89	0x3efe22b8	0.49635863
90	0x3ecf4a89	0.40486553
91	0xbf979f28	-1.1845446
92	0x3bb8b5b9	0.0056368974
93	0x3eddb90c	0.43305242
94	0x3f0079cc	0.5018585
95	0x3e900aab	0.2813314
96	0xbd5f509f	-0.054520246
97	0x3f190f9b	0.5978944
98	0xbf2d0ce1	-0.67597777
99	0xbe313b0b	-0.1730768
100	0x3d87b99a	0.066271976
101	0x3da70ff5	0.081573404
102	0xbc867470	-0.016412944
103	0xbdda7916	-0.106676266
104	0x3dacbe59	0.084347434
105	0xbe2944bc	-0.16530126
106	0xc0198345	-2.398637
107	0xbea4ae74	-0.32164347
108	0x3d2d2e52	0.042280503
109	0x3dcb348d	0.09922133
110	0xbf4b464d	-0.79404145
111	0x3eda2c05	0.4261171
112	0xbe63076d	-0.22170801
113	0x3c906ea0	0.017630875
114	0xbc8f4618	-0.017489478
115	0x3c8e73bb	0.017389169
116	0xbfa0b1d3	-1.2554268
117	0x3f2d1f78	0.6762614
118	0xbf8242b4	-1.0176606
119	0xbce400a2	-0.027832333
120	0xbf824e30	-1.0180111
121	0x3c814201	0.015778543
122	0x3e37250b	0.17885225
123	0xbdcea937	-0.10090869
124	0x3f235a2c	0.63809466
125	0xbf9492ad	-1.1607262
126	0x3ed4592a	0.41474277
127	0x3e928e9c	0.28624427
128	0x3f194fd1	0.59887415
129	0x3f2ba028	0.67041254
130	0x3bf23db1	0.007392608
131	0x3f3a624e	0.7280625
132	0x3e18dbe9	0.14927639
133	0x3d9db169	0.07699854
134	0xbdd4a0b1	-0.10382212
135	0x3ea7dad4	0.3278414
136	0xbe6a51c4	-0.22882754
137	0xc020eb12	-2.5143476
138	0xc0167668	-2.350977
139	0xbe642f09	-0.22283567
140	0x3e91c6ec	0.28472078
141	0x3f04bdb8	0.5185199
142	0xbdcdc7b3	-0.10047855
143	0x3dfccad2	0.123433724
144	0xbeb6ae9f	-0.356801
145	0x3e791f73	0.24328403
146	0x3ea4c057	0.32177994
147	0x3bdc3ff5	0.0067214915
148	0xbd9b60d2	-0.075868264
149	0x3f2a501a	0.66528475
150	0xbe247f22	-0.16064122
151	0xbf8cdc8c	-1.1004806
152	0xbf622287	-0.88333935
153	0x3d1da451	0.038486782
154	0x3ebddf8d	0.37084618
155	0x39a9fdf5	0.00032423405
156	0xbe402a62	-0.18766168
157	0x3ea081ef	0.3134913
158	0x3f2b43a3	0.6690008
159	0xbe982988	-0.29719186
160	0x3d92323c	0.07138488
161	0xbe417951	-0.18893935
162	0xbd103647	-0.035208013
163	0x3efb2459	0.4905117
164	0xbd411abb	-0.047144633
165	0x3ec33139	0.3812349
166	0xbc954538	-0.018221483
167	0xbe2e537e	-0.17024037
168	0x3d4a5017	0.049392786
169	0x3e81b6ee	0.25334877
170	0x3f9eaac4	1.2395864
171	0x3f40d130	0.75319195
172	0xbefdb15b	-0.49549374
173	0xbcc88633	-0.024478054
174	0x3d03a761	0.032142047
175	0xbe0f5227	-0.13996182
176	0x3ee0f4d6	0.43936795
177	0xbdf658ea	-0.12028678
178	0xbffab63a	-1.9586861
179	0xbe5b4e45	-0.21416576
180	0xbeeda678	-0.46416068
181	0x3f5a5892	0.852914
182	0xc004c43b	-2.074477
183	0x3d0ee302	0.03488446
184	0x3f3d8552	0.74031556
185	0xbf17b547	-0.5926098
186	0xbea3dffa	-0.32006818
187	0x3e3c2775	0.18374427
188	0xbecca3b6	-0.39968652
189	0xbca46147	-0.020065917
190	0x3ef75e8a	0.48314315
191	0xbc555316	-0.0130202975
192	0x3eb61b08	0.35567498
193	0xbda69aa6	-0.081349656
194	0x3d211907	0.03933051
195	0xbd973fdb	-0.07385226
196	0xbb9bee45	-0.0047586286
197	0xbe94335f	-0.28945443
198	0xbf59b1e0	-0.8503704
199	0x3db84bcb	0.08998831
200	0x3e94bc7a	0.29050046
201	0xbc95ce2e	-0.01828679
202	0x3f139d22	0.5766164
203	0xbeaae6e4	-0.3337928
204	0xbf2dea6b	-0.6793582
205	0xbe5b2c8b	-0.2140371
206	0x3eb9e621	0.36308387
207	0xbe9e090a	-0.3086627
208	0xbebbc9c1	-0.36677364
209	0x3ed0034f	0.40627524
210	0x3f4fe3be	0.8120688
211	0x3f22dbba	0.63616526
212	0xbf3ca202	-0.73684704
213	0x3d2cafb3	0.042159747
214	0x3ee30f3a	0.44347554
215	0x3ca26700	0.019824505
216	0xbdf50f56	-0.11965816
217	0xbf2ce770	-0.67540646
218	0x3f124a46	0.5714458
219	0x3faadd01	1.3348695
220	0xbf8fffd1	-1.1249944
221	0xbedcaf83	-0.43102655
222	0xbdbba625	-0.09162549
223	0xbd08f5fe	-0.03343772
224	0x3e6b2e90	0.22966981
225	0x3d837cda	0.06420298
226	0x3ed6aedc	0.41930282
227	0xbd2c44a6	-0.042057656
228	0x3e59a922	0.21255925
229	0x3eac7f7b	0.3369101
230	0x3eaef8df	0.3417425
231	0xbf0f74b9	-0.5603748
232	0xbda4843f	-0.080330364
233	0x3e8f8b8d	0.28036156
234	0x3eb1c78f	0.34722564
235	0x3ebbaa18	0.3665321
236	0xbf11969e	-0.5687045
237	0x3f24963c	0.6429174
238	0x3cc61677	0.024180634
239	0x3ed89f6f	0.42309138
240	0x3fb08620	1.3790932
241	0xbdc8ab2e	-0.09798275
242	0x3f2fd566	0.68684995
243	0x3d662fd8	0.05619797
244	0xbd2a1055	-0.04151948
245	0xbee80ce3	-0.45322332
246	0x3df039ca	0.117297724
247	0x3e3d35d0	0.18477559
248	0xbd766f95	-0.060165007
249	0x3ed50634	0.41606295
250	0x3f2c87fe	0.6739501
251	0xbc162fe3	-0.0091666905
252	0xbe5a7173	-0.2133234
253	0x3fa0e2c0	1.2569199
254	0xbe6fa2b7	-0.23401915
255	0xc00243e0	-2.0353928
